Projects/MNIST_Model.pth (torch, 137221 bytes, 10 tensors)

block_1.0.weight f4 [32, 1, 3, 3]
0	0x3f075cf6	0.5287622
1	0xbe569206	-0.20954141
2	0x3daee4e9	0.08539755
3	0x3ef28804	0.47369397
4	0xbeeb6384	-0.45974362
5	0xbf0b92ad	-0.54520684
6	0xbdf0b6d6	-0.11753623
7	0x3e04f995	0.12985833
8	0xbe41d7b2	-0.18929937
9	0xbe71e12a	-0.2362105
10	0xbea60cfc	-0.3243178
11	0x3e972dcb	0.29527125
12	0xbe858a37	-0.26082012
13	0x3ecd8902	0.4014359
14	0x3c710a5e	0.014711944
15	0x3e3972cf	0.18110202
16	0x3e50cf3a	0.2039155
17	0xbea5758a	-0.32316238
18	0x3e0b9fe0	0.13635206
19	0xbd0c5537	-0.034260955
20	0x3e2d500f	0.16925071
21	0x3e9153e5	0.2838432
22	0x3e49d62c	0.19710606
23	0xbe33dfed	-0.1756589
24	0xbe835dee	-0.256576
25	0x3da933ae	0.0826181
26	0x3e580ee8	0.21099436
27	0xbdff5090	-0.12466538
28	0xbf3864ba	-0.72028697
29	0xbf3cf1ef	-0.7380666
30	0x3e8d07ff	0.27545163
31	0xbdaf1cd5	-0.08550421
32	0x3d5ab341	0.053393606
33	0x3e2af5eb	0.16695373
34	0x3eb137dd	0.34612933
35	0x3f049bf3	0.5180046
36	0x3e36ba6f	0.17844556
37	0x3cc5c64e	0.02414241
38	0x3e5f6e49	0.21819414
39	0xbd8bbc7e	-0.068230614
40	0x3ead729f	0.3387651
41	0xbe7be0fd	-0.24597545
42	0xbdef89a5	-0.116961755
43	0x3d386c5d	0.04502522
44	0x3ea7d486	0.3277933
45	0x3dc519d1	0.09624065
46	0x3e624e43	0.22100167
47	0xbe9cf6fd	-0.30657187
48	0xbe430384	-0.1904431
49	0x3e85e60a	0.26152068
50	0xbe245753	-0.16048937
51	0xbe263787	-0.1623212
52	0xbe01bfda	-0.12670842
53	0xbdecc421	-0.11560846
54	0x3ca8f0f3	0.020622706
55	0x3d337f85	0.043822784
56	0xbdf1544e	-0.11783658
57	0xbdc88928	-0.097917855
58	0x3e88f153	0.26746616
59	0xbe59795c	-0.21237701
60	0x3cb4d221	0.022072854
61	0xbdf81c06	-0.1211472
62	0x3bfd9c2f	0.007739566
63	0x3d184b91	0.03718144
64	0xbdfb641e	-0.12274955
65	0xbeb2a0f7	-0.3488843
66	0x3e2ee43a	0.17079249
67	0xbcf95fd8	-0.03044121
68	0x3d7a7f85	0.06115677
69	0x3d6e05ac	0.058110878
70	0xbe30e8f5	-0.17276366
71	0x3e68743b	0.22700588
72	0xbefaaf74	-0.48961985
73	0x3d1e0db7	0.0385873
74	0x3d889339	0.066687055
75	0xbd7a0744	-0.061042085
76	0xbd89551f	-0.06705689
77	0x3dae5241	0.085117824
78	0x3e8b9ad0	0.2726655
79	0x3e3edff6	0.18640122
80	0xbe055d13	-0.13023786
81	0xbdb0f9aa	-0.0864137
82	0xbc378e6f	-0.011203392
83	0x3ec68400	0.38772583
84	0xbe3943a2	-0.18092206
85	0x3e88a1e9	0.26686028
86	0x3ec6f578	0.38859153
87	0xbef59bda	-0.47970468
88	0xbf1553ff	-0.5833129
89	0x3e8cdf5d	0.27514163
90	0x3e1df99d	0.15427251
91	0x3db32627	0.08747511
92	0xbe166ba8	-0.14689505
93	0xbdb3083d	-0.08741806
94	0xbe3a922f	-0.18219827
95	0x3d600e4d	0.05470114
96	0x3e06184f	0.1309521
97	0x3e908605	0.2822725
98	0x3e599993	0.2124999
99	0x3ec0d98b	0.37665972
100	0x3ec8ba69	0.3920472
101	0x3f0294b5	0.5100816
102	0x3e47fd1c	0.19530147
103	0xbf02813e	-0.5097846
104	0xbecb79d4	-0.39741385
105	0x3c1243a3	0.008927259
106	0xbf723e71	-0.9462653
107	0xbf112306	-0.56694067
108	0x3e28c033	0.16479568
109	0xbe2db808	-0.16964734
110	0xbc24d013	-0.010059374
111	0xbe6fcb29	-0.23417343
112	0x3e377352	0.17915085
113	0x3e823c74	0.25436747
114	0x3e192e10	0.14958978
115	0x3d617ccf	0.055050667
116	0xbe8bc3bc	-0.2729777
117	0xbe8ce80b	-0.27520785
118	0x3e90b5b7	0.28263637
119	0xbd64ed08	-0.055890113
120	0xbe915716	-0.28386754
121	0xbe61b658	-0.22042215
122	0x3e1e5436	0.15461811
123	0xbddedfc1	-0.108825214
124	0x3eb55fce	0.35424656
125	0x3d245841	0.040123228
126	0x3cfd5a15	0.030926744
127	0x3e3169a7	0.1732546
128	0x3d815080	0.06314182
129	0x3eb641aa	0.35596973
130	0xbd8f1d54	-0.06988016
131	0xbe47b1c5	-0.19501407
132	0x3e6fc04d	0.234132
133	0xbecfaf80	-0.40563583
134	0xbe417175	-0.18890937
135	0x3e14faa7	0.14548741
136	0x3d37268e	0.044714503
137	0x3e76eebb	0.24114506
138	0xbe8eeac5	-0.2791349
139	0xbe8dfd3b	-0.27732262
140	0xbe9ccf06	-0.30626696
141	0xbe0626a7	-0.13100682
142	0x3e57667d	0.2103519
143	0xbd7cc834	-0.061714366
144	0xbd85abc6	-0.06526904
145	0xbc83b2dd	-0.0160765
146	0xbc7f2b28	-0.015574254
147	0xbcaf133a	-0.021371473
148	0x3e0e8b65	0.13920362
149	0x3e2f2d6b	0.1710717
150	0xbeb92cfa	-0.36167127
151	0xbe24aeda	-0.16082326
152	0x3ea95af3	0.330772
153	0x3ccf92ea	0.025338609
154	0xbe0ec20f	-0.13941215
155	0x3e5b45a7	0.21413289
156	0xbe892ba5	-0.2679111
157	0xbe1b3b72	-0.15159395
158	0x3cadbca7	0.02120812
159	0xbe8b8ddc	-0.27256668
160	0x3ead05d1	0.337935
161	0xbe685ca1	-0.22691585
162	0xbed84231	-0.42238
163	0xbe69b11e	-0.22821471
164	0x3e9dcd7e	0.3082084
165	0xbdc7a8e6	-0.09749012
166	0x3d9bc43f	0.0760579
167	0xbe7f3ac5	-0.24924763
168	0x3ef76c69	0.48324898
169	0x3efdc3a5	0.49563327
170	0xbd9a024a	-0.07519968
171	0x3e1f543a	0.15559474
172	0xbdc6f6f4	-0.09715071
173	0xbedca626	-0.4309551
174	0x3eb061c2	0.34449583
175	0x3e96b393	0.2943388
176	0x3dd6a319	0.10480327
177	0xbe6f8a0e	-0.23392507
178	0x3e0aca33	0.13553695
179	0xbe158f40	-0.14605427
180	0x3dca7a3c	0.098865956
181	0x3e19d1c3	0.15021424
182	0xbe9ea04b	-0.3098167
183	0x3dbee288	0.09320551
184	0xbe08039a	-0.13282624
185	0xbeb463b0	-0.35232306
186	0x3eab612f	0.33472583
187	0x3e4fd114	0.202946
188	0xbe3fe0c8	-0.18738091
189	0x3e220f29	0.15826096
190	0xbe968154	-0.29395545
191	0x3d065c29	0.032802735
192	0xbeaa5cfa	-0.3327406
193	0x3e8dfd3b	0.27732262
194	0xbdb3b4ac	-0.08774695
195	0xbc2fe062	-0.010734649
196	0x3e090d3f	0.13383959
197	0x3d939f79	0.07208151
198	0xbeb709dc	-0.3574971
199	0xbebc014e	-0.36719745
200	0x3dbcc1e3	0.092166685
201	0xbe6770ea	-0.22601667
202	0x3e7c4066	0.24633941
203	0xbd1c3055	-0.03813203
204	0x3dff0789	0.12452609
205	0x3e44d447	0.19221602
206	0x3e6d77f3	0.23190288
207	0xbab15e73	-0.0013532176
208	0xbdf87ad0	-0.121327996
209	0xbf0f4e5b	-0.55978936
210	0xbeadfe2a	-0.33982974
211	0x3e3682d5	0.17823346
212	0x3e6171ae	0.22016022
213	0xbb7efaca	-0.0038906806
214	0x3e9f8489	0.31155804
215	0x3e4f6aa1	0.2025552
216	0xbe24faf1	-0.16111352
217	0x3ea19157	0.31556198
218	0xbe29b10f	-0.16571449
219	0xbe168e28	-0.14702666
220	0x3e45d86f	0.19320844
221	0xbe9a8c27	-0.30185053
222	0x3da29d4f	0.079401605
223	0x3e6a9473	0.22908191
224	0xbe6da7bd	-0.23208518
225	0xbe01a790	-0.12661576
226	0xbe665a70	-0.22495437
227	0xbe26195f	-0.16220616
228	0x3e182731	0.148587
229	0xbdd84563	-0.105601095
230	0xbe6c5d77	-0.23082529
231	0x3eb8322e	0.35975784
232	0xbd0e7cf5	-0.034787137
233	0x3e4fb739	0.20284738
234	0xbe43af28	-0.19109786
235	0x3ed83e2c	0.42234933
236	0x3d814b62	0.06313206
237	0x3cf0a5e8	0.029375985
238	0x3d044760	0.03229463
239	0x3e8a5674	0.27019083
240	0xbeabd137	-0.33558056
241	0xbd9d460b	-0.07679375
242	0xbe257268	-0.16156924
243	0xbdbe1f1a	-0.09283276
244	0xbed07394	-0.4071318
245	0xbe383e8d	-0.17992611
246	0x3d9900f5	0.07470886
247	0x3e5f9b6a	0.2183663
248	0xbc7dd92d	-0.015493673
249	0xbcc5572f	-0.024089424
250	0x3df903c7	0.121589236
251	0x3e665e7f	0.22496985
252	0xbe64b5b6	-0.22334942
253	0x3e211bea	0.15733305
254	0x3ec2f92a	0.38080722
255	0x3e2dc19c	0.16968387

block_1.0.bias f4 [32]
0	0x3e11edd7	0.14250885
1	0xbda7dd05	-0.08196453
2	0xbe06809b	-0.13134997
3	0xbe2544e5	-0.16139562
4	0xbdc6b14e	-0.09701787
5	0xbe9a03a7	-0.30080912
6	0xbda390b4	-0.07986584
7	0xbe1227c1	-0.14272977
8	0x3d4af209	0.04954723
9	0x3e773364	0.24140698
10	0xbd4ee8dc	-0.05051504
11	0xbe248fad	-0.16070433
12	0x3e044a43	0.12918954
13	0x3d4626a3	0.04837669
14	0xbd1412b5	-0.036150653
15	0xbaa7bd5d	-0.0012797524
16	0x3e22ed22	0.15910771
17	0xbe82abc5	-0.25521675
18	0xbe282035	-0.16418536
19	0x3db85795	0.0900108
20	0x3b1683ce	0.0022966745
21	0xbe9df864	-0.3085357
22	0x3d8d71ff	0.06906509
23	0x3e24c585	0.16090973
24	0xbd842539	-0.06452412
25	0x3c97066e	0.018435683
26	0x3e7c8938	0.2466172
27	0xbcfac1aa	-0.030609924
28	0x3e2a3a71	0.16623856
29	0x3d87dcc9	0.06633908
30	0x3d6674ea	0.05626384
31	0xbb6e22bf	-0.0036336628

block_1.2.weight f4 [32, 32, 3, 3]
0	0x3daa7250	0.08322585
1	0xbe09b69b	-0.13448565
2	0xbca8ba88	-0.020596758
3	0xbda274c3	-0.07932427
4	0xbd5e0f3b	-0.054213744
5	0x3ae6d084	0.001760975
6	0xbdb24058	-0.08703679
7	0xbd7f249f	-0.062290784
8	0x3cb8a1b7	0.02253805
9	0xbce80458	-0.028322384
10	0x3d044ba7	0.03229871
11	0x3df21902	0.11821176
12	0x3b885942	0.004161031
13	0x3dccb4ee	0.09995447
14	0x3d2d2fb6	0.04228183
15	0x3c7d96cd	0.015477848
16	0x3d2f3af7	0.042780843
17	0x3c90ee4a	0.01769175
18	0xbd81ca3b	-0.063374005
19	0xbd77537a	-0.060382344
20	0xbd450841	-0.048103575
21	0xbd84e577	-0.064890794
22	0x3b7e5cfd	0.003881275
23	0xbd7b0c15	-0.06129082
24	0xbd50820a	-0.050905265
25	0x3d63b324	0.055590764
26	0x3cea2766	0.02858324
27	0xbdb91b85	-0.09038452
28	0x3d785813	0.06063087
29	0xbd2b3916	-0.04180249
30	0xb9c07753	-0.00036709997
31	0xbc79e179	-0.015251511
32	0x3d98b945	0.07457212
33	0x3a650d99	0.0008737683
34	0xbcc0543d	-0.023477668
35	0xbd993564	-0.074808866
36	0xbc2cb151	-0.010540322
37	0xbd5d7845	-0.054069776
38	0xbcf14feb	-0.029457053
39	0xbd984dd9	-0.07436723
40	0x3cc32fc6	0.023826491
41	0x3cf4b303	0.029870516
42	0xbc020e45	-0.007937972
43	0xbd1e34fe	-0.038624756
44	0xbd9391d2	-0.072055474
45	0xbd646036	-0.055755816
46	0xbb77e844	-0.003782765
47	0xbcb8c9d7	-0.022557182
48	0xbd23fac3	-0.040034067
49	0xbc218c4b	-0.009860109
50	0xbd7218aa	-0.059105553
51	0xbd62784c	-0.055290505
52	0x3d3829ae	0.044961624
53	0x3d811b0b	0.06303986
54	0x3c1684b3	0.009186911
55	0xbd71cd3b	-0.059033614
56	0x3c577880	0.013151288
57	0x3d329a3f	0.04360413
58	0xbce9b5a6	-0.028529
59	0xbd3eec60	-0.046612144
60	0xbd53bed7	-0.05169567
61	0x3caf5bd5	0.021406094
62	0xbcae861a	-0.021304179
63	0xbd4f973e	-0.050681345
64	0xbd2b1adf	-0.041773673
65	0xbca5b6a2	-0.020228688
66	0x3c971999	0.018444823
67	0xbc254319	-0.010086798
68	0x3d2956eb	0.041342657
69	0xbd407f7d	-0.046996582
70	0x3c82d1fb	0.015969267
71	0xbd44879a	-0.047980882
72	0xbdcfb7f8	-0.10142511
73	0x3be9efc8	0.00713918
74	0x3da76bb4	0.081748396
75	0xbd7540c3	-0.059876215
76	0x3d466c2d	0.04844301
77	0xbb1feb98	-0.00244019
78	0x3cc858d8	0.024456427
79	0x3d61561e	0.05501377
80	0x3d503f1c	0.050841436
81	0x3d5a7a2e	0.053339176
82	0x3d8a9294	0.06766239
83	0xbd5dd5cf	-0.054158982
84	0x3bda429d	0.006660773
85	0x3df5a683	0.1199465
86	0xbd79dc19	-0.061000917
87	0x3de6a30f	0.1126157
88	0x3d8f4e38	0.06997341
89	0xbde5bbff	-0.11217498
90	0xbd8dc677	-0.0692262
91	0xbd2ef47d	-0.04271363
92	0x3981e353	0.00024774167
93	0x3cd1bccb	0.025602719
94	0x3d30fbc6	0.04320886
95	0x3caa8c6e	0.020818915
96	0x3bd776cb	0.0065754405
97	0xbbe7fe40	-0.0070798695
98	0xbc84394b	-0.0161406
99	0xbd7b02eb	-0.06128208
100	0xbd816ce9	-0.06319601
101	0x3c38f58c	0.011289012
102	0xbe06c7c7	-0.13162147
103	0xbd3617bc	-0.04445623
104	0x3dc95faa	0.098326996
105	0xbe1dbae2	-0.15403321
106	0xbb0e437b	-0.0021707702
107	0x3d2a5fb4	0.041595176
108	0xbbd29a9c	-0.0064271223
109	0xbaeecbad	-0.0018218659
110	0x3d9a62b5	0.07538358
111	0x3bc7d86d	0.006098798
112	0x3dbb3625	0.091411866
113	0x3c22f7e2	0.009946795
114	0xbcc3f4f3	-0.023920512
115	0x3d174f75	0.03694101
116	0xbd3e09f1	-0.0463962
117	0x3b1fafe5	0.0024366316
118	0x3da717de	0.08158849
119	0x3d540465	0.051762003
120	0x3d9deafb	0.077108346
121	0x3b399a53	0.0028320744
122	0x3d55227a	0.052034833
123	0xbd15f7c2	-0.036613233
124	0x3d2bc9a2	0.04194034
125	0x3c830391	0.015992912
126	0x3be34bef	0.006936542
127	0x3c3b6205	0.011436944
128	0x3cdc5032	0.026893709
129	0x3cfb1423	0.03064925
130	0xbd3e9970	-0.04653305
131	0x3d8aa91c	0.06770536
132	0x3cc7cae0	0.02438873
133	0xbb2aca3c	-0.0026060482
134	0xbc58fe1c	-0.013244178
135	0x3c8a84fb	0.016909113
136	0x3d55113b	0.052018385
137	0x3cdb90e6	0.026802491
138	0x3c2381d1	0.009979681
139	0xbd821eec	-0.06353554
140	0xbd6d3220	-0.05790913
141	0xbc606ac6	-0.013697332
142	0xbd8184d9	-0.06324167
143	0x3d957917	0.07298487
144	0x3d346280	0.04403925
145	0x3ccc10b7	0.024910314
146	0x3d292847	0.041298177
147	0x3c2b560c	0.010457527
148	0x3cc5d3e9	0.024148898
149	0xbd29eea7	-0.041487362
150	0x3d488666	0.048956297
151	0x3d4750d5	0.04866107
152	0xbd909af0	-0.07060802
153	0x3c112441	0.008858741
154	0x3d844755	0.06458918
155	0xbcc980a9	-0.024597483
156	0x3d3fd93f	0.04683804
157	0xbc6eeb2f	-0.014582439
158	0xbd3beb49	-0.045878682
159	0x3c858112	0.016296897
160	0xbd11f865	-0.035637278
161	0x3c412463	0.01178846
162	0xbd21156b	-0.039327066
163	0x3c9496ed	0.018138373
164	0xbca4a501	-0.020098211
165	0xbd2681b7	-0.04065105
166	0xbd155dba	-0.036466338
167	0x3dcbce9d	0.09951518
168	0xbc8153c3	-0.015787011
169	0x3cdf26e6	0.027240228
170	0xbda9149b	-0.08255883
171	0xbd7aeb87	-0.061259773
172	0xbcf1712c	-0.02947291
173	0x3c4bbc37	0.012435011
174	0xbd68305e	-0.05668675
175	0x3d07d513	0.033162188
176	0xbd11ff9b	-0.035644155
177	0xbd02a3e7	-0.03189459
178	0x3c419394	0.0118149705
179	0x3d338e48	0.04383686
180	0xbd9c025e	-0.07617639
181	0xbcf772ab	-0.030206045
182	0x3be8780c	0.007094389
183	0xbd4eb4be	-0.050465338
184	0xbc57cd85	-0.013171558
185	0x3badce60	0.005304143
186	0x3b029937	0.001992775
187	0xbc69b2a5	-0.014263784
188	0x3c80154e	0.015635159
189	0x3c829e84	0.015944727
190	0xbb51db17	-0.0032021457
191	0x3c2335fd	0.009961602
192	0x3cd53bf3	0.026029563
193	0x3d2ce20b	0.04220776
194	0xbd475848	-0.048668176
195	0xbd4730c6	-0.0486305
196	0xbcc3f157	-0.02391879
197	0x3c7106ab	0.014711062
198	0xbdc5b403	-0.09653475
199	0x3db1eb4e	0.08687459
200	0x3ce95f8c	0.028487943
201	0xbd143c0f	-0.03619009
202	0x3e1e18fd	0.1543922
203	0x3d95e9cf	0.07319986
204	0x3cda000a	0.026611347
205	0x3d8e1562	0.06937672
206	0xbdac795b	-0.08421584
207	0x3cfbe2c2	0.030747775
208	0x3d9b621b	0.075870715
209	0x3deabdaf	0.114619605
210	0x3e0500c6	0.12988576
211	0x3d6a044d	0.057133008
212	0x3c494e9b	0.012286807
213	0xbcb8445c	-0.022493534
214	0xbd7a92b7	-0.061175074
215	0xbd39073a	-0.045172907
216	0x3c42aefb	0.011882539
217	0xbb484285	-0.0030557227
218	0x3d0b3ffc	0.033996567
219	0xbd29d30c	-0.041461036
220	0x3d16e2f5	0.036837537
221	0x3ce0e000	0.027450562
222	0xbbfd6b36	-0.007733728
223	0x3c9dda67	0.019269181
224	0xbbfb357d	-0.0076662884
225	0xbd31a209	-0.04336742
226	0x3d251c5d	0.040310252
227	0xbd06c122	-0.03289903
228	0xbd11dbcc	-0.035610005
229	0x3cf25e02	0.029585842
230	0x3d56d984	0.052453533
231	0x3a59204f	0.00082827074
232	0x3ad858ca	0.0016505953
233	0xbd1d39da	-0.03838525
234	0x3c6bb1d6	0.014385661
235	0xbc8df166	-0.017327022
236	0x3d853d82	0.06505872
237	0x3c62fa7c	0.013853665
238	0xbc6eead7	-0.014582357
239	0x3d054f3f	0.032546278
240	0x3d1ba95b	0.038003307
241	0x3d784ff2	0.060623117
242	0x3d5bced4	0.053664044
243	0xbc954b69	-0.018224435
244	0x3da11d1b	0.078668796
245	0x3c268ab5	0.010164906
246	0x3d0338b3	0.032036494
247	0x3d8da79a	0.06916733
248	0xbc07d486	-0.008290416
249	0xbc33ce69	-0.010974505
250	0x3cdb0dd4	0.026739992
251	0xbdae03a1	-0.08496786
252	0xbd482b15	-0.04886921
253	0x3b957323	0.0045608445
254	0xbd9a288b	-0.07527264
255	0xbd93e6a7	-0.07221728

block_1.2.bias f4 [32]
0	0x3d82858b	0.063731275
1	0x3e10fc23	0.14158683
2	0x3d7aa239	0.061189864
3	0x3d8ba18d	0.06817923
4	0xbc3337b5	-0.010938575
5	0xbcaed657	-0.02134244
6	0x3d1aa0b2	0.037750907
7	0x3deff918	0.11717433
8	0x3d0f902a	0.035049595
9	0x3d2b6f29	0.041854057
10	0xbc0e605a	-0.008689964
11	0xbdae41fc	-0.08508679
12	0xbd75973f	-0.059958693
13	0x3ac80a51	0.0015261864
14	0x3e1c1c8c	0.15245265
15	0xbe0127bb	-0.12612812
16	0x3c388be7	0.011263824
17	0xbce723c9	-0.028215306
18	0x3e2a467c	0.1662845
19	0x3d404042	0.04693628
20	0x3c6416e9	0.013921478
21	0x3c73d5b1	0.014882491
22	0x3c4043bd	0.0117349
23	0xbd8a08e4	-0.06739977
24	0x3cbaca8c	0.02280166
25	0x3cd67054	0.02617661
26	0x3e471d56	0.19444785
27	0x3c9dd4de	0.019266542
28	0x3d397e67	0.045286562
29	0x3dfe9082	0.124299064
30	0xbca924d4	-0.020647444
31	0xbd65969c	-0.056051835

block_2.0.weight f4 [32, 32, 3, 3]
0	0xbc4b9cba	-0.012427503
1	0xbd45a2fd	-0.04825114
2	0xbcab6bbd	-0.020925397
3	0xbc1d0cbd	-0.009585557
4	0xbc2f696d	-0.010706288
5	0x3c49a55d	0.012307492
6	0xbce6a8eb	-0.028156718
7	0xbd33a122	-0.04385484
8	0x3d2ee590	0.042699397
9	0xbd6049d0	-0.054757893
10	0xbc36ae41	-0.011149944
11	0x3ca93fa9	0.020660238
12	0x3ca603a6	0.020265412
13	0x3cb95bf3	0.022626853
14	0xbc075052	-0.008258896
15	0x3b22ff1e	0.00248713
16	0xbd733242	-0.0593741
17	0xbd71ae53	-0.05900414
18	0x3c224233	0.009903478
19	0xbbc5bd5b	-0.006034536
20	0xbce20f64	-0.02759523
21	0xbd8f9768	-0.070113
22	0x3d112313	0.03543384
23	0x3b34b5a8	0.0027574096
24	0x3ca8a5e4	0.020586915
25	0xbd01b076	-0.031662427
26	0x3cdc4737	0.026889427
27	0xbd2490ee	-0.04017728
28	0xbd077dae	-0.033078842
29	0xbd6df396	-0.05809363
30	0x3ba5b522	0.005056993
31	0xbd3fa849	-0.04679135
32	0x3c3196da	0.0108391885
33	0xbd3da056	-0.046295486
34	0x3d173b3b	0.03692172
35	0xbd49ea0e	-0.049295478
36	0x3d116bfc	0.035503373
37	0xbd102546	-0.035191797
38	0xbcc53ba2	-0.024076287
39	0x3d182d73	0.03715272
40	0x3cf1c447	0.029512538
41	0x3cc39b28	0.023877695
42	0xbc94a0a7	-0.018143011
43	0x3c244d2e	0.010028167
44	0x3cad3996	0.021145623
45	0xbc85548b	-0.016275665
46	0x3c9e2042	0.019302491
47	0x3b91ea18	0.004452955
48	0xbd058a8f	-0.032602843
49	0xbc430df4	-0.011905182
50	0xbd33fe82	-0.04394389
51	0xbc48483e	-0.012224255
52	0xbc80eb3a	-0.015737165
53	0x3bdf9a6a	0.0068238275
54	0x3d173f7c	0.036925778
55	0x3c1779be	0.009245334
56	0x3b7ca928	0.0038552973
57	0x3bb64142	0.0055619786
58	0x3d3df2d3	0.046374153
59	0xbbd40a37	-0.0064709443
60	0xbcc935a0	-0.024561703
61	0x3d07063b	0.032964926
62	0xbcb83db9	-0.02249037
63	0xbd042fba	-0.032272078
64	0x3d16adf4	0.03678699
65	0xbd699452	-0.057026215
66	0xbcf9f398	-0.030511662
67	0x3cf727ba	0.03017031
68	0x3d4fef26	0.05076518
69	0x3d1ffa4c	0.03905706
70	0x3c3da8ad	0.01157586
71	0xbba6cf46	-0.005090627
72	0xbd3313ac	-0.043719932
73	0xbd39f21b	-0.045396905
74	0xbd28c34e	-0.041201882
75	0xbcd4ea7b	-0.025990715
76	0x3c50cd0a	0.012744198
77	0x3cbfdfbf	0.02342212
78	0xbc12f8bd	-0.008970437
79	0xbcb299ee	-0.021801915
80	0xbc83411a	-0.016022254
81	0x3c97dfd2	0.018539343
82	0x3b908510	0.0044103935
83	0xbd628160	-0.055299163
84	0x3ca640c7	0.02029456
85	0x3bdbce96	0.0067079766
86	0xbd06fa24	-0.032953396
87	0x3caa222f	0.020768253
88	0xbd425c73	-0.047451448
89	0x3d450a9b	0.048105817
90	0xbc5e5e09	-0.013572224
91	0x3d455303	0.04817487
92	0xbd3dd6fa	-0.046347596
93	0xbd6e2307	-0.058138873
94	0xbd02035a	-0.031741478
95	0x3d57a310	0.052645743
96	0x3ba39383	0.00499195
97	0xbbbd36c9	-0.005774353
98	0xbd3ff802	-0.046867378
99	0xba94bf40	-0.0011348501
100	0xbd1d3a35	-0.03838559
101	0xbd253edb	-0.040343147
102	0x3d1ad221	0.03779805
103	0x3d4de3ac	0.050265953
104	0x3d2f58b4	0.042809203
105	0x3d421a1f	0.047388192
106	0xbc3618f8	-0.011114351
107	0xbc743e3a	-0.014907414
108	0xbc9d85fd	-0.01922893
109	0x3cbccb1d	0.02304607
110	0x3d1fafec	0.03898613
111	0xbc8f1cec	-0.017469846
112	0x3c67add0	0.014140561
113	0x3c620911	0.013796107
114	0x3a6d0105	0.00090409844
115	0x3d7085ac	0.05872123
116	0xbce3dc55	-0.027815023
117	0xbd1f0a1d	-0.038828004
118	0x3d1c02bc	0.038088545
119	0x3cf659c5	0.030072102
120	0xbd1ff19b	-0.039048772
121	0xbce88a03	-0.028386122
122	0xbc30ca52	-0.010790424
123	0xbd3d5336	-0.046221934
124	0x3bdedc11	0.0068011363
125	0x3cc5e328	0.024156168
126	0x3d18537a	0.037188984
127	0x3d31bf46	0.043395303
128	0xbd3a71c0	-0.045518637
129	0xbd5f8abc	-0.054575667
130	0x3caf8c02	0.021429066
131	0xbbcccb75	-0.00624984
132	0x3d0d4f8e	0.034499697
133	0x3c54afff	0.012981414
134	0x3d10b8d6	0.035332523
135	0xbd02650e	-0.031834655
136	0xbd0f73c0	-0.035022497
137	0xbd63cc7a	-0.055614926
138	0x3d003cb2	0.031307884
139	0xbc1467e6	-0.009057974
140	0x3c84ab23	0.016194886
141	0x3cf540eb	0.029938182
142	0xbb4495f8	-0.0029996615
143	0x3c33f4e9	0.010983684
144	0xbb18014e	-0.0023194137
145	0xbb22aa1a	-0.0024820627
146	0xbd2dc4bb	-0.042423945
147	0xbd1ecc48	-0.038769037
148	0x3d3ae226	0.04562583
149	0x3c6ad814	0.014333744
150	0xbaf5b48d	-0.0018745825
151	0xbd5c277c	-0.053748593
152	0x3d52e264	0.051485434
153	0xbd34702b	-0.044052284
154	0xbc7f9eb3	-0.015601802
155	0x3d63d4f5	0.055623014
156	0xbd38c9dc	-0.045114383
157	0x3cb867b4	0.022510387
158	0x3bd6ec7a	0.006558952
159	0x3d4b0c23	0.04957212
160	0x3cd306eb	0.025760135
161	0xbb54844c	-0.0032427488
162	0x3c8a5865	0.016887853
163	0x3c12318f	0.0089229485
164	0x3d24ae89	0.040205512
165	0xbd899687	-0.06718164
166	0xbd5834bc	-0.052784666
167	0xbc59750c	-0.013272535
168	0xbc1eb152	-0.009685831
169	0xbc1ba783	-0.009500387
170	0xbd701108	-0.058609992
171	0x3d4d9d49	0.050198827
172	0xbd733729	-0.059378777
173	0x3d08a566	0.03336086
174	0x3d0285d8	0.031865925
175	0xbc74f859	-0.014951789
176	0xbd2cf7b6	-0.042228423
177	0x3d66c8ea	0.05634395
178	0x3d720497	0.05908641
179	0x3c99132d	0.018685902
180	0x3c5afc76	0.013365855
181	0x399ab5c3	0.00029508592
182	0x3bf305a3	0.0074164434
183	0xbd61aa36	-0.055093966
184	0x3d39cc12	0.045360632
185	0xbaf351b5	-0.0018563779
186	0xbcdb7d15	-0.026793042
187	0xbc94cbfc	-0.018163674
188	0xbd08d9d6	-0.03341087
189	0xbc9b3924	-0.018948145
190	0x3c1b9851	0.009496764
191	0x3d4b64cb	0.04965667
192	0x3c192856	0.009347996
193	0x3d4118c8	0.047142774
194	0x3d5b5c76	0.053554974
195	0xbd365d33	-0.044522475
196	0x3a63228b	0.000866451
197	0x3d51687c	0.051125035
198	0xbd54f270	-0.05198902
199	0x3c6c99ab	0.014440934
200	0x3cc8996c	0.02448722
201	0x3b974652	0.004616537
202	0xbd4f7a8f	-0.05065399
203	0x37ff8989	3.0462414e-05
204	0x3bc3903a	0.005968121
205	0xbbdb331a	-0.0066894414
206	0xbd64e2e0	-0.055880427
207	0x3c9c6ff2	0.019096348
208	0xbcab4530	-0.020907015
209	0x3ca6f01a	0.020378161
210	0x3c3abba5	0.011397277
211	0xbd642207	-0.055696514
212	0x3d750c16	0.05982598
213	0xbd5e3fa5	-0.054259915
214	0x3c95c9c6	0.01828469
215	0xbb9dc754	-0.0048150215
216	0x3ccef092	0.025261197
217	0xbd600a6a	-0.05469743
218	0xbceffd74	-0.02929566
219	0x3c9b8e61	0.01898879
220	0xbd1b41d8	-0.03790459
221	0x3cbdacda	0.023153711
222	0x3c4e26f1	0.012582527
223	0xbcc2899b	-0.023747256
224	0xbd3b1062	-0.04566992
225	0xbd3bd074	-0.045853093
226	0xbc252d11	-0.010081545
227	0xbc2a9bc6	-0.010413116
228	0x3c85117d	0.01624369
229	0x3d629efb	0.055327397
230	0x3b6b1933	0.0035873174
231	0xbd3db3fe	-0.046314232
232	0x3d00e525	0.03146853
233	0xbd2a98ef	-0.041649755
234	0xbc4a1f04	-0.012336496
235	0x3cab9dba	0.020949233
236	0x38cd5184	9.790345e-05
237	0xbd221834	-0.039573863
238	0xbd6cbfdc	-0.05780016
239	0xbd4e3a02	-0.05034829
240	0xbc4020a5	-0.011726533
241	0xbc55852d	-0.01303224
242	0xbcf491dd	-0.02985471
243	0xbd2d9f1b	-0.042388063
244	0xbd6bc818	-0.05756387
245	0x3d17f059	0.037094448
246	0xbb1cb06d	-0.002390887
247	0x3c8f0042	0.017456178
248	0xbd541587	-0.051778343
249	0xbb8801e4	-0.004150616
250	0xbc9a1989	-0.018811004
251	0x3d58ea6f	0.05295795
252	0x3d23d4e3	0.039997946
253	0x3d588d03	0.052868854
254	0x3cc5c53a	0.024141897
255	0xbd425e8f	-0.04745346

block_2.0.bias f4 [32]
0	0xbc4ae27d	-0.012383101
1	0xbc604eed	-0.013690692
2	0xbc0cc4bd	-0.008591828
3	0xbd8e25f4	-0.06940833
4	0xbd220892	-0.039558955
5	0x3db9af28	0.090666115
6	0xbcf34a23	-0.029698437
7	0xbcf46f9a	-0.029838372
8	0x3d7b699f	0.061380025
9	0xbe2e35b6	-0.17012677
10	0x3e24f9b8	0.16110885
11	0x3d0a305e	0.033737533
12	0x3ddd8c85	0.108178176
13	0x3d306871	0.043068353
14	0x3e654412	0.22389248
15	0xbd982850	-0.07429564
16	0xbd036dfc	-0.03208731
17	0x3d5497e1	0.051902656
18	0x3df3f5be	0.11912106
19	0x3e63e3c5	0.22254856
20	0xbd081246	-0.033220552
21	0x3e506f32	0.20354918
22	0xbb994f3c	-0.004678635
23	0x3c76ed16	0.015071174
24	0x3d29ed61	0.041486148
25	0x3d77fc49	0.060543332
26	0xbd5d4e6e	-0.054029875
27	0xbd032e54	-0.032026604
28	0xbc92b3f1	-0.017908068
29	0x3c850e3d	0.01624214
30	0x3d189e1a	0.037260152
31	0x3c7927cf	0.015207245

block_2.2.weight f4 [32, 32, 3, 3]
0	0xbd15553b	-0.036458235
1	0x3d173613	0.036916804
2	0xbc7f9e00	-0.015601635
3	0xbd0a9f78	-0.033843488
4	0x3ce68acb	0.028142354
5	0x3c4300d9	0.011902058
6	0xbcace535	-0.021105388
7	0x3d244784	0.040107265
8	0xbd5b0407	-0.053470638
9	0xbc80c90d	-0.015720868
10	0xbe0f908b	-0.14019983
11	0xbdad8e7d	-0.08474443
12	0xbc915fe8	-0.017745927
13	0xbdb4ec4b	-0.08834132
14	0xbc54cb1f	-0.012987881
15	0x3db33f95	0.08752362
16	0xbd064944	-0.032784715
17	0xbacf5ef6	-0.0015821147
18	0x3cf4222f	0.029801456
19	0xbd165bc7	-0.03670862
20	0xbcbb568e	-0.02286842
21	0x3d2c3b8c	0.042048976
22	0xbd5a48a2	-0.053291924
23	0xbc2fc1d0	-0.010727361
24	0x3dac3ca5	0.084100045
25	0x3d50590d	0.050866175
26	0xbaf12f20	-0.0018400885
27	0xbdc9b7f2	-0.09849538
28	0xbe300061	-0.17187645
29	0xbdfd7b21	-0.123770006
30	0xbd4d0d88	-0.050061733
31	0xbe2bccfb	-0.16777413
32	0xbd4f307e	-0.050583355
33	0xbd5da9b2	-0.054116912
34	0xbe4bb3b0	-0.19892764
35	0xbdbacce2	-0.091211095
36	0x3d7f42d8	0.062319607
37	0xbcb3e4de	-0.021959718
38	0x3d5af21b	0.053453546
39	0xbb98ac5d	-0.004659219
40	0x3c5061b7	0.0127186095
41	0xbd572cf6	-0.052533112
42	0x3d2890f7	0.041153874
43	0xbd18d2c6	-0.037310384
44	0x3cd5b872	0.026088927
45	0x3d604e1e	0.054762
46	0x3d7b79ba	0.061395384
47	0xbd3fd82d	-0.04683702
48	0x3d42cae2	0.047556765
49	0x3cad217d	0.021134133
50	0xbd02ddd9	-0.03194985
51	0x3d62f165	0.055405993
52	0x3bd71439	0.00656369
53	0xbd74e777	-0.059791055
54	0x3d3750ca	0.04475478
55	0xbccd62be	-0.025071498
56	0x3d4c7893	0.049919676
57	0xbd24e936	-0.04026147
58	0x3c949c29	0.01814087
59	0xbd59b4a7	-0.0531508
60	0xbd16c6a2	-0.036810525
61	0xbcb84348	-0.02249302
62	0x3ca7dacc	0.020490073
63	0x3c856bf1	0.016286822
64	0xbcdfc7a7	-0.027316881
65	0xbc18017a	-0.009277696
66	0xbd096000	-0.03353882
67	0x3d01198b	0.0315185
68	0xbd2dcc39	-0.04243109
69	0xbd1126a1	-0.03543723
70	0x3d2fccc6	0.042919897
71	0x3d58fc11	0.052974764
72	0xbd099cf7	-0.03359696
73	0xbc351685	-0.011052732
74	0xba8e57ee	-0.0010859945
75	0xbc1ad125	-0.009449278
76	0xbd63a824	-0.055580273
77	0xbd01c384	-0.0316806
78	0x3cbe8949	0.023258822
79	0x3ba8f4dc	0.0051561426
80	0x3d2e228f	0.042513426
81	0xbd81a4b8	-0.06330246
82	0xbe011e41	-0.12609197
83	0x3a45f5cd	0.0007551581
84	0xbda4211e	-0.08014129
85	0xbc3c44cf	-0.011491015
86	0xbd9b9ed2	-0.07598652
87	0xbe0e80c5	-0.13916309
88	0xbd64f192	-0.055894442
89	0xbc623ee1	-0.013808937
90	0xbc034f31	-0.008014486
91	0xbd90b1ab	-0.070651375
92	0x3d8c06fe	0.06837271
93	0xbd249450	-0.040180504
94	0xbd2ead2d	-0.042645622
95	0x3c0771fc	0.008266922
96	0xbd9adba5	-0.07561425
97	0xbdf3699a	-0.11885376
98	0xbba3dd2f	-0.0050007324
99	0x3cd9821d	0.0265513
100	0x3aed79cc	0.0018117963
101	0xbd481794	-0.04885061
102	0x3cb6c329	0.022309856
103	0xbb8760e0	-0.0041314214
104	0xbcf42939	-0.029804813
105	0x3c6176d3	0.01376124
106	0x3bdcfdad	0.0067441077
107	0x3cfe1aff	0.031018732
108	0xbd54252e	-0.05179327
109	0xbc514939	-0.012773805
110	0x3c8d3286	0.017236006
111	0xbd0db666	-0.034597777
112	0x3bf65b16	0.0075181825
113	0x3c614f84	0.013751868
114	0xbc9c17fa	-0.019054402
115	0xbd553c00	-0.052059174
116	0xbcdaadff	-0.026694296
117	0x3c2797f3	0.010229099
118	0xbd36cf33	-0.044631194
119	0xbd1fa21e	-0.038972966
120	0xbb0dd0e3	-0.0021639399
121	0xbcaad1b7	-0.020851953
122	0x3c829af8	0.015943035
123	0xbd177e68	-0.036985785
124	0x3c3f0253	0.011658269
125	0xbc75fd55	-0.015014012
126	0x3e0734ac	0.13203686
127	0xbcca3008	-0.024681106
128	0xbc871571	-0.016489716
129	0x3d9d22e8	0.076726735
130	0x3c6f822c	0.014618438
131	0xbe049cf8	-0.12950504
132	0x3d062331	0.032748405
133	0xbcd1e4e3	-0.025621837
134	0x3d80795e	0.06273149
135	0xbc8d8837	-0.017276866
136	0xbce2697f	-0.027638195
137	0x3cd96827	0.026538922
138	0x3d26c13f	0.040711638
139	0xbd5a1ae4	-0.0532483
140	0xbb589408	-0.0033047218
141	0xbc0e5308	-0.008686788
142	0x3ccdfae3	0.025144046
143	0x3c01fcaa	0.007933775
144	0xbd5be5d9	-0.053685997
145	0x3d045b9c	0.032313928
146	0xbd44b455	-0.04802354
147	0x3c96e7e8	0.018421128
148	0x3d40f98c	0.047112986
149	0xbd07e3ca	-0.03317622
150	0x3bbd3ee6	0.0057753203
151	0xbd70e941	-0.0588162
152	0xbb876438	-0.00413182
153	0xbc86ae6f	-0.016440598
154	0xbbff5021	-0.0077915345
155	0xbd3c54f1	-0.045979444
156	0x3c7b654e	0.015343977
157	0xbc8d72fe	-0.017266747
158	0x3d256821	0.04038251
159	0x3d44ab29	0.048014794
160	0xb9942ea0	-0.00028263498
161	0x3d7128dc	0.058876857
162	0xbd75e5a2	-0.060033448
163	0x366c3680	3.5198464e-06
164	0xbba4d7f1	-0.005030625
165	0xbda96eae	-0.082730636
166	0xbce2dcde	-0.027693208
167	0x3c1a1aaf	0.009405776
168	0x3caad9aa	0.020855743
169	0x3c5f8602	0.01364279
170	0x3c78f1c8	0.015194364
171	0x3df9b4a1	0.12192655
172	0xbd9abce0	-0.07555556
173	0x3bbc3df0	0.005744688
174	0x3dac9876	0.08427517
175	0xbd3d56b9	-0.046225283
176	0xba8ee2a0	-0.001090128
177	0x3e423135	0.18964083
178	0xbd8a17d6	-0.067428276
179	0xbd0dba09	-0.034601245
180	0x3d9aff88	0.0756827
181	0xbc5d4f67	-0.0135077005
182	0xbdbc5477	-0.09195798
183	0xbcb4da9c	-0.022076897
184	0xbdab1f19	-0.08355541
185	0xbdabf583	-0.08396437
186	0x3e212276	0.15735802
187	0xbd594174	-0.053040937
188	0xbd01de3f	-0.03170609
189	0xbcadf5d2	-0.02123538
190	0x3d54b82b	0.05193345
191	0x3d572971	0.052529756
192	0xbdabdcc3	-0.08391716
193	0xbd2d2f95	-0.042281706
194	0xbc939b62	-0.018018428
195	0xbd660a39	-0.056162093
196	0x3bb2c8a4	0.005456047
197	0x3b93f666	0.004515457
198	0xbcd9e4c6	-0.026598345
199	0xbd8b6756	-0.06806819
200	0x3c883eca	0.016631503
201	0xbc09e97e	-0.008417485
202	0x3c0d7d0d	0.008635771
203	0xbd0c3253	-0.03422768
204	0x3cf939ba	0.030423034
205	0xbc57608a	-0.013145575
206	0x3c5f0504	0.013612036
207	0x3e0112c7	0.12604819
208	0xbdb4bdfb	-0.088252984
209	0xbcb5fbef	-0.022214858
210	0x3dd78533	0.105234526
211	0xbe15507f	-0.14581488
212	0xbdd41db1	-0.10357226
213	0x3dbe81c3	0.09302094
214	0xbe21433f	-0.15748309
215	0xbdd920cd	-0.106019594
216	0xbd2d22ec	-0.042269632
217	0xbc36c913	-0.011156338
218	0x3cd250d3	0.025673306
219	0x3d48b648	0.049001962
220	0xbd0fa88b	-0.035072844
221	0xb7aa085e	-2.0269475e-05
222	0x3d5d68ff	0.05405521
223	0xbbcf1cad	-0.006320557
224	0x3cacc6bc	0.021090858
225	0x3c15e4e3	0.009148809
226	0x3b7b0804	0.0038304338
227	0x3d603f38	0.05474779
228	0x3d018cfc	0.031628594
229	0x3c2295a7	0.009923375
230	0xbc8f2b18	-0.017476603
231	0x3ba29d38	0.0049625896
232	0x3d168ae9	0.03675357
233	0xbbda5673	-0.0066631376
234	0xbdaa0294	-0.08301273
235	0xbce4f6b5	-0.02794967
236	0xbcb08201	-0.021546366
237	0xbd39514e	-0.045243554
238	0xbd3931eb	-0.04521362
239	0xbd05a2b7	-0.03262588
240	0xbc74a098	-0.014930867
241	0xbdcf8f79	-0.10134787
242	0xbdd918d6	-0.1060044
243	0x3d4cc4f7	0.049992528
244	0xbc35836e	-0.011078699
245	0xbd6ee911	-0.05832774
246	0xbd2ea364	-0.04263629
247	0xbc8a527d	-0.016885037
248	0xbd075031	-0.03303546
249	0xbd93902c	-0.07205233
250	0x3ca1951f	0.019724427
251	0x3d19303f	0.037399527
252	0xbce75a37	-0.02824126
253	0xbe325587	-0.17415439
254	0xbdfad081	-0.122468
255	0x3e4f8ad6	0.20267805

block_2.2.bias f4 [32]
0	0x3d9f8c38	0.077904165
1	0x3cbd8395	0.023134032
2	0xb8f7c405	-0.00011814389
3	0x3e70149c	0.23445362
4	0xbd26f773	-0.04076333
5	0xbc37e088	-0.011222966
6	0x3c5cb9a3	0.013471994
7	0xbd2ab18b	-0.041673224
8	0xbdad402c	-0.084595054
9	0xbd2e512b	-0.042557877
10	0xbd018e46	-0.031629823
11	0x3e13d95e	0.14438388
12	0xbd548aaa	-0.051890053
13	0x3bebc910	0.0071955994
14	0x3c948aca	0.018132586
15	0xbc11af94	-0.008891959
16	0x3e507f0a	0.20360962
17	0x3e1b74da	0.15181294
18	0xbba31cca	-0.004977797
19	0xbd2c6fd3	-0.04209883
20	0xbdcc9d10	-0.09990895
21	0x3e1e2ec3	0.15447526
22	0xbd6871f0	-0.056749284
23	0xbd21b78b	-0.03948168
24	0x3dc4f35b	0.09616729
25	0xbd972b30	-0.07381284
26	0xbc4c8c5d	-0.012484637
27	0xbe1f8aee	-0.15580341
28	0xbdae63f5	-0.08515159
29	0xbbd85476	-0.0066018654
30	0xbd8f391f	-0.06993317
31	0x3d11126f	0.03541797

classifier.1.weight f4 [10, 512]
0	0xbd8349db	-0.06410571
1	0x3d254c34	0.040355876
2	0xbe09e054	-0.1346448
3	0xbd8c86e5	-0.068616666
4	0xbbd73542	-0.006567628
5	0x3c8937c1	0.016750218
6	0x3dbb1370	0.09134567
7	0xbd62b6cb	-0.055350106
8	0x3d9ac765	0.07557563
9	0xbc4fd38b	-0.012684713
10	0x3ccd802d	0.025085533
11	0xbcf38865	-0.029728124
12	0x3de08f11	0.10964788
13	0x3e005246	0.12531385
14	0xbe5d490a	-0.21609893
15	0xbe3feaac	-0.18741864
16	0xbdfec8ec	-0.124406666
17	0xbe7754ba	-0.24153414
18	0xbd78a4b0	-0.060703933
19	0x3e80b9b7	0.2514169
20	0xbdaa61e2	-0.08319451
21	0x3d358278	0.044313878
22	0x3e0e014f	0.13867687
23	0x3def78cf	0.11692964
24	0xbd7b0a60	-0.06128919
25	0x3dbd23d7	0.092353515
26	0x3cdb76a6	0.026789974
27	0x3dd7f60b	0.10544976
28	0x3e216940	0.15762806
29	0x3eae0630	0.33989096
30	0xbded8e3b	-0.11599394
31	0xbe37b703	-0.17940907
32	0x3c595b69	0.013266423
33	0xbda52a49	-0.08064706
34	0xbdb79a8a	-0.08965023
35	0x3c0c7e98	0.008575104
36	0x3c34178d	0.010991943
37	0xbd6be772	-0.05759377
38	0xbdab10ed	-0.08352838
39	0x3ce254e1	0.027628364
40	0xbbf0699e	-0.0073368093
41	0xbd9df483	-0.077126525
42	0xbd712e45	-0.058882017
43	0x3e16cd1d	0.14726682
44	0x3c72984e	0.01480682
45	0xbd2d46c2	-0.042303808
46	0x3d9ace58	0.07558888
47	0x3da364bc	0.07978198
48	0xbda93d76	-0.08263676
49	0xbdb19a6e	-0.08672033
50	0xbe519393	-0.20466451
51	0xbe2f48f8	-0.17117679
52	0xbda4a1b3	-0.08038654
53	0xbe18db8f	-0.14927505
54	0x3e1a0456	0.15040717
55	0x3e4aef88	0.19817936
56	0x3d641df3	0.055692624
57	0x3d96f9e5	0.07371882
58	0x3da2c64e	0.0794798
59	0x3df632a5	0.120213784
60	0x3ca8e25f	0.020615755
61	0xbe3f0363	-0.18653636
62	0xbe022882	-0.12710765
63	0x3d1f7065	0.038925547
64	0xbcddb19f	-0.027062235
65	0x3b5aeeed	0.003340657
66	0xbd1a361e	-0.037649266
67	0x3cbefbd7	0.023313446
68	0xbcda9fa9	-0.02668746
69	0x3c780096	0.015136858
70	0x3ca863d2	0.02055541
71	0x3ca93e7d	0.02065968
72	0xbcc2fa8b	-0.023801109
73	0x3d6e0862	0.058113463
74	0xbcc25431	-0.023721786
75	0x3b9c5017	0.0047702896
76	0x3c450930	0.012026116
77	0x3c052a65	0.008127783
78	0xbcc8b8fd	-0.024502272
79	0xbcd5d2a5	-0.02610142
80	0xbc9f1d11	-0.01942304
81	0xbd370594	-0.044683054
82	0xbe0a4520	-0.13502932
83	0xbde2e0fe	-0.1107807
84	0x3d736661	0.059423808
85	0xbd29ca43	-0.041452657
86	0xbddf5abb	-0.10905977
87	0xbdd2e0a3	-0.10296752
88	0x3d2672ec	0.04063694
89	0xbd7415fd	-0.059591282
90	0x3e037a17	0.12839542
91	0x3d1f46a5	0.03888573
92	0xbd1f291a	-0.038857557
93	0x3d80c383	0.06287291
94	0x3e189fd7	0.14904724
95	0x3cefdb2d	0.029279316
96	0xbd068b8b	-0.032847922
97	0x3d173ec0	0.036925077
98	0x3d231f1a	0.039824583
99	0x3d91ea25	0.07124738
100	0xbc0993b4	-0.008397032
101	0xbd7f600d	-0.06234746
102	0x3ccef7c1	0.025264623
103	0x3d028c99	0.031872366
104	0xbc093f95	-0.008376976
105	0xbdc2f438	-0.09519237
106	0xbe01c182	-0.12671474
107	0xbc0bc00c	-0.008529674
108	0x3c62da21	0.013845951
109	0xbe0bf8ac	-0.1366908
110	0xbe122d7d	-0.14275165
111	0x3cdc8fbb	0.026924005
112	0xbadb7662	-0.0016743655
113	0xba9451b3	-0.0011315852
114	0x3ce5e298	0.02806215
115	0x3d0cb250	0.03434974
116	0x3ccc3e69	0.024932103
117	0x3b9c18d4	0.004763702
118	0x3c882cd7	0.016622944
119	0xbcc6bcf2	-0.024260018
120	0x3be492ae	0.0069754934
121	0x3ce7270a	0.028216857
122	0xbb59e3df	-0.0033247394
123	0xbc97072d	-0.018436039
124	0x3c17a07f	0.009254574
125	0x3bf707f9	0.007538792
126	0x3cc9c83b	0.02463161
127	0x3d054eac	0.03254573
128	0x3cebfa72	0.028805945
129	0xbd1f6d42	-0.038922556
130	0x3d5dd2df	0.05415618
131	0x3e42c5ec	0.19020814
132	0x3d776c3e	0.060405962
133	0x3c97d12d	0.01853236
134	0x3d5a3bd7	0.053279724
135	0x3d3cb0fe	0.04606723
136	0xbdd92a41	-0.106037624
137	0xbd73f5de	-0.05956065
138	0xbce0c224	-0.027436323
139	0x3e2079e5	0.15671499
140	0xbaf088a2	-0.0018351267
141	0xbe0bf732	-0.13668516
142	0xbd48331c	-0.048876867
143	0x3e4cc90c	0.19998568
144	0xbc9f8c0f	-0.019475965
145	0xbba7b6f0	-0.0051182434
146	0x3d595e39	0.053068373
147	0x3d3cb765	0.046073336
148	0x3d7d7229	0.06187645
149	0x3d6fef30	0.058577716
150	0xbccc28c2	-0.024921779
151	0x3cc08903	0.023502832
152	0x3c862194	0.016373433
153	0xbd8e5bb7	-0.06951087
154	0xbb321bc0	-0.0027177185
155	0x3d56b122	0.05241502
156	0x3caa3998	0.020779416
157	0x3ccc81f4	0.02496431
158	0x3d6191fd	0.055070866
159	0x3d78fa50	0.06078559
160	0x3d8ad869	0.06779558
161	0x3e0ed8fe	0.13949963
162	0x3d78d228	0.060747296
163	0xbd960c6e	-0.073265895
164	0x3c1b6341	0.009484113
165	0xbc037fa7	-0.00802604
166	0x3d021636	0.031759463
167	0xbb8a8c73	-0.0042281686
168	0x3d5cbb6c	0.053889677
169	0x3bb22d16	0.0054375036
170	0x3d0a42b8	0.033755034
171	0x3e23b276	0.15986046
172	0x3df1b07c	0.1180124
173	0xbd931679	-0.07182021
174	0x3db3a366	0.087714
175	0x3dbf2d8a	0.09334858
176	0x3dd3426d	0.10315404
177	0x3e0abe9b	0.13549273
178	0xbd0e4049	-0.034729276
179	0x3e751662	0.2393432
180	0x3ce9f12a	0.028557379
181	0xbd3194a9	-0.043354664
182	0xbd74c80f	-0.059761103
183	0xbcfe60a7	-0.031051947
184	0xbcc817e4	-0.024425454
185	0xbc8f8880	-0.017521143
186	0xbcc74b9a	-0.024328042
187	0xbe5745e5	-0.21022756
188	0x3d1bbd8e	0.03802257
189	0xbd8a043c	-0.06739089
190	0x3db22a96	0.08699529
191	0xbdca0f84	-0.098662406
192	0xbdbd9e4c	-0.09258708
193	0xbd13f7de	-0.036125056
194	0xbe0c74a6	-0.13716373
195	0xbdced3b1	-0.10098971
196	0x3da281a6	0.07934885
197	0xbdb972eb	-0.09055122
198	0xbe1a8807	-0.15090953
199	0xbe4ff0f5	-0.20306762
200	0x3d7c6647	0.061620977
201	0xbd0cb9f5	-0.03435703
202	0x3d4b1d5e	0.049588554
203	0xbe275301	-0.16340257
204	0x3cae2e40	0.021262288
205	0x3ceb158e	0.028696802
206	0x3de629b9	0.11238427
207	0x3d803518	0.06260127
208	0xbcf3e9e4	-0.029774614
209	0xbdc0d78d	-0.09416113
210	0xbe137f8b	-0.14404123
211	0xbe604d1b	-0.21904413
212	0xbddbc3f2	-0.10730733
213	0xbd9532c5	-0.07285074
214	0x3dd6a71c	0.10481092
215	0xbe0606e4	-0.13088566
216	0xbbfbe927	-0.007687706
217	0x3ddb89f5	0.107196726
218	0xbc297b74	-0.010344375
219	0x3d3f8952	0.04676182
220	0xbdaa6c2b	-0.08321413
221	0xbe02b994	-0.12766105
222	0x3d66d9d3	0.056360077
223	0x3e0483ea	0.12940946
224	0xbd87dedc	-0.06634304
225	0xbe18f600	-0.14937592
226	0xbe5f8c17	-0.21830784
227	0xbdf629af	-0.12019669
228	0x3cec4eea	0.028846223
229	0xbdcdaf09	-0.10043151
230	0x3df87804	0.12132266
231	0x3ecc58af	0.3991141
232	0xbc9b1cac	-0.01893457
233	0xbe3934aa	-0.18086496
234	0x3e58152a	0.21101823
235	0x3eeadd1f	0.45871827
236	0xbe8fc5fd	-0.2808074
237	0xbe95ef64	-0.29284203
238	0x3d89a729	0.067213364
239	0xbc8e7436	-0.017389398
240	0xbe1e8229	-0.1547934
241	0xbd7eef75	-0.062240083
242	0xbe85e1b6	-0.26148766
243	0xbeb664b7	-0.35623714
244	0xbcb51951	-0.022106798
245	0x3d4e82fc	0.050417885
246	0xbd6e9b53	-0.058253597
247	0xbe0e7e3c	-0.13915342
248	0x3e18d0af	0.14923356
249	0x3e231ee2	0.1592975
250	0xbdba97fc	-0.0911102
251	0x3e0f84f6	0.14015564
252	0xbd2fc579	-0.042912934
253	0x3dd887a0	0.105727434
254	0x3e5681fb	0.20948021
255	0x3eb1e40c	0.34744298

classifier.1.bias f4 [10]
0	0xbca72c14	-0.02040676
1	0x3ecc4604	0.39897168
2	0x3d709f3d	0.05874561
3	0xbda4bc48	-0.08043724
4	0xbdad1850	-0.08451903
5	0xbe16e62d	-0.14736243
6	0xbdbfd269	-0.093663044
7	0xba3b0f8a	-0.00071357994
8	0x3e0eddd3	0.13951807
9	0xbcdd69f0	-0.027028054
