Projects/MINST & WebAPP project/MNIST_Model.pth (torch, 137221 bytes, 10 tensors)

block_1.0.weight f4 [32, 1, 3, 3]
00000000: 908c 043f 7816 67be a688 873d 6d4a f13e
00000010: 6ec8 edbe 822d 0cbf e0fc eebd 7b1e fa3d
00000020: 6eeb 46be b377 74be 82a7 acbe d187 943e
00000030: 8d51 89be b85b c63e f6a5 113c 5d0f 2d3e
00000040: 04fb 3c3e 32b2 aabe 65cc 083e f52b 02bd
00000050: 42dc 2c3e a5b2 8a3e 717a 3d3e 7df5 42be
00000060: e512 85be d7e5 9e3d bf28 493e edc0 02be
00000070: b53f 38bf d4be 3abf 746d 863e 4917 cabd
00000080: 40e8 403d 98b2 0d3e ff81 a03e ac8a fd3e
00000090: bdf1 2d3e ffc6 7a3c 4f00 5a3e c898 a3bd
000000a0: d267 a53e 40e6 86be 377a eebd d5ec 243d
000000b0: 1287 a13e 84a4 c03d 3a5b 613e 6f2a 9dbe
000000c0: c64b 42be 894a 863e f268 23be 2fad 25be
000000d0: fa87 02be 8dc8 ebbd 5223 a33c 8f69 2a3d
000000e0: 28b1 f3bd 79f5 cdbd 204d 873e e335 5abe
000000f0: 030c 9e3c d968 fbbd a917 eb3b 39e9 233d
00000100: 0456 fbbd e72e b3be e24a 323e 7f26 fbbc
00000110: 6375 783d bc80 743d 3d10 30be 4af1 693e
00000120: fd0a fabe bad6 103d 3f1a 7c3d 99bc 89bd
00000130: 9824 99bd a8ad 9c3d 19a2 853e 57e2 353e
00000140: 101c 08be 1631 efbd e8d3 16bd 7e07 c03e
00000150: 904e 4abe a005 813e 3512 c13e 178c f3be
00000160: 8b7a 12bf 2950 923e 68ab 1d3e a67f b33d
00000170: 3bdf 17be a35f b3bd b93c 3cbe 2c04 443d
00000180: b3a4 033e d083 8e3e d2c6 4c3e afa7 b93e
00000190: 2dea be3e e79d fc3e 75e9 513e b85b 02bf
000001a0: ec86 c7be 01cf ff3c ed74 6fbf 8fc0 0dbf
000001b0: 159a 253e 27af 34be 78d1 77bc fc6c 78be
000001c0: 0ae4 2a3e b0ff 743e 6889 153e 31bf 463d
000001d0: 77f5 8fbe 12ec 8dbe 7629 903e 235f 4bbd
000001e0: 9ded 90be 6304 5ebe a9a9 253e 003f e0bd
000001f0: 1d67 b83e 7f05 3a3d 800c 343d ac38 3d3e
00000200: 0867 8d3d f5e2 b93e cfe6 87bd a456 46be
00000210: b8a7 713e 9f15 cfbe 70e1 3ebe 0d1e 083e
00000220: 5de7 053d 0f9d 6c3e 3346 8ebe bf9e 8cbe
00000230: 32c7 9abe 810f 01be 597c 5d3e 6e60 5ebd
00000240: bf4b a9bd dd54 dbbc 7ea5 97bc 3933 16bd
00000250: 329d 033e f13c 2b3e f14b b9be b8f5 1fbe
00000260: f62a ac3e ff0a c83c 2383 10be 0241 5a3e
00000270: a821 89be 5dca 19be c577 c53c 7251 8bbe
00000280: 5df0 ad3e ee9d 67be 1ba1 d8be bafe 74be
00000290: 3561 9f3e 3809 c7bd daf2 8b3d de11 79be
000002a0: dc18 f53e 6e0c fd3e ae1b 85bd 909d 163e
000002b0: 7766 d1bd e7bc e1be 7b60 aa3e 0a9b 8d3e
000002c0: 4362 a53d 5f46 71be c9c7 fa3d d424 2cbe
000002d0: c98d c83d 45fa 1c3e d08e 9ebe 780e b23d
000002e0: 18e8 0cbe f259 b6be faa0 a43e 8145 3e3e
000002f0: e8df 4dbe 7a89 223e 82e6 96be 8205 023d
00000300: 2afa a9be 33bd 8d3e 1c72 b5bd c6e2 32bc
00000310: f0cb 073e 4de2 903d f971 b7be b5c7 bbbe
00000320: e215 c43d e0ae 72be 50e4 763e 5024 3bbd
00000330: 39e6 e13d e51b 3a3e 136f 5e3e 75d9 83bc
00000340: b328 04be c51d 0fbf d541 b9be effc 213e
00000350: eae4 4e3e 261e e7bc bf4b 923e d4ce 313e
00000360: fae8 24be 364b a33e 8633 28be b5b8 12be
00000370: bf55 493e f5e4 9abe bce6 ac3d 4136 6d3e
00000380: 9864 6ebe 72f7 08be bb6a 68be 80a5 22be
00000390: bd32 0c3e eaa0 e4bd 0a2c 6dbe acb0 ae3e
000003a0: d6dd 55bd 8fd1 3e3e 925d 53be 9305 d23e
000003b0: 09f6 603d 31e5 a03c 46ec c73c c86a 853e
000003c0: e412 a8be 71c6 8cbd f429 21be 6071 c1bd
000003d0: 9036 d0be a5bf 3abe 9ecd 8b3d 6cd9 593e
000003e0: a612 ecbc 9052 e9bc 8451 e63d 0ab6 4d3e
000003f0: 6359 73be 66bf 103e e043 bb3e ef38 223e
0.5177698 -0.22567165 0.066178605 0.47127095 -0.46441978 -0.5475694 -0.11669326 0.12212845
-0.19425747 -0.23873787 -0.33721548 0.2900987 -0.2682003 0.3874185 0.008889666 0.16900392
0.1845513 -0.33339077 0.1335922 -0.031780202 0.16880897 0.2708942 0.18503739 -0.19038959
-0.25990978 0.07758682 0.1964445 -0.12768908 -0.7197221 -0.7294743 0.2625538 -0.098677225
0.04709649 0.1383766 0.3134918 0.4951986 0.16986747 0.015306233 0.2128918 -0.07988125
0.3230577 -0.26347542 -0.116444044 0.040264923 0.31548363 0.09406379 0.22007456 -0.30696437
-0.18974218 0.2622874 -0.15958002 -0.16179346 -0.12747183 -0.115128614 0.019914303 0.041604575
-0.11899024 -0.10056586 0.2642603 -0.21309619 0.019292837 -0.122758575 0.0071744514 0.04001734
-0.122722656 -0.3499672 0.17411378 -0.030658005 0.060658824 0.059693083 -0.17193694 0.2284595
-0.48836508 0.03536103 0.061548468 -0.06725425 -0.07477683 0.0765031 0.26100233 0.17762123
-0.13291955 -0.11679284 -0.036823183 0.37505716 -0.19756532 0.25199604 0.37709203 -0.47567818
-0.57218236 0.28576782 0.15397418 0.087645814 -0.1483125 -0.08758476 -0.18382539 0.04785554
0.12855797 0.2783494 0.19997719 0.36260745 0.37288037 0.4933922 0.20499213 -0.509212
-0.38970125 0.031226637 -0.9353779 -0.55371946 0.16172059 -0.1764494 -0.015125625 -0.24260324
0.16688552 0.23925662 0.14603198 0.048522178 -0.28116962 -0.2771917 0.28156632 -0.049651276
-0.28306285 -0.21681361 0.16178001 -0.10949516 0.3601617 0.045415398 0.043957233 0.1847865
0.06904417 0.36305967 -0.0663582 -0.19368988 0.23599136 -0.40446183 -0.18640685 0.13292713
0.03269135 0.23106788 -0.27787933 -0.27464864 -0.302301 -0.1260357 0.21629466 -0.05429118
-0.082664005 -0.026773864 -0.01851153 -0.036669943 0.12852934 0.16722466 -0.3619075 -0.15621078
0.33626527 0.024419306 -0.14112525 0.21313861 -0.2678349 -0.15018602 0.024104962 -0.27210575
0.33972445 -0.22618839 -0.42310414 -0.23925295 0.3112885 -0.09718555 0.0683343 -0.24323222
0.4787053 0.49423546 -0.0649942 0.14708543 -0.10224622 -0.44089434 0.33276734 0.27657348
0.080753826 -0.23562 0.12245137 -0.16810924 0.09792668 0.15329845 -0.30968332 0.08694166
-0.13760412 -0.35615498 0.32154065 0.18581201 -0.20104945 0.15872756 -0.29472739 0.031743534
-0.33198673 0.2768341 -0.08859655 -0.010918325 0.1326139 0.070744134 -0.35829142 -0.36675802
0.09574486 -0.23699522 0.24110532 -0.045688927 0.110302396 0.18174703 0.21722059 -0.016094903
-0.1290615 -0.559048 -0.36183038 0.15819143 0.20204511 -0.028212618 0.28573415 0.17364055
-0.16104499 0.3189332 -0.16425905 -0.14328273 0.19661616 -0.30252805 0.084424466 0.23165227
-0.23280561 -0.13375643 -0.22696964 -0.15883446 0.1369123 -0.111635044 -0.23161331 0.34119165
-0.052213512 0.18634628 -0.20641163 0.41019878 0.054922137 0.019640537 0.024404656 0.2605803
-0.32826912 -0.06873787 -0.1573866 -0.09445453 -0.40666628 -0.18237169 0.06826328 0.21274346
-0.028817486 -0.028481752 0.112460166 0.20088974 -0.23764567 0.14135513 0.36575222 0.15842031

block_1.0.bias f4 [32]
00000000: f609 153e b39f b2bd f18e 0bbe 258a 37be
00000010: 49c9 cebd f38a 9abe 3d57 a5bd fb03 0fbe
00000020: 4b42 303d 7e4d 6a3e 5bab 5bbd 5113 38be
00000030: 6a9f 023e bdb0 373d 07a3 edbc 46c3 30bc
00000040: b649 223e b3a5 82be eafe 2abe 45c9 cc3d
00000050: 5864 fa3b bb57 9ebe 0312 6d3d 3ac2 183e
00000060: 6310 73bd 8ec6 063c a6fd 753e 2009 1abd
00000070: dc2f 243e 432b 923d 6f3a 763d d860 863a
0.14554581 -0.087218665 -0.13628747 -0.17923792 -0.10096986 -0.30184135 -0.0807328 -0.13966362
0.043031972 0.22881123 -0.053630214 -0.17976119 0.12756124 0.044846285 -0.029008402 -0.010788744
0.15848431 -0.25517043 -0.16698804 0.099993266 0.0076413564 -0.30926308 0.057878505 0.14917842
-0.0593418 0.00822605 0.2402254 -0.03760636 0.16033882 0.07137158 0.06011432 0.001025225

block_1.2.weight f4 [32, 32, 3, 3]
00000000: c85c a53d 653e 0bbe 7db8 c2bc a2d1 a7bd
00000010: 62fc 63bd 3735 ecba b85e b8bd ed32 82bd
00000020: b7a5 ae3c b437 edbc 2551 083d 6d30 f73d
00000030: c90f 953b 6cdb d03d 0857 343d 1673 8e3c
00000040: 4611 333d 2537 833c b37c 83bd 597f 7dbd
00000050: 61c4 4bbd 7900 85bd 000d 4c3b be3b 80bd
00000060: dc52 51bd d262 663d 7291 ed3c 0df0 b3bd
00000070: 8206 833d 1b86 2cbd 22fb aa3b 7aed 2bbc
00000080: 4ef3 9a3d 43ec 4aba 4d5f d2bc 0539 99bd
00000090: 91fc 43bc 8df2 64bd 1509 03bd c819 97bd
000000a0: 3221 be3c eb11 e83c e656 ecbb 53b9 1dbd
000000b0: 8614 94bd b2be 64bd 4965 74bb 782a bbbc
000000c0: 7829 24bd f0c1 22bc 0b08 73bd 7973 62bd
000000d0: 9433 373d 0621 813d 817f 173c 70c8 71bd
000000e0: 67f0 513c 2f91 323d cfcd e9bc bc40 3fbd
000000f0: b479 52bd e8b6 b03c f255 acbc 0b1f 4dbd
00000100: f49c 28bd 3c39 abbc 3c94 9d3c 7112 20bc
00000110: 6fb6 283d 7100 40bd eaa4 843c 400c 43bd
00000120: f13a d2bd d982 f03b d2db a93d 3782 78bd
00000130: c0f9 4c3d 27a2 86ba 7851 be3c a688 5e3d
00000140: 0ad1 493d f982 493d c2be 803d 321c 6ebd
00000150: 0a77 423b 087a eb3d ca92 8dbd c977 e23d
00000160: 5dd4 813d 8469 f6bd bd2c 8ebd 7ecd 2dbd
00000170: e936 b5ba 6bcf e43c 480a 383d d0b5 a13c
00000180: 3c95 de3b 4a3c f9bb fae9 89bc fb91 86bd
00000190: d2d4 83bd 9fdb 363c dd5a 09be 5b1a 3dbd
000001a0: fd35 c53d 7d62 20be 6298 b4bb b07f 143d
000001b0: 8de8 01bc 19b4 25bb 5cbf 9a3d cf35 b33b
000001c0: 4aa1 ba3d 3945 1c3c 04a4 c1bc 4555 153d
000001d0: e388 46bd 1f9b 0d3b f401 a73d a786 4c3d
000001e0: a519 a03d bad6 2f3b f243 473d 03ac 10bd
000001f0: 4987 293d 6c84 573c 5d54 e43b cc1e 423c
00000200: b6ee d53c 2901 fa3c dd4d 3ebd a0f7 883d
00000210: 84e6 c93c 04e8 c9ba 157c 40bc 0667 773c
00000220: ac20 513d 64f2 d33c 84cb fb3b 30ab 84bd
00000230: a977 71bd 3f4e 7dbc 6f3e 85bd ba58 913d
00000240: 7199 2d3d a9f7 b83c fcd0 163d 2d46 2a3c
00000250: f345 aa3c 7b1b 3fbd c863 4a3d b881 3c3d
00000260: 18dc 95bd c733 123c d892 853d 0f35 c4bc
00000270: 9c58 403d 0173 5ebc eaf0 3bbd bf2b 883c
00000280: abcb 10bd ba99 383c 2312 24bd 82b6 9d3c
00000290: f655 93bc 5dd9 26bd d575 01bd a8ec d43d
000002a0: 0fc2 89bc 78fc f63c 001c a7bd a757 7ebd
000002b0: 7e7d ffbc 9ef0 223c 2215 68bd a93a 033d
000002c0: 3f3d 15bd 67be 02bd c156 623c 4937 3b3d
000002d0: aadc 9bbd 30aa f1bc 9eae e33b 1195 51bd
000002e0: 1504 39bc 36ba c93b 1e7c 97ba 3579 75bc
000002f0: 7233 8b3c 8f5e 803c 1b7c 40bb bf2f 2b3c
00000300: b477 dc3c 9059 2f3d b381 46bd 3c5a 44bd
00000310: ac65 bbbc a101 6c3c 8c96 c6bd e916 b33d
00000320: b602 e33c 932f 0cbd 21d0 1f3e 764e 913d
00000330: d219 e63c 54d5 8d3d 7c32 b1bd 63f6 f43c
00000340: 73bb 9b3d 37ca e43d 98d9 073e f793 6c3d
00000350: ef69 133c a136 b0bc 4c64 7fbd dfef 44bd
00000360: 960c 4b3c a286 3ebb c88d 0b3d 3c37 28bd
00000370: 7cbb 173d dd30 ed3c 00d2 07bc ad27 9a3c
00000380: ae9a d9bb 68e2 31bd 33d6 263d 97d7 07bd
00000390: 21bd 13bd 0637 fe3c a62a 5d3d 98ca 4dbb
000003a0: 3606 b8b9 eefb 1dbd 5168 2e3c d8c6 aabc
000003b0: de36 803d 78d7 243c b8cb 94bc 1398 e53c
000003c0: c267 113d 77cb 683d 0ca9 413d 10bd 8fbc
000003d0: 532e a33d 1459 223c 5a78 0d3d 8240 913d
000003e0: 5d6a 07bc d719 29bc 49a0 dc3c 6cce aebd
000003f0: 1c0f 53bd 2296 fb3a d103 9abd 25f6 98bd
0.08074337 -0.1359802 -0.023769611 -0.08194281 -0.055660613 -0.001802123 -0.09002441 -0.063573696
0.021319253 -0.028957225 0.03328051 0.12069783 0.004549001 0.101981014 0.044028312 0.017388862
0.043717645 0.016017506 -0.06420269 -0.061889026 -0.04974783 -0.06494231 0.0031135678 -0.06261395
-0.05110441 0.056246586 0.029000018 -0.087860204 0.06397726 -0.04212008 0.0052179256 -0.010493631
0.07565938 -0.0007740894 -0.025680209 -0.07481579 -0.011962072 -0.055895377 -0.031991083 -0.07377964
0.023209188 0.028328856 -0.0072125075 -0.038506817 -0.07230477 -0.055845924 -0.0037291816 -0.0228474
-0.04007861 -0.009933934 -0.059333842 -0.055285905 0.044726923 0.06305127 0.009246708 -0.059029043
0.012813664 0.04359549 -0.02854052 -0.046692595 -0.051385596 0.021571591 -0.021037076 -0.050078433
-0.041165307 -0.020901315 0.019235723 -0.009770022 0.041189607 -0.04687542 0.016191918 -0.047619104
-0.102651484 0.007339817 0.082938805 -0.060671058 0.050042868 -0.0010271714 0.023232207 0.054329537
0.04927162 0.04919717 0.06286384 -0.058132358 0.0029673004 0.11497885 -0.069127634 0.110580035
0.06339333 -0.12031844 -0.06942127 -0.0424323 -0.0013825569 0.027930936 0.04493168 0.019740015
0.0067926925 -0.007606064 -0.016835202 -0.06570812 -0.06437077 0.01116076 -0.13413568 -0.046167713
0.09629438 -0.1566257 -0.0055113295 0.036254585 -0.00792898 -0.0025284349 0.0755603 0.005469061
0.09112795 0.009537988 -0.023637779 0.036458272 -0.04847039 0.0021607352 0.081546694 0.049933102
0.07817391 0.0026830868 0.048648782 -0.035320293 0.041388784 0.01315413 0.0069680647 0.011848163
0.026114803 0.030518131 -0.046460975 0.06687856 0.024646051 -0.0015404229 -0.011748333 0.015100246
0.05105655 0.025872417 0.007684173 -0.06477964 -0.058952007 -0.01546055 -0.06506049 0.070970014
0.04238266 0.022579031 0.036820397 0.010392708 0.020785308 -0.046657067 0.049411565 0.046022147
-0.0731737 0.0089234775 0.06522149 -0.023951082 0.046959504 -0.013577224 -0.04588405 0.016622422
-0.035350483 0.01126712 -0.04005636 0.019252066 -0.017985325 -0.040734638 -0.031606514 0.10396701
-0.016816167 0.030149683 -0.081596375 -0.06209531 -0.031187769 0.009945063 -0.05666078 0.032038365
-0.036435362 -0.031919863 0.013814629 0.04570702 -0.07610448 -0.029500097 0.006948306 -0.05116755
-0.011292477 0.0061562313 -0.0011557376 -0.014982511 0.016992304 0.015670089 -0.0029370848 0.010448395
0.026912548 0.042810023 -0.048463535 -0.047937617 -0.02287563 0.014404685 -0.09696683 0.08744604
0.027711254 -0.034225058 0.15606739 0.07095043 0.028088484 0.06925455 -0.08652207 0.029902643
0.076041125 0.11171382 0.13266599 0.057758298 0.0089974245 -0.021510424 -0.06235151 -0.04808032
0.012393137 -0.0029071947 0.03407076 -0.0410683 0.037044033 0.028953964 -0.008289814 0.018817747
-0.0066407537 -0.04342881 0.04073162 -0.033164587 -0.03606904 0.031032097 0.05399575 -0.0031401273
-0.00035099842 -0.038570337 0.010644988 -0.02084677 0.06260465 0.010061137 -0.018163547 0.028026616
0.03549934 0.056834664 0.047280356 -0.017546207 0.0796782 0.009908933 0.034538604 0.07092382
-0.008265105 -0.010321102 0.026931899 -0.085354656 -0.05152808 0.0019194523 -0.07520259 -0.07468823

block_1.2.bias f4 [32]
00000000: 7e52 613d c267 1e3e 1949 5f3d 0294 883d
00000010: efd5 85bc bb76 cabc d9b3 173d 243d fd3d
00000020: e2bd 203d 90d8 403d b358 48bc a578 c6bd
00000030: d140 80bd 1f0c 383b 943b 183e e972 02be
00000040: a537 3f3c c799 ddbc a451 283e 7c90 363d
00000050: 8721 803c b321 663c 1a36 d43b 8df2 a2bd
00000060: 3361 a53c 3244 cd3c 0ac9 3c3e 9962 933c
00000070: 370e 553d c8ce fe3d ca64 09bc bac2 68bd
0.05501031 0.15469268 0.05451307 0.06668855 -0.016337363 -0.024714818 0.03703675 0.12365177
0.039243586 0.04708153 -0.012228179 -0.0969098 -0.06262363 0.0028083397 0.14866477 -0.12739147
0.0116709815 -0.027050866 0.16437393 0.044571385 0.015640987 0.01404612 0.006476176 -0.07956419
0.02018795 0.025056932 0.18436065 0.017991351 0.05201551 0.12441784 -0.008385846 -0.05682633

block_2.0.weight f4 [32, 32, 3, 3]
00000000: 279a 4bbc 949a 46bd 68d0 acbc fd8e 1ebc
00000010: 38a1 33bc a9f7 483c 7557 e8bc c37f 33bd
00000020: 5222 2f3d 8f3e 60bd 899d 36bc 5117 a93c
00000030: 4a11 a63c d0af b63c e4f7 09bc 0ca1 293b
00000040: 445e 74bd 0bd0 71bd 585d 213c 5bbd c5bb
00000050: 640f e2bc e888 8fbd 19ed 103d 6416 2b3b
00000060: 5ca4 a63c 17ce 01bd e495 db3c ee90 24bd
00000070: ae7d 07bd 96f3 6dbd 22b5 a53b 02db 3fbd
00000080: be8d 313c 56a0 3dbd 1931 173d 0eea 49bd
00000090: fc6b 113d 4625 10bd f9f6 c5bc 732d 183d
000000a0: 47c4 f13c faef c23c 7de8 94bc 93ce 223c
000000b0: 792b ac3c 7e8d 85bc b3cc 9c3c 39c5 8c3b
000000c0: 3a5c 05bd 1853 44bc b2b7 33bd eabe 51bc
000000d0: 4531 7fbc edf3 df3b 8f3f 173d 452a 153c
000000e0: c436 753b 7b7f b53b f608 3d3d a23f d2bb
000000f0: e636 cabc 4180 063d 15c8 b6bc d55c 04bd
00000100: d47e 163d 80ae 69bd 4769 fabc 902c f63c
00000110: 8dc6 4f3d e7f4 1f3d 5c26 3b3c 1e30 a9bb
00000120: b363 33bd db51 3abd 4609 29bd c2ac d6bc
00000130: bf7b 4c3c a955 bf3c 1886 15bc f471 b4bc
00000140: f243 83bc 607e 963c 4442 8a3b 47c7 62bd
00000150: 0f69 a43c b89f db3b 86d5 06bd c283 a93c
00000160: f28f 41bd 03e8 443d fa7d 5ebc 5c4d 453d
00000170: d3f4 3dbd ce2d 6ebd 4b0b 02bd ebff 563d
00000180: 0641 a33b 62b0 bebb 6c0b 40bd f62d 97ba
00000190: 653e 1dbd db3e 25bd 214a 1b3d 7af6 4d3d
000001a0: 89ba 2e3d c6a9 3f3d 58ae 36bc e092 72bc
000001b0: fb0c 9ebc 098c bc3c efa5 1f3d 0764 8fbc
000001c0: cc09 683c 1ec7 603c cbbc 613a 4ac0 703d
000001d0: 7353 e4bc 1d0a 1fbd 0dfc 1b3d cb59 f63c
000001e0: 2af4 1fbd 648d e8bc 60ac 30bc c06f 3dbd
000001f0: 50f1 de3b 9cd7 c53c 160d 183d ff7c 313d
00000200: fcd0 3abd d791 5fbd f8f8 af3c 3a65 c9bb
00000210: 9a78 0d3d 4a46 533c a3c5 0e3d 0e65 02bd
00000220: c073 0fbd 7acc 63bd 8def ff3c a09c 14bc
00000230: 4919 843c c24c f43c e9ba 4fbb 93ab 333c
00000240: ce0e 18bb 1aaa 22bb bbc4 2dbd 48d1 1ebd
00000250: 4cd9 3a3d 14d8 6a3c b3d5 f5ba bf30 5cbd
00000260: 5ce1 523d 5973 34bd 2cc0 7fbc b9d1 633d
00000270: 1fd6 38bd 4b46 b83c ccf7 d53b 27de 4a3d
00000280: 1225 d33c e03c 54bb edf0 893c fac5 113c
00000290: 2d67 243d 50bf 89bd df8d 58bd 820f 5abc
000002a0: 4e62 1ebc 44f4 20bc ddbe 71bd 7f65 4d3d
000002b0: 94a3 73bd a359 083d 9c55 023d d9eb 75bc
000002c0: 671b 2dbd 045d 663d 7083 713d dae2 983c
000002d0: c318 5a3c 6503 8d39 7848 f23b 75ff 61bd
000002e0: 33a9 393d e7e4 fcba 0624 dcbc 4a7f 95bc
000002f0: e50a 09bd aa3d 9bbc 5198 1b3c 2433 4b3d
00000300: 1c0e 193c fa01 413d c234 5b3d 0887 36bd
00000310: 9147 413a 9a24 513d 70f2 54bd ab99 6c3c
00000320: e55f c83c 7f50 973b 408f 4fbd 0363 13b9
00000330: 76b2 c33b e8fc dabb 9ee5 64bd f26f 9c3c
00000340: 3045 abbc 4935 a53c a8b3 3a3c 3f24 64bd
00000350: 681f 743d 5fa7 5ebd 2a05 953c 7032 9ebb
00000360: 92f0 ce3c 6a0a 60bd 74fd efbc 618e 9b3c
00000370: d841 1bbd daac bd3c e01e 4e3c 9b89 c2bc
00000380: 6210 3bbd 2958 3cbd 112d 25bc 1273 2bbc
00000390: 52f1 833c 178a 623d 5d70 6b3b 9dc0 3dbd
000003a0: 5fdf 003d 480d 2bbd 4160 4abc 3e85 ab3c
000003b0: ea4f d936 195f 22bd 7df0 6cbd 119b 4ebd
000003c0: ba47 41bc dde1 55bc 2d3d f5bc 1b9f 2dbd
000003d0: 18c8 6bbd 59f0 173d 9f17 1cbb bafe 8e3c
000003e0: 6b0f 54bd f197 87bb 8431 9abc 1bef 583d
000003f0: e3d4 233d 038d 583d 8e68 c53c 024b 42bd
-0.0124268895 -0.04848726 -0.02109547 -0.009677646 -0.0109637305 0.012266078 -0.028362015 -0.043823015
0.04275734 -0.05474716 -0.011145958 0.020641001 0.020271916 0.02230063 -0.008420918 0.0025883345
-0.05966021 -0.059036296 0.009848915 -0.006034536 -0.02759523 -0.07008535 0.035382364 0.0026105875
0.020342045 -0.031690683 0.026804872 -0.04017728 -0.033078842 -0.05809363 0.005056993 -0.04683972
0.010837017 -0.046295486 0.036912058 -0.049295478 0.035503373 -0.035191797 -0.024165617 0.03715272
0.029512538 0.02379607 -0.018177265 0.009936946 0.021016823 -0.01630282 0.019140577 0.0042959717
-0.032558657 -0.011982702 -0.043876357 -0.012801865 -0.015575712 0.006834498 0.03692585 0.009104316
0.0037416676 0.0055388785 0.046151124 -0.006416277 -0.02468438 0.032837156 -0.022312203 -0.032315094
0.036742046 -0.05705118 -0.030567778 0.030050546 0.050726462 0.039051916 0.01142272 -0.0051632067
-0.043796252 -0.04548822 -0.04126861 -0.026205424 0.012480675 0.023356276 -0.009126209 -0.022026993
-0.01602361 0.018370807 0.0042193253 -0.055365827 0.020069627 0.0067023896 -0.032918476 0.02069271
-0.047256418 0.048072826 -0.01357984 0.04816948 -0.04637606 -0.05814915 -0.03174905 0.052490156
0.0049821166 -0.0058193663 -0.046885893 -0.0011534083 -0.038389582 -0.040343147 0.03791249 0.050283886
0.042658363 0.046792768 -0.011149965 -0.014805526 -0.019293299 0.023015993 0.038976606 -0.017503751
0.014162492 0.013719348 0.0008611201 0.05877713 -0.027871823 -0.038828004 0.03808217 0.030072113
-0.039051212 -0.028387733 -0.010783285 -0.04624915 0.006803669 0.024150662 0.037121855 0.043332096
-0.04560946 -0.054582443 0.021481022 -0.0061461003 0.034538843 0.012895176 0.03485645 -0.031834655
-0.035022497 -0.055614926 0.031242156 -0.009070545 0.016125338 0.029821757 -0.00316971 0.010966199
-0.0023202184 -0.0024820627 -0.042423945 -0.038773805 0.045617387 0.014333744 -0.0018755704 -0.053757425
0.05148445 -0.044055317 -0.015609782 0.05561993 -0.045126077 0.022494456 0.006529784 0.049528267
0.025774512 -0.0032384917 0.016838515 0.008897299 0.04013746 -0.06725943 -0.052869674 -0.013309361
-0.009666992 -0.009823862 -0.059019912 0.050145622 -0.059482172 0.03328861 0.031819925 -0.015009844
-0.04226246 0.05624105 0.05896324 0.018662859 0.013311568 0.00026896145 0.007393893 -0.055175263
0.045327377 -0.0019294292 -0.026872646 -0.018249173 -0.033457655 -0.018950302 0.009496764 0.04960932
0.009341743 0.047121026 0.05351711 -0.04456237 0.000737303 0.051060297 -0.05198902 0.014440934
0.024459789 0.00461775 -0.050673723 -0.00014055897 0.005972202 -0.006682981 -0.055883043 0.019096348
-0.020907015 0.02016701 0.011395372 -0.05569863 0.059600264 -0.054358836 0.018190939 -0.00482779
0.025261197 -0.05469743 -0.02929566 0.01898879 -0.03790459 0.023153711 0.012580603 -0.023747256
-0.04566992 -0.045982514 -0.010081545 -0.010464447 0.016106281 0.055307474 0.0035925128 -0.04632627
0.031463023 -0.041760713 -0.01235205 0.020937558 6.476407e-06 -0.039641473 -0.057846535 -0.05044085
-0.011796886 -0.013054338 -0.029936397 -0.042388063 -0.05756387 0.037094448 -0.002381779 0.017455447
-0.051772516 -0.004137986 -0.018822439 0.052962404 0.039997946 0.052868854 0.024097707 -0.047434814

block_2.0.bias f4 [32]
00000000: b083 4dbc 8256 1ebc 97c4 aeba afc9 8cbd
00000010: 1872 2dbd 1210 c33d 890a e9bc 7e5a f1bc
00000020: 765e 7f3d 1ef3 2dbe 3862 203e 41e8 093d
00000030: d554 cf3d 77ca 203d f417 683e 20e8 97bd
00000040: c94d ffbc cc8e 623d 9f94 013e 96fc 643e
00000050: 0172 00bd 8af0 513e fee7 5bba 0c47 633c
00000060: a130 2c3d 8a51 753d 6699 49bd ea34 09bd
00000070: bb00 3ebc bdeb 863c bbb6 0c3d b7f1 7f3c
-0.012543604 -0.00966418 -0.0013333735 -0.068744056 -0.042345136 0.095245495 -0.028447406 -0.029462095
0.062345944 -0.16987273 0.15662467 0.03366876 0.10123602 0.039255586 0.22665387 -0.07417321
-0.03116502 0.055311963 0.1265435 0.22361979 -0.031358723 0.20501915 -0.00083887565 0.013871919
0.042038564 0.059892215 -0.049218558 -0.03349773 -0.011596854 0.01646983 0.034353953 0.015621594

block_2.2.weight f4 [32, 32, 3, 3]
00000000: 8e5d 15bd 3d3a 173d 009e 7fbc 789f 0abd
00000010: 52e8 e63c d900 433c 35e5 acbc a549 243d
00000020: 98fe 5abd 7172 c7bc 21e5 13be 6cb8 adbd
00000030: e0cf c7bc 0e17 b9bd efd7 56bc d394 ac3d
00000040: bff7 05bd 855b d5ba a5a4 e43c 75b1 24bd
00000050: 7123 bbbc a74a 173d 3ba7 64bd 71dd 30bc
00000060: ef1c a23d efa5 4c3d 8776 f2ba 6cad c6bd
00000070: 1598 2fbe f264 fdbd 7329 53bd d0ad 2bbe
00000080: fe35 4fbd 71e4 55bd d624 4abe 5bd2 babd
00000090: 3483 7c3d 9b78 b9bc 5cd9 5a3d 4c32 9abb
000000a0: e702 553c 8759 57bd 2f0c 223d d555 17bd
000000b0: adf2 d63c 5ad0 6c3d 82ec 7d3d d1e3 3fbd
000000c0: 55fd 453d a041 ae3c 2a08 03bd f8a5 753d
000000d0: c0ef 0b3c 00fb 74bd 645e 343d 9a59 c9bc
000000e0: 4c7f 4c3d f54b 24bd 1bdf 923c 274c 5abd
000000f0: 1a1d 16bd edbb b1bc 2afd a73c 30b0 863c
00000100: 7d9f debc 7a01 18bc 78d7 09bd b1c6 003d
00000110: f9d0 2dbd f4ef 0fbd 85bb 313d b0de 583d
00000120: f79c 09bd ec7c 35bc b32f 90ba 25d1 1abc
00000130: 49ab 63bd 84c3 01bd 4989 be3c 2bda a83b
00000140: 142f 2e3d 14b8 81bd a41a 01be 9369 2e3a
00000150: 8321 a4bd 4603 3bbc 2a9b 9bbd f2c2 0ebe
00000160: f2b2 63bd 971b 62bc 8ca9 12bc 2d59 90bd
00000170: fe06 8c3d 09c4 27bd ed4b 30bd fc71 073c
00000180: 2f88 93bd 1678 edbd 28a7 aabb 907e dc3c
00000190: 2f97 133b 1820 48bd a1bc c13c 32ee 4abb
000001a0: b8f8 f4bc e160 b43c f6b5 193c c509 003d
000001b0: 7ed0 54bd 6743 53bc c8be 8d3c bd69 0cbd
000001c0: c4d7 053c 844f 613c 8274 a0bc 5c88 55bd
000001d0: 77b6 dabc 48a2 223c 28e1 36bd e359 20bd
000001e0: 89f8 09bb eb56 adbc 796d 813c 643e 19bd
000001f0: 9a17 3b3c 4fd8 75bc feb8 093e cd71 dcbc
00000200: b4f0 86bc 105c ab3d 64bd 6d3c 52b8 04be
00000210: 0b40 003d e051 d2bc 8add 803d 3788 8dbc
00000220: 7f69 e2bc 2768 d93c 3fc1 263d e41a 5abd
00000230: 0894 58bb 0853 0ebc e3fa cd3c aafc 013c
00000240: b26c 5bbd 5a8b 043d 55b4 44bd db5d 973c
00000250: b019 413d 7ce5 07bd c012 c03b 5ee0 70bd
00000260: 0201 88bb 1dc9 92bc b632 02bc 2b41 3cbd
00000270: 09c6 533c 5832 8ebc 7b1a 253d f1f0 3f3d
00000280: ea0a ddb9 6baf 703d a2ca 75bd 0bbe ea37
00000290: 0fa3 a6bb 196e a9bd e11c e5bc a8ff 173c
000002a0: 2020 a93c 7458 573c b0ce 753c b8cb f73d
000002b0: 26b1 9dbd 9c51 ba3b 5a0d ab3d 19e2 3dbd
000002c0: 1cc2 98ba 1648 3f3e 131c 89bd 4188 0cbd
000002d0: 206b 963d 43c9 97bc 8f25 bcbd c1ef e0bc
000002e0: 1cdb b2bd 83f5 abbd 6e82 1d3e b612 5bbd
000002f0: b661 02bd d2f5 adbc 2bb6 543d 7129 573d
00000300: c3dc abbd 952f 2dbd 629b 93bc 390a 66bd
00000310: a4c8 b23b 7617 943b 2640 dabc 83a3 8bbd
00000320: e3e3 873c 4ba5 09bc a93e 113c 900c 0cbd
00000330: cb6f f83c 29b7 56bc 2ced 5f3c 7bb3 053e
00000340: 51fe b1bd c521 b6bc a06a dc3d 1cfe 14be
00000350: e419 d4bd 83af d33d 55cf 20be 8509 d9bd
00000360: ec22 2dbd 13c9 36bc d350 d23c 48b6 483d
00000370: 8ba8 0fbd 5e08 aab7 ff68 5d3d ad1c cfbb
00000380: bcc6 ac3c 58e4 153c 0bce 7b3b ba42 603d
00000390: 5b8d 013d d4c8 223c 6cf6 8ebc acb5 a23b
000003a0: d096 163d 8741 dabb e9ac a6bd a100 dfbc
000003b0: 325e b1bc 90db 3bbd d575 38bd e27e 05bd
000003c0: 7221 75bc 7c8a c8bd 0274 d8bd 6594 4a3d
000003d0: a568 33bc 35ee 6ebd 02ee 2dbd b24e 89bc
000003e0: 2e5a 07bd ab11 94bd 8345 a13c ed3e 193d
000003f0: 314a 08bd e738 36be c1ea fabd ad97 483e
-0.036466174 0.036920775 -0.015601635 -0.033843488 0.02818695 0.011902058 -0.021105388 0.040109295
-0.053465456 -0.024346562 -0.14442874 -0.08482441 -0.024391115 -0.090376005 -0.013113006 0.084268235
-0.032706972 -0.0016277885 0.02791054 -0.0402083 -0.022844048 0.03693643 -0.055823546 -0.010794983
0.07915675 0.049962934 -0.0018498459 -0.09701046 -0.17147858 -0.123727694 -0.0515532 -0.16765523
-0.0505886 -0.05221981 -0.19740614 -0.09122153 0.061648563 -0.022640517 0.053429946 -0.004705703
0.01300118 -0.052575614 0.0395624 -0.03694709 0.026238764 0.057815887 0.06199313 -0.046848122
0.0483373 0.021271527 -0.031990208 0.059972733 0.008541048 -0.059809685 0.04403533 -0.024578858
0.049926087 -0.0401115 0.01792865 -0.05329528 -0.036648847 -0.021696055 0.02050646 0.016441435
-0.02717566 -0.009277696 -0.033652753 0.031439487 -0.04243562 -0.035140947 0.043391723 0.052946746
-0.03359696 -0.011077147 -0.0011000544 -0.009449278 -0.055583272 -0.0316806 0.023258822 0.005152961
0.042525366 -0.06333938 -0.12607819 0.0006653305 -0.08014204 -0.011414355 -0.075979546 -0.13941553
-0.055590577 -0.013800523 -0.008951556 -0.07048259 0.06837271 -0.040958438 -0.04304116 0.008266922
-0.07203709 -0.1159517 -0.005207915 0.026915818 0.0022520532 -0.048858732 0.023649516 -0.003096473
-0.029903755 0.022018852 0.009381762 0.031259317 -0.051956646 -0.012894488 0.017302886 -0.034280527
0.008169118 0.013751868 -0.019586805 -0.052131996 -0.026698334 0.009926386 -0.04464832 -0.039148223
-0.002105268 -0.02115961 0.015799271 -0.037413016 0.011419201 -0.015005185 0.13449475 -0.026909733
-0.016472198 0.08367169 0.014510486 -0.12960938 0.031311076 -0.025673807 0.06292255 -0.017276866
-0.027638195 0.026538922 0.040711638 -0.0532483 -0.0033047218 -0.008686788 0.025144046 0.007933775
-0.053570457 0.03235946 -0.04802354 0.018477371 0.047143638 -0.033177838 0.00586161 -0.058807723
-0.0041505108 -0.017918164 -0.007946661 -0.045960587 0.012925633 -0.01735799 0.040308457 0.04686064
-0.00042160536 0.05876104 -0.0600077 2.798347e-05 -0.005085356 -0.082729526 -0.027967872 0.009277262
0.020645201 0.013143647 0.015002891 0.12099403 -0.07699804 0.005685998 0.08352156 -0.0463582
-0.0011654529 0.18679842 -0.06694808 -0.03430963 0.07344651 -0.018528586 -0.09186851 -0.027458074
-0.08733198 -0.08396437 0.15381786 -0.05348464 -0.031831466 -0.02123538 0.05193154 0.052529756
-0.08391716 -0.042281706 -0.018018428 -0.056162093 0.005456047 0.0045193983 -0.026641916 -0.06818297
0.016588157 -0.008401225 0.008865037 -0.034191668 0.030326745 -0.013105192 0.013667386 0.13056748
-0.08691085 -0.0222329 0.107625246 -0.1455006 -0.10356501 0.103362106 -0.15704091 -0.10597519
-0.042269632 -0.011156338 0.025673306 0.049001962 -0.035072844 -2.0269475e-05 0.05405521 -0.006320557
0.021090858 0.00914868 0.0038422372 0.054751135 0.031628948 0.0099355765 -0.017451487 0.0049655046
0.03676492 -0.0066606435 -0.08138449 -0.02722198 -0.021651361 -0.045863688 -0.04503425 -0.032591708
-0.014961587 -0.09792039 -0.10569002 0.049457926 -0.010950242 -0.05833264 -0.04246331 -0.016761158
-0.033044986 -0.072299324 0.019686466 0.037413526 -0.03327388 -0.17795144 -0.12251807 0.1958911

block_2.2.bias f4 [32]
00000000: 1812 9e3d ae75 bf3c 2948 cd3a 3c8e 763e
00000010: f485 24bd f3fc 5cbc d15e 6a3c c0ba 33bd
00000020: cfc6 b6bd 2b51 2ebd f1bb e5bc 0f11 113e
00000030: b765 5bbd b385 593c d7a7 8e3c 92bc 13bc
00000040: 81c2 423e 441f 183e 128d 85bb 5ee2 39bd
00000050: 9ccd ccbd f229 143e 012c 67bd ddca 25bd
00000060: 2a05 ab3d fbfd 8fbd 51e6 46bc 67dd 1fbe
00000070: 76fb b0bd bb15 c2bb 7df3 8abd 739e ce3c
0.07718295 0.023371544 0.0015661764 0.24077696 -0.04016681 -0.013488042 0.014304833 -0.04387927
-0.089246385 -0.042557877 -0.028043719 0.14166664 -0.0535638 0.013276505 0.017414017 -0.009017127
0.1901951 0.14855677 -0.004075655 -0.045381896 -0.100001544 0.14469126 -0.05643845 -0.04047667
0.08350594 -0.07030865 -0.012139873 -0.15611802 -0.08641712 -0.0059230006 -0.06784723 0.025222039

classifier.1.weight f4 [10, 512]
00000000: db49 83bd 344c 253d 8bf0 0abe 301b 8ebd
00000010: 4235 d7bb c137 893c 3068 ba3d fd82 6bbd
00000020: 65c7 9a3d 8bd3 4fbc 28af b93c 35ac 0cbd
00000030: 118f e03d 4652 003e 761e 5fbe ee81 40be
00000040: 8da6 00be 9f2f 78be b0a4 78bd a2b9 803e
00000050: bbf2 b3bd a769 283d 4e01 0e3e 4cb2 ee3d
00000060: 491e 8bbd 629f bc3d 9876 db3c 60d0 d73d
00000070: 2368 213e 3006 ae3e 3b8e edbd c0c1 37be
00000080: 695b 593c 492a a5bd 8a9a b7bd af3f 0c3c
00000090: 7b17 343c 7be7 6bbd 59a6 abbd 55ef e03c
000000a0: 178d 07bc ab0b 9ebd 452e 71bd 5fcb 163e
000000b0: f088 713c c246 2dbd 58ce 9a3d bc64 a33d
000000c0: cae2 adbd 779a b1bd 77b4 52be 06dc 30be
000000d0: 136d a7bd 94db 18be d4f7 193e e5f8 483e
000000e0: 8e58 613d 0a3d 963d 4428 983d 5c20 ee3d
000000f0: ffe1 a83c 4f88 41be 8bf3 05be d6ef 183d
00000100: 2e75 debc 7696 4f3b 0f91 1cbd d7fb be3c
00000110: eb49 dcbc e279 5d3c d163 a83c 7d3e a93c
00000120: b8c1 d7bc d69d 693d cbdb c6bc 3b80 9a3b
00000130: 7faa 323c 5bf2 f23b cfc4 c8bc a5d2 d5bc
00000140: 111d 9fbc 9405 37bd 5dbe 0abe fd69 e4bd
00000150: 6166 733d 0b4c 2dbd 4d1b e4bd e290 d8bd
00000160: ec72 263d 88bc 75bd d5f7 f73d 59fd 193d
00000170: 4a31 21bd bf87 5b3d cf99 103e 3d44 ef3c
00000180: 8b8b 06bd c03e 173d 1a1f 233d 25ea 913d
00000190: 39fe 09bc 6da0 7fbd c1f7 ce3c 998c 023d
000001a0: 953f 09bc 3af4 c2bd 82c1 01be 0cc0 0bbc
000001b0: 15da 623c 5aff 0bbe 7d2d 12be b98f dc3c
000001c0: 3177 dbba c551 aeba 393d e23c cd66 0c3d
000001d0: 3d0c cc3c 6ffa 8d3b c5c1 843c 51d7 c7bc
000001e0: ccca bd3b d50e e43c 0095 86bb a507 97bc
000001f0: 24b4 bc3b e8e0 b33b 8ca2 c93c ee4d 053d
00000200: 72fa eb3c a18c 1fbd ced2 5d3d ecc5 423e
00000210: 2249 773d 5e59 973c 85ce 593d 8f2d 3c3d
00000220: 412a d9bd 1cd2 80bd 60fc 09bd e579 203e
00000230: a288 f0ba bf4a 0dbe e174 4cbd 8b81 4c3e
00000240: 0f8c 9fbc f0b6 a7bb 395e 593d 65b7 3c3d
00000250: 2972 7d3d 30ef 6f3d c228 ccbc 0389 c03c
00000260: 9421 863c b75b 8ebd c01b 32bb 22b1 563d
00000270: 9839 aa3c f481 cc3c fd91 613d 50fa 783d
00000280: 0709 833d 5868 0a3e 27d2 783d 2b84 96bd
00000290: 2069 053b cd8a 03bc 3616 023d 2698 8bbb
000002a0: 430f 5c3d 162d b23b b842 0a3d 76b2 233e
000002b0: 7bb0 f13d 7916 93bd 66a3 b33d 8a2d bf3d
000002c0: 6742 d33d 9bbe 0a3e ee19 14bd 9ea7 743e
000002d0: 2af1 e93c 7b5e 41bd f744 79bd 44b4 00bd
000002e0: e417 c8bc 4585 9bbc 7988 c7bc e545 57be
000002f0: 8ebd 1b3d 3c04 8abd 9714 b23d aa02 cbbd
00000300: 4c9e bdbd dff7 13bd fd78 0cbe b5e3 cebd
00000310: a481 a23d 09dc babd 0aad 1ebe 73d1 51be
00000320: 3c42 7c3d 89a6 10bd 21dd 3d3d 08b8 28be
00000330: 1628 a03c 8d72 c83c 3f40 dc3d f8ff 7b3d
00000340: 9b46 f4bc 8dd7 c0bd 1180 13be 56bf 60be
00000350: f3c3 dbbd cf3e 95bd 763e d63d d492 07be
00000360: 53ca 0dbc 1d7e db3d f7e2 5bbc 644d 253d
00000370: d0d6 afbd 83f3 05be 789f 3d3d 81c4 fe3d
00000380: dea5 8abd c9ea 19be 17a6 5fbe c5d2 f7bd
00000390: b48b e53c d4be cdbd 5d05 f43d bbe7 cb3e
000003a0: 912c 9fbc 3d3c 3abe e66d 563e 2c57 e83e
000003b0: c610 90be 88ef 95be d5c0 853d ac86 96bc
000003c0: 2982 1ebe 76ef 7ebd b6e1 85be b764 b6be
000003d0: 733a b5bc e682 4e3d 3464 6fbd 8d46 0fbe
000003e0: 7033 183e dd1e 233e 412b c1bd 38b6 0e3e
000003f0: 89b8 3fbd ccd1 ca3d 087e 513e 06c1 b13e
-0.06410571 0.040355876 -0.13568322 -0.06938779 -0.006567628 0.016750218 0.091019034 -0.057497967
0.07557563 -0.012684713 0.022666529 -0.034343917 0.10964788 0.12531385 -0.21788964 -0.18799564
-0.12563534 -0.24236916 -0.060703933 0.25141627 -0.087865315 0.041116383 0.13867685 0.11655101
-0.06792886 0.09210087 0.026789948 0.10537791 0.15762381 0.33989096 -0.11599394 -0.17945004
0.013266423 -0.08064706 -0.08965023 0.008560105 0.010991926 -0.057593804 -0.08381338 0.027457872
-0.0082733845 -0.07717069 -0.058882017 0.14726017 0.014742121 -0.042303808 0.07558888 0.07978198
-0.08490522 -0.0867204 -0.20576654 -0.17271432 -0.08175101 -0.14927512 0.15035945 0.19626196
0.055016093 0.07335861 0.07429555 0.11627266 0.020615576 -0.18899654 -0.13081186 0.0373381
-0.027155485 0.0031675375 -0.038224276 0.023313446 -0.026890716 0.013517829 0.020555409 0.02065968
-0.02633749 0.05703529 -0.024274727 0.0047149933 0.010904907 0.007414145 -0.024507908 -0.02610142
-0.01942304 -0.044683054 -0.1354918 -0.11153028 0.059423808 -0.04230885 -0.1113802 -0.10574509
0.04063694 -0.05999425 0.12107817 0.037595127 -0.039353646 0.053596254 0.14121173 0.029207343
-0.032847922 0.036925077 0.039824583 0.07124738 -0.008422428 -0.062408853 0.025264623 0.031872366
-0.008376976 -0.09519239 -0.12671474 -0.008529674 0.01384594 -0.13671628 -0.14275165 0.026924001
-0.0016743896 -0.0013299516 0.027617084 0.034277726 0.02490818 0.0043328325 0.016205678 -0.024394663
0.0057919975 0.027839104 -0.0041071177 -0.018436262 0.005758779 0.0054894574 0.024613641 0.032545023
0.028805945 -0.038952474 0.054156117 0.19020814 0.06037248 0.01847523 0.053175468 0.045941886
-0.106037624 -0.06290075 -0.03368795 0.15671499 -0.0018351267 -0.13798045 -0.049916152 0.19971292
-0.019475965 -0.0051182434 0.053068373 0.046073336 0.06187645 0.058577716 -0.024921779 0.023502832
0.016373433 -0.06951087 -0.0027177185 0.05241502 0.020779416 0.02496431 0.055070866 0.06078559
0.06398206 0.13516366 0.060747292 -0.07349428 0.002035685 -0.008028698 0.031759463 -0.004260081
0.053725492 0.0054375036 0.033755034 0.15986046 0.11801239 -0.07182021 0.087714 0.09334858
0.103153996 0.13549273 -0.03615754 0.23892066 0.028557379 -0.047209244 -0.060856786 -0.031421915
-0.024425454 -0.018984446 -0.024357067 -0.21022756 0.03802257 -0.06739089 0.086953335 -0.099126175
-0.09258708 -0.03612506 -0.13718028 -0.101020254 0.07934883 -0.091239996 -0.15495697 -0.20490055
0.061586604 -0.03531507 0.046353463 -0.16476452 0.019550364 0.024468685 0.107544415 0.061523408
-0.029818824 -0.09416113 -0.14404322 -0.21947989 -0.10730734 -0.072873704 0.10461132 -0.13239604
-0.008654195 0.107174136 -0.013420812 0.04035701 -0.08585894 -0.13081174 0.04629466 0.12439824
-0.06769918 -0.1503097 -0.21840702 -0.12100748 0.028020717 -0.10046163 0.119150855 0.39825234
-0.01943043 -0.18187042 0.2094036 0.45379007 -0.28137797 -0.2928431 0.065309204 -0.018374763
-0.1547934 -0.062240086 -0.26148766 -0.35623714 -0.022122597 0.050417803 -0.05844517 -0.13991757
0.14863372 0.15929742 -0.09432078 0.13936698 -0.046806846 0.09903297 0.20458233 0.34717578

classifier.1.bias f4 [10]
00000000: 8b50 b4bc 574e ce3e 2863 573d 6fc8 a4bd
00000010: 2359 b0bd b582 1abe f35c b2bd 4151 f43a
00000020: 3fbb 0d3e 0019 d6bc
-0.022011062 0.40294144 0.052584797 -0.08046042 -0.086107515 -0.15088923 -0.08709135 0.0018639938
0.1384096 -0.026134968
