PyTorch Course/Chapter 3/models/MNIST_Model.pth (torch, 136816 bytes, 10 tensors)

block_1.0.weight f4 [32, 1, 3, 3]
000000 b8 aa 0a be 0d b4 99 3e 1a 43 33 3c cc 52 99 3e
       -0.13541687 0.3002018 0.010941291 0.29945982
000010 0e 74 c2 3e 3f 3e b5 3e 95 8b 23 be da 1c c8 be
       0.37979168 0.35399053 -0.15971215 -0.39084512
000020 7d f6 6d be 6b 7c 82 be 13 45 95 be 33 15 a8 be
       -0.23238559 -0.25485548 -0.29154262 -0.32828674
000030 5d 9b ec bd 57 3c 73 bd b2 04 b4 3e c8 27 83 3e
       -0.11553071 -0.059383716 0.35159832 0.25616288
000040 b2 1b 6b 3d 05 11 58 be a9 16 90 be f8 0d aa 3d
       0.05739946 -0.21100242 -0.28142288 0.083034456
000050 23 97 ae 3e 52 40 43 3e 5a 22 b9 3c de 6a 93 3e
       0.34099683 0.19067505 0.022599388 0.2879247
000060 26 83 7d 3e 34 83 41 be e3 64 1f bd 65 8a 84 3e
       0.2475706 -0.18897706 -0.038914572 0.25886837
000070 e7 c9 42 bd 5f eb c1 3e 4d 1a ef bd 04 18 9e 3e
       -0.04755583 0.37874886 -0.11674938 0.30877697
000080 c2 58 85 bc 0b 4c 02 bf cc 81 78 3d 2e 3b 7f 3e
       -0.016277675 -0.5089728 0.06067066 0.24924919
000090 ab 2b 29 bd 83 4d b7 3e 40 12 49 be 1b b7 e6 3d
       -0.04130141 0.35801324 -0.19635868 0.11265393
0000a0 78 7e 87 be d4 26 8c 3e 22 a8 8c be 6a e2 38 3d
       -0.26463675 0.27373374 -0.27472025 0.0451378
0000b0 05 00 43 be 11 32 1f be 7d bb 9f be ba ea 6f be
       -0.19042976 -0.15546443 -0.3119773 -0.23429385
0000c0 3f 46 01 3e f9 d4 95 be 34 49 23 be 02 bf 6e bd
       0.12624453 -0.29264048 -0.15945894 -0.058287628
0000d0 6d 65 bf 3e 58 a6 da 3e 2f 24 f3 3d 67 9d 05 3e
       0.3738207 0.42705035 0.11872136 0.13048325
0000e0 de 1c 2b bd ae 1f b6 be c3 87 04 3e e6 03 b1 be
       -0.041775577 -0.35571045 0.12942414 -0.34573287
0000f0 c7 16 a9 be 3c a8 98 be e1 95 19 be 8f de 6d 3e
       -0.3302519 -0.29815853 -0.1499858 0.2322943
000100 2b b0 20 bd 02 de a6 3e 25 b3 9e be e4 51 34 bd
       -0.039230507 0.32591254 -0.3099605 -0.04402341
000110 41 0b 70 bd 38 54 71 bd 32 42 1e 3e 43 cd 72 be
       -0.058604483 -0.058918208 0.15454939 -0.23711114
000120 21 ed 37 3d 2b 93 79 3c 02 19 d6 3e 47 52 7b be
       0.044903878 0.0152328415 0.41815954 -0.24543105
000130 7d 2c 46 be 8a a6 06 3e 2e 8d 20 3e b3 b5 f8 bd
       -0.19352908 0.13149467 0.15678856 -0.121440314
000140 67 02 d5 3d 46 a7 8f be 2f 52 96 be 63 66 9e 3e
       0.10400849 -0.28057307 -0.29359576 0.3093749
000150 83 c6 98 3d da 99 26 bc 77 4c 65 3d 34 c1 40 be
       0.07459738 -0.010168517 0.055981126 -0.18823701
000160 88 79 71 3d 45 f5 97 be cc 93 cc be 49 9c 59 3e
       0.05895379 -0.29679313 -0.3995651 0.21251024
000170 92 e7 98 3e 90 f0 7e 3c 96 89 5f 3e 52 f9 e4 3e
       0.29864174 0.015560284 0.21829829 0.44721466
000180 dd 46 84 be db 21 87 3e 1e 73 23 bd 6f b0 55 3c
       -0.25835314 0.26393017 -0.039904706 0.013042553
000190 ff cf ec 3d 68 9c 08 3e 53 74 3c 3e de 0d a0 3e
       0.115631096 0.13340914 0.18403749 0.3126058
0001a0 74 b9 fd bc c6 c6 a3 be c1 4a a5 3e d1 4f f1 3c
       -0.03097222 -0.3198759 0.32283595 0.029457005
0001b0 06 a0 07 be 9c 33 80 be 71 be 04 be 74 c6 4a 3e
       -0.13244638 -0.25039375 -0.12963273 0.19802266
0001c0 ed 7d 70 3d f9 3d 79 be 07 1e 04 3b b2 29 8e be
       0.058713842 -0.24340047 0.00201595 -0.27766186
0001d0 33 29 9a bd 7b 98 8d bd 7c eb 2a 3e a0 05 0c be
       -0.075273894 -0.06913849 0.16691393 -0.13674021
0001e0 f5 37 4a 3d 69 e0 ad be 5b b2 90 3e ff 52 29 be
       0.04936977 -0.33960274 0.28261074 -0.16535567
0001f0 1a 81 d9 3c 51 ff a1 3e 34 3d c5 bd 37 3b 02 bc
       0.026550818 0.31640103 -0.09630814 -0.007948688
000200 af 6a 82 be 59 f3 03 be 64 3b 97 bc 2f ff 35 be
       -0.25472018 -0.12885799 -0.018460937 -0.17773126
000210 ed db 4a 3e e2 55 40 bd 12 01 73 3e fd 24 b9 3e
       0.19810458 -0.046956904 0.23730877 0.36161032
000220 a0 bb 04 bd 8b a5 7f be 4c a4 07 3e 0c 8a fa 3c
       -0.032405496 -0.24965493 0.13246268 0.030583404
000230 21 66 1b bd 97 c2 c2 bc c3 dd c8 3e df 1c 15 3e
       -0.037939195 -0.023774428 0.3923169 0.14561795
000240 4e 7f 49 be 3b 3f 20 be 4c eb 86 3d 18 01 08 be
       -0.19677469 -0.1564912 0.06587848 -0.13281667
000250 b6 1e 44 be a0 b1 ff bd db e8 a9 be 00 4d a1 3b
       -0.1915234 -0.12485051 -0.33185467 0.004922509
000260 0c 0a c7 bd a3 e8 ab be d2 80 be be 6e 83 6b 3d
       -0.09718713 -0.33575925 -0.37207657 0.057498388
000270 de d2 40 be 30 8e 4d bd ac 66 c6 3e fe ca f1 bd
       -0.1883044 -0.05018443 0.38750207 -0.11806296
000280 7f 76 de 3e a5 f6 81 3e 4f 8d 8f 3d ef 49 98 bd
       0.4344978 0.25383487 0.07009374 -0.07435977
000290 ad ca 10 be 73 60 8e 3e 13 d7 3d be 49 56 21 be
       -0.14139815 0.2780796 -0.18539076 -0.15755571
0002a0 71 2e 90 3e 54 9b 1b be 0e 2a 36 be cf 48 55 be
       0.28160432 -0.15195972 -0.1778948 -0.20828556
0002b0 bc 5f 8c be 57 d8 86 bc 3d b0 a4 3e ed e2 8c 3e
       -0.2741679 -0.01646058 0.3216571 0.2751688
0002c0 7d 4e fe bd 8f 7d b5 be 1a 3b dd 3c 6d b3 8c bc
       -0.12417314 -0.35447356 0.02700572 -0.0171754
0002d0 6a 80 94 be 92 3d 97 3e b8 45 19 be e7 93 8b 3e
       -0.29004222 0.29539162 -0.14968002 0.27261278
0002e0 32 69 1a 3e 2d aa 7e be f5 2b e7 bd a2 c6 00 3c
       0.15079191 -0.24869604 -0.11287681 0.007859858
0002f0 b0 88 5e 3e dd ee 65 be 6b ea 7d bc 47 59 31 bc
       0.2173183 -0.224544 -0.015497784 -0.010824508
000300 68 38 28 be b4 55 66 3b f5 f9 7c be b0 b4 8f 3e
       -0.16427767 0.0035146298 -0.24704726 0.2806754
000310 66 51 36 3e b0 e8 0b be 5a 1d 9d be 2a e7 62 3e
       0.17804489 -0.13662982 -0.30686456 0.22158495
000320 6d 90 96 3e 8a cc 99 be e0 5d a0 bd 86 ff 5d bd
       0.29407063 -0.30038863 -0.07830405 -0.054198764
000330 48 f4 b6 3e 4d 2e fb 3d c8 0e cb bd 34 03 8e bd
       0.35733247 0.122646905 -0.09914929 -0.06934205
000340 15 f9 82 bd 36 aa a9 bd a6 5b 0d bd f0 72 8b bd
       -0.06395165 -0.08284418 -0.03451123 -0.06809032
000350 00 5a 85 3e f6 2c b1 3e d1 a9 82 3e 70 59 5c 3d
       0.26045227 0.34604615 0.25520185 0.05379623
000360 c9 bb da bd 1b 1e 88 be ca ef 99 bd f0 32 d0 3d
       -0.106803484 -0.2658547 -0.07516439 0.101659656
000370 a6 5c 81 be 01 ae 2d 3e 8b 85 90 be 50 d7 a0 be
       -0.25265998 0.16960908 -0.28226885 -0.3141427
000380 29 94 b6 3c 1b 83 cf 3d e3 77 94 3d 78 35 a6 3d
       0.022287445 0.10132428 0.07249429 0.08115667
000390 c7 75 d2 3e 91 a4 bc 3a 85 a0 55 3d 2f 30 44 3e
       0.41105482 0.0014392306 0.052155036 0.19159006
0003a0 59 be 64 3d 52 b8 8a be 28 7e f7 3c 5b 7f 37 be
       0.055845592 -0.2709375 0.030211523 -0.17919676
0003b0 ad b3 b3 be e6 2d 92 be 32 f4 f5 3d ea c4 01 3e
       -0.3509802 -0.28550643 0.12009467 0.12672773
0003c0 88 66 3f 3e 10 fe d5 3e c5 b0 a1 3e 00 82 40 3e
       0.18691456 0.41795397 0.31580177 0.18799591
0003d0 e8 49 02 3e 62 1d 8a bc 88 2b ce 3e 50 63 01 3f
       0.12723505 -0.016859714 0.40267587 0.50542164
0003e0 c0 15 8f 3e 28 09 da 3d a1 08 7c be d0 de e7 3d
       0.2794628 0.10646278 -0.24612667 0.11321795
0003f0 3f 25 01 bd 25 4c 46 be 0b e0 b3 be 42 37 8a be
       -0.03152966 -0.19364984 -0.3513187 -0.26995283

block_1.0.bias f4 [32]
000000 3b c5 b9 3d 50 91 d2 3d f5 a8 d8 3a 7c be ed bc
       0.09070822 0.102816224 0.0016529845 -0.029021494
000010 b3 95 9a bd d4 04 5b 3e 37 e5 7d 3e 0b ad 22 bd
       -0.07548084 0.2138856 0.2479447 -0.039715808
000020 15 9c ae bd 7c ca 39 3e bb 30 b9 3c a5 f7 99 3d
       -0.08525864 0.18143648 0.022606244 0.075179376
000030 0b 4d 84 3d 8c d1 77 3e d8 6b ca bc 90 2e a4 be
       0.06460007 0.2420103 -0.024709627 -0.32066774
000040 28 a7 91 be 7a 64 8c 3e ad 4a dd 3e 7a 3e e5 3a
       -0.28447843 0.27420408 0.43221036 0.0017489933
000050 57 02 98 3d 5a 9a 9f be c5 94 c7 3d 64 94 73 3d
       0.07422321 -0.31172448 0.097451724 0.05946769
000060 6f 7c da 3d 2e e3 dd 3d 66 21 7e 3e 1a 7c 88 3d
       0.10668265 0.10834347 0.24817428 0.066642955
000070 a7 64 35 3e c9 64 5a 3d 49 49 1f be eb 26 8d 3d
       0.17714177 0.053318772 -0.155553 0.06892189

block_1.2.weight f4 [32, 32, 3, 3]
000000 57 3d 9a 3d 79 85 66 bd 55 95 45 bc cb 75 ef bc
       0.07531231 -0.056279633 -0.012059529 -0.029230973
000010 db 7d 80 bd c9 a0 09 be 12 53 8b 3d a5 48 6c bd
       -0.06274005 -0.13440241 0.06802954 -0.057686467
000020 1b 7b 0d be a9 88 62 bd c3 5b de 3c a1 9d 35 bd
       -0.13816492 -0.05530611 0.027143365 -0.04433978
000030 f0 5c 06 3d 97 87 a0 3c c8 75 9e 3b 15 4a 35 bd
       0.032803476 0.019595904 0.004835818 -0.044260103
000040 37 c4 81 bb 4e 67 1f 3d 7e c7 28 bc 18 2a d9 3b
       -0.003960158 0.03891688 -0.010301469 0.0066273324
000050 2d 73 c8 bd c0 ca 94 3c 55 5e a6 ba 81 34 af bd
       -0.09787593 0.018163085 -0.0012692908 -0.08554936
000060 bf 1f 67 3d f5 ba 8f bd fe 36 9a bd 59 eb d2 3d
       0.05642676 -0.07018081 -0.0753002 0.10298795
000070 f6 ee 53 bd 73 91 20 be 95 ef 18 3e 00 5d 94 bd
       -0.051741563 -0.15680484 0.14935143 -0.07244301
000080 fd 98 eb bd 6e 9a b7 3c 3c e5 b3 3c 77 82 db bd
       -0.115037896 0.022412505 0.021959893 -0.107182436
000090 9d d4 24 bd 10 ce 02 bc 95 73 36 bc 1a fa ff bc
       -0.040241826 -0.007983699 -0.011135955 -0.031247187
0000a0 69 a5 0f 3d 9e 68 fe 3c 40 b1 35 bc ab 8e 20 bd
       0.035069857 0.031055745 -0.011089623 -0.03919856
0000b0 03 38 04 bc dd 4a e4 3b 0b 8b 76 bd fe bb 64 bd
       -0.008069995 0.006966932 -0.060191195 -0.055843346
0000c0 0d 14 e3 bd a5 5d a4 bd 43 52 cc bc e2 6a 92 bd
       -0.11087809 -0.08025674 -0.02494157 -0.071492925
0000d0 a5 d4 96 bd a2 95 5e 3d e6 75 bc bd 0b a4 68 bd
       -0.073647775 0.05434192 -0.09202175 -0.05679707
0000e0 a4 30 e0 3c 00 4a 91 bc e3 a5 17 bd 53 ef 22 3d
       0.027366944 -0.017735481 -0.037023436 0.03977902
0000f0 79 f5 af bd 58 87 99 bd 3d 36 b4 3c c8 5a a7 3c
       -0.08591742 -0.07496518 0.02199852 0.02042903
000100 1e ae 1c bd bb 2b 5f bd 3e b6 60 bc 29 f6 dd 3c
       -0.03825199 -0.054485064 -0.013715325 0.027094917
000110 db 0f 8a bd d9 43 12 3d d1 78 ba bb c0 19 d8 3c
       -0.067413054 0.035709236 -0.005690672 0.026379466
000120 3c d4 36 3d 31 48 5e 3c 0d ce f4 bc 49 d5 56 3d
       0.044635996 0.013567016 -0.029883409 0.0524495
000130 99 94 03 bd e3 58 01 bc 4e 26 7e 3d b1 2f 60 3c
       -0.032124136 -0.007894727 0.06204825 0.0136832455
000140 fb 2b 9f bd 26 85 2b bb ee 9e 2b 3d b5 b2 15 bd
       -0.077720605 -0.0026171892 0.041899614 -0.03654738
000150 6b c6 15 bd be ff 48 3d 8f 8c 4e bd 36 14 1f bc
       -0.03656618 0.04907202 -0.050427016 -0.0097094085
000160 1e d7 da ba 36 8c c6 3b e0 88 0e 3e ed bd 83 ba
       -0.001669619 0.006059195 0.13919401 -0.0010051109
000170 ba e8 0a be 5e f2 5d 3d d7 a8 fb bc 7a d2 45 be
       -0.1356534 0.054186217 -0.030720158 -0.19318572
000180 82 73 2d 3e fa 50 56 bc 73 33 e0 bd bb 4a 06 3e
       0.16938594 -0.01308083 -0.10947313 0.13114445
000190 f6 01 10 3d 0a b7 e5 bd 02 0f 0f 3e 52 5b c7 bb
       0.03515812 -0.112165526 0.13970569 -0.0060838843
0001a0 97 6a d6 bd ff 61 0d 3e 7f 7d e2 3d c6 67 a8 bd
       -0.10469549 0.13806914 0.11059093 -0.08222918
0001b0 ae 12 69 bc 0c 60 5f 3d 84 a8 1c 3d 4d b0 fd bc
       -0.014225645 0.054534957 0.038246647 -0.030967856
0001c0 82 c3 28 bd 45 c2 0f bd 4f 69 03 bc 44 42 87 3c
       -0.041202076 -0.03509738 -0.008020713 0.01651109
0001d0 7c 3c f6 3c f2 d4 1e 3b d3 96 41 ba 00 d5 61 bd
       0.030058138 0.0024235812 -0.000738484 -0.055134773
0001e0 04 67 48 3c 9d 83 10 bd d7 cb 7c bd 93 21 09 3d
       0.012231592 -0.035281766 -0.061717834 0.033479284
0001f0 5e d4 71 bc aa 58 d4 3b 8b bc 98 3c 31 78 8c bd
       -0.014760105 0.006480296 0.018644592 -0.06858862
000200 70 b0 56 3d d4 61 04 3d df b2 8c bd 1b 4f 73 3d
       0.052414358 0.03231986 -0.068700545 0.059401613
000210 78 2d a1 bc 85 18 0f 3b 8a 66 c6 3c f4 32 bb 3d
       -0.019675002 0.0021834683 0.024218816 0.09140578
000220 59 15 05 bd f1 dd 07 bd be ca d5 3d 54 c5 4f 3d
       -0.03249106 -0.033170644 0.10439061 0.050725296
000230 90 cf 03 bd d6 e5 88 39 37 d4 ab 3d 82 9f b3 3d
       -0.03218037 0.00026111183 0.08390086 0.08770658
000240 94 0f 23 bc 64 86 11 3c 74 bf 57 3c 4e 26 a9 3c
       -0.009952445 0.008882139 0.013168205 0.020648148
000250 2a 79 43 bd f2 4e 9d 3c bb 11 5f 3d c8 fa d8 3b
       -0.047722973 0.019202683 0.05446027 0.0066216923
000260 ed 41 62 3d 80 7e 66 3c 81 7e 01 bd c4 24 65 bd
       0.055238653 0.014068246 -0.031614784 -0.055943266
000270 5e 29 48 3d f9 5e ba bd 55 66 a0 bd 3d ff 38 3d
       0.048867576 -0.09100146 -0.07832018 0.04516529
000280 1b 9b bf bd d8 2d ea ba a5 c4 46 bd 12 70 37 3d
       -0.09355756 -0.0017866446 -0.04852738 0.044784613
000290 aa 50 18 3e 67 ec 37 3c b8 28 db 3c 2d df 20 3e
       0.14874521 0.011225796 0.026752815 0.15710135
0002a0 b1 29 0e bd 27 aa 8f 3c 53 c9 e0 3d 0d bd 75 bb
       -0.03470773 0.01753719 0.109758995 -0.0037496716
0002b0 55 cd 16 bc d0 01 62 bd a1 b6 55 3c fa db 83 3d
       -0.009204228 -0.05517751 0.01304403 0.064384416
0002c0 51 ae 4d bb 36 b9 dc 3c e9 f8 40 3d 31 51 ea 3b
       -0.0031384418 0.026943784 0.04711238 0.007150792
0002d0 23 df 4f bc f4 ba 8e bc df 6f 46 bd 36 2d 0a 3d
       -0.012687477 -0.01742313 -0.048446532 0.033734523
0002e0 70 c6 50 3d 9b b3 40 3d c1 93 3b 3c 63 59 95 3d
       0.050970495 0.047046285 0.0114488015 0.0729244
0002f0 bf a2 cc bc 6f 24 8b 3c 87 05 f1 3c 49 fd 8d bc
       -0.024979947 0.016985146 0.029421581 -0.01733269
000300 2b d9 6f 3d 73 08 c3 3b 9c 83 72 bd 67 97 ec 3c
       0.058556717 0.005951935 -0.059207544 0.028880788
000310 07 3f 3d bd 03 d2 31 bd 31 ed 6d bc 11 8f 8f 3d
       -0.046202686 -0.043413173 -0.014521883 0.070097096
000320 03 d8 d2 b9 3f d5 86 3d 13 32 7d bd 9f 23 37 bd
       -0.00040215263 0.06583642 -0.061815333 -0.044711705
000330 18 e8 fb bb 98 af 5f bd 22 b7 3b bd 5a 82 cb bc
       -0.00768758 -0.05461082 -0.045828946 -0.02484243
000340 dd 47 db bc a6 d4 e2 bd 0a b8 20 bd 82 bd af bc
       -0.026767666 -0.11075716 -0.039238013 -0.021452669
000350 2e 73 13 bd 79 14 55 3d 52 13 07 3d 36 96 b6 3d
       -0.035998516 0.052021477 0.03297741 0.08915369
000360 77 8a dd 3b 7a 66 5d ba 1a 85 14 bd 30 7b a8 3c
       0.006760891 -0.0008445751 -0.036259748 0.020566553
000370 29 4e b9 3c 82 e4 66 bd 9a fa fd bc 7c a5 a9 bb
       0.022620277 -0.056370266 -0.031003285 -0.005177198
000380 3e 2a 95 bc 80 34 a3 3d 90 02 76 3d af a7 2c bd
       -0.01820862 0.07968998 0.060061038 -0.042152103
000390 03 d4 a1 bc 79 0a b0 3d c8 7f 9d bc df 71 1e bd
       -0.019754415 0.085957475 -0.01922597 -0.038682815
0003a0 16 c3 a4 3d d3 05 eb 3c a4 11 32 3d 5e 8a cd 3c
       0.08045022 0.0286893 0.043473855 0.025090393
0003b0 94 75 1a bd b2 a3 32 3d cd ba 20 3d b4 84 1c 3d
       -0.037709787 0.043613143 0.039240647 0.038212493
0003c0 21 0b 91 3c 5f 91 0a 3e 16 f6 29 3d a9 6a 28 3d
       0.017705502 0.13532017 0.04149445 0.041117344
0003d0 84 48 82 3c 27 84 0d be 35 e3 03 3e 9c 30 37 3d
       0.015903719 -0.13819943 0.12879641 0.044724092
0003e0 f0 0b eb bd 8c b0 ab 3d 06 11 0f 3e 92 7d e4 3c
       -0.11476886 0.08383283 0.13971338 0.027891908
0003f0 f8 6b 68 bd 29 71 c3 3c 4b d0 45 3c 85 48 a1 bd
       -0.056743592 0.02385767 0.012073587 -0.0787516

block_1.2.bias f4 [32]
000000 89 45 7d 3d 9e 71 29 bc 37 73 6f bc 3a 72 95 3d
       0.061833892 -0.01034203 -0.014614872 0.072971776
000010 f7 09 5d bb bf 77 12 3b 48 45 5e 3d 07 78 1c bd
       -0.0033727863 0.0022349206 0.05426529 -0.038200404
000020 71 86 d8 3c b5 dd 01 3d c4 28 e4 3c b7 1d 1b bc
       0.026431294 0.031705577 0.02785147 -0.009467534
000030 ae da 7b ba e4 93 c1 ba 29 57 d4 bc dd 50 b8 3a
       -0.0009607476 -0.0014768806 -0.025920467 0.0014062185
000040 5b 2f 14 bc e6 23 32 3d e5 75 2f bc d4 57 94 bc
       -0.009044494 0.043491267 -0.010709261 -0.018108286
000050 27 2b 13 bc 36 a1 4f bd 00 fe 62 3d e0 a3 c7 bc
       -0.008982456 -0.050690852 0.055418015 -0.024370134
000060 63 fc 28 3c df f6 52 3d ca 21 ac ba 71 f2 cf bb
       0.01031408 0.051504966 -0.0013132629 -0.00634604
000070 70 bf 47 bd 29 a3 d0 3c 0a 6f 57 bd 2e 36 8c bc
       -0.048766553 0.025468426 -0.05259613 -0.017115679

block_2.0.weight f4 [32, 32, 3, 3]
000000 08 a2 5c bd e0 12 81 bd 98 c0 91 3c 74 2b a6 bd
       -0.053865463 -0.06302428 0.017792031 -0.08113757
000010 77 e4 26 3d f6 38 ac 3d 66 3d 78 3d 6d a0 80 3d
       0.040745225 0.08409302 0.06060543 0.06280599
000020 2b 9f 3d bd 03 cc 38 bc 75 a0 05 3e eb b2 f5 3c
       -0.046294373 -0.011279109 0.13049491 0.029992541
000030 40 2b 10 3e 22 e0 ea 3d 9d d6 1e be 7a 74 1d bd
       0.14078999 0.11468531 -0.15511556 -0.03844116
000040 ef dd 23 be 60 3d db bc 90 ee c2 bc 03 a0 5c 3c
       -0.1600263 -0.026762664 -0.023795396 0.013465884
000050 c0 a7 cf 3d 65 ea 16 3e 64 4d 11 3e 21 0f 90 bc
       0.10139418 0.14737852 0.14189678 -0.017585339
000060 08 a9 46 3d c3 f8 16 be 24 4c 09 be 90 15 66 3d
       0.048501045 -0.14743333 -0.13407952 0.056172907
000070 9f a5 ee 3c 55 27 1e 3c cb 2b a7 bb cb ae e8 3d
       0.029131709 0.009652932 -0.005101656 0.11361464
000080 9f eb 4c 3c 81 a6 95 3d 57 93 56 bd 3e bd 47 be
       0.012507348 0.07307149 -0.052386608 -0.19505784
000090 fd 27 5a 3d d2 c5 c7 bb 87 42 e5 3c 78 dd 0b bb
       0.053260792 -0.00609658 0.027985824 -0.0021341722
0000a0 ea 44 22 3c 10 50 03 bd 0a 1f ce 3c 8a 34 56 bd
       0.009904126 -0.032058775 0.025161285 -0.0522962
0000b0 03 c0 7c bd 0f 18 13 bd d7 82 45 bd f3 c6 a0 3c
       -0.061706554 -0.035911616 -0.04822048 0.019626116
0000c0 0a bd b3 bc 75 56 37 bd 82 26 db 3d 91 d0 6d 3c
       -0.021940727 -0.044760186 0.10700704 0.014515058
0000d0 80 0c c8 bb 45 5a e9 bc 10 97 9a bd 34 9d 05 3c
       -0.0061050057 -0.028485427 -0.07548344 0.008155156
0000e0 b8 a4 e6 bc 58 a1 94 bd e1 ea ef 3c e8 4b b2 3c
       -0.028154716 -0.072573364 0.029286804 0.02176471
0000f0 43 78 c1 bc 17 7c d8 bc e5 80 6f bd 22 63 8d 3b
       -0.023616916 -0.026426358 -0.058472533 0.004314796
000100 2d 66 51 3c 4a 60 47 bd 6c 7b ab 3c a3 84 5e bd
       0.012780708 -0.048675813 0.020932876 -0.05432571
000110 72 93 fd 3b e2 6d 7b bc a1 18 ec bc 7d 94 09 bd
       0.007738524 -0.015346022 -0.028820338 -0.033588875
000120 eb bf 17 3d 7b ac af 3c bd b9 16 3e a2 66 8d 3d
       0.03704826 0.02144455 0.14719291 0.06904341
000130 2e c8 47 3e 0d 00 65 3d 4f 46 b4 3c 7a 6c 7b bd
       0.19509956 0.05590825 0.022006182 -0.06138275
000140 31 ca 50 be 57 17 17 3d cc 79 38 bc a9 79 3c 3d
       -0.2038963 0.036887493 -0.011259507 0.04601446
000150 e5 6c 70 bc 2a 98 d4 bb 15 0f 42 bd e9 9d c0 bb
       -0.0146744 -0.006487866 -0.047377665 -0.0058781994
000160 20 49 93 bc 93 2e 79 3d e9 21 40 3d d7 39 61 3d
       -0.017979205 0.060835432 0.04690734 0.0549868
000170 52 21 fa 3c bd e0 a2 37 fa 93 7d bc f5 6b bd bb
       0.030533466 1.9416557e-05 -0.015477175 -0.0057806917
000180 ef a8 ba bc 0d 0b 24 bd d6 ff 11 39 19 31 ca ba
       -0.022785632 -0.0400496 0.00013923584 -0.0015426009
000190 4b 9a 68 bd 61 0c 17 3d f1 ca 61 bd d8 0f 6c 3d
       -0.05678777 0.03687704 -0.05512518 0.057632297
0001a0 9f d9 8e 3c 18 fd 49 bb db ee a2 bc 41 cc 4f 3b
       0.017437754 -0.0030821022 -0.019889286 0.0031707438
0001b0 18 25 bf bd f8 da 25 3d 9e 5f 0c 3e 48 fd 5b 3c
       -0.09333247 0.040492028 0.1370835 0.013427086
0001c0 7c 9f 75 3e dd 45 97 bb 60 6f 56 3c 3d 4d 01 be
       0.2398662 -0.0046164826 0.013088077 -0.1262712
0001d0 4d 58 8f be 50 fe c0 bc 79 c8 c0 bb 18 5e 67 3d
       -0.27997056 -0.023558766 -0.005883273 0.05648622
0001e0 04 1b cf 3b b9 cf a3 bc 97 f1 0b 3d f1 7d 4c 3d
       0.006320359 -0.01999651 0.034165945 0.049924795
0001f0 d1 98 08 3c 60 91 b6 bd ce 25 d9 bd 60 8c da bc
       0.0083372155 -0.08914447 -0.10602914 -0.026678264
000200 2f 3b df 3d 75 bb 6d 3a 70 b2 13 3e 60 c1 b1 bd
       0.1089996 0.0009068766 0.14423537 -0.086794615
000210 4e ae dd bc 8e 4c 1d bd 35 48 11 be a2 de 2c 3d
       -0.027060654 -0.038403086 -0.14187701 0.042204507
000220 3f 56 7b 3c d3 91 cf 3c 57 2a 3a 3d a6 6e f6 bc
       0.015340387 0.02533809 0.045450535 -0.030082058
000230 8e 7f 23 bc 50 e9 80 bc 96 dc 52 bd d1 b3 8c bd
       -0.009979142 -0.015736252 -0.0514799 -0.06870235
000240 73 bd 6e bd 30 c4 24 3d c2 3e 0c 3d 0d e5 76 3d
       -0.05828614 0.04022616 0.034239538 0.060277034
000250 cc b1 13 3c 9b af 20 be 20 30 d1 bc 48 18 dd bd
       0.009014558 -0.15691988 -0.025535643 -0.10795647
000260 46 db 86 bd 39 e4 96 3c 4d 78 97 3c 1a 95 b2 bd
       -0.06584792 0.018419372 0.018489981 -0.08719845
000270 a9 ac 23 3c dd f9 8a 3c e4 9a 43 bd 8a 83 bf 3a
       0.009989896 0.016964847 -0.047755137 0.0014611345
000280 e5 55 40 3d 28 9a 20 3d fc 5f 27 3d 95 00 48 3d
       0.046956915 0.039209515 0.040863022 0.04882868
000290 3b 1a 8d 3c d4 ee 4d bd fd 6a 35 3d a3 bc 24 3b
       0.017224422 -0.050276592 0.044291485 0.002513685
0002a0 54 a1 0a 3d 72 87 4a bd c8 67 f7 bb 91 dd 97 bd
       0.03384526 -0.049445577 -0.0075502135 -0.07415307
0002b0 76 9c fc bb 53 4f e7 3d e5 53 09 3e 63 b1 ae 3d
       -0.0077090813 0.11294427 0.1341091 0.085299276
0002c0 0b 37 e4 bb af 13 9b 3d ca b2 dc bd 68 32 ff bd
       -0.0069645694 0.07572114 -0.10776289 -0.12460786
0002d0 f3 12 cb bd 95 eb fc bc 98 4c e5 3d b1 5c e5 bc
       -0.09915724 -0.030874053 0.1119625 -0.0279983
0002e0 5b eb 6a 3e 4b 2b b1 3d 8b 8c 62 3d d0 ee 1d bd
       0.22941343 0.086508356 0.055309813 -0.038557827
0002f0 19 4b 96 be 81 77 09 3d 92 a4 14 3b 47 6e 02 bd
       -0.2935417 0.033561233 0.00226811 -0.03184345
000300 c7 84 4b bc 12 96 32 bd 81 99 53 bc 65 0e 56 3d
       -0.012421793 -0.04360015 -0.012915016 0.05225982
000310 ad dc 96 bc 50 ef 80 bc 42 5d 42 bd 75 49 09 3d
       -0.018415773 -0.015739113 -0.04745222 0.03351732
000320 5c d4 01 3d f7 da 91 bc d3 9c 0c 3e 2f 69 15 3e
       0.031696662 -0.017804606 0.13731699 0.14590906
000330 89 9b 11 bd e1 50 0c 3e 25 c4 3c bc 4d 2f 0f 3c
       -0.03554872 0.13702728 -0.011521374 0.008739305
000340 c7 8b de 3c 81 27 60 bc d5 6a ab bb 28 6e 93 3c
       0.02716626 -0.013681293 -0.005231241 0.017996863
000350 02 92 69 3d 6d c9 be 3b fb 47 9c bc 4f 91 d1 3c
       0.05702401 0.0058223517 -0.019077292 0.025581984
000360 91 26 95 3c 16 e5 38 3c 96 5d 3d 3d 48 f8 2b bd
       0.018206866 0.011285087 0.04623183 -0.041984826
000370 37 ea 72 bd db c0 dc 3b b5 9c 1f 3c 73 5a 8c bd
       -0.059305396 0.0067368574 0.009741952 -0.06853189
000380 a3 d1 5f bd ce 64 b0 ba 45 93 8b bb ea 97 cc bc
       -0.054643285 -0.0013457777 -0.0042594993 -0.024974782
000390 4a 8f 69 3d 04 57 31 3d d4 b3 8a 3c ed 9b 33 bd
       0.057021417 0.043295875 0.016931452 -0.043849874
0003a0 14 f3 76 3c 52 e2 58 bd b5 23 e8 bc cd 8f 83 bd
       0.015072603 -0.05295021 -0.028337339 -0.06423912
0003b0 31 7e 04 3d ae b5 aa 3c b3 7c f0 3c 73 21 e2 3c
       0.032346908 0.020838585 0.029356336 0.02760384
0003c0 02 83 1e bd 77 5e 69 3b 4c c2 0d bd 06 e8 af bb
       -0.038699158 0.0035609284 -0.034609124 -0.0053682355
0003d0 70 9b 1e bd 8d 4e 5a 3d 68 8f 97 3c ea 7c d6 3d
       -0.038722456 0.053297568 0.018500999 0.10473044
0003e0 be 24 d2 3d 4f b8 25 bc 4e c7 bf ba 8a 2b 13 be
       0.10260914 -0.010114743 -0.0014631541 -0.14372078
0003f0 06 16 75 3b 15 93 2c bd 15 4b b2 3c 3d a1 ed bc
       0.003739716 -0.042132456 0.021764318 -0.029007548

block_2.0.bias f4 [32]
000000 e4 54 87 3d 39 ff 48 3d 28 85 4e bd e8 24 33 bc
       0.066079885 0.049071524 -0.050419956 -0.010934092
000010 13 d6 05 bd 4b 38 48 38 86 58 1b bc c3 4c f6 bb
       -0.03267486 4.7736143e-05 -0.009481555 -0.007516475
000020 ee 6f 3d bc db ce 13 3d aa 12 52 bd 9f 1a 09 3d
       -0.011562331 0.036085945 -0.05128733 0.033472653
000030 25 7e 26 bd 1a d1 a3 3c e6 d8 7a 3c d4 6f 40 bb
       -0.040647645 0.019997168 0.015310502 -0.002936353
000040 4c 34 49 3d 48 d9 a3 bd b5 2a 18 bd b1 5e 29 3d
       0.04912214 -0.080004275 -0.037150104 0.04135007
000050 24 d9 6a 3d cd cb 63 bd f7 58 67 3d d5 26 9f 3d
       0.057335988 -0.05561428 0.056481328 0.077710785
000060 46 b3 27 3c 7e 7e 8f 3d d3 1f 7d 3d 39 51 0c bd
       0.010235613 0.07006548 0.061797928 -0.034257147
000070 4e 51 ea bd 85 b0 53 bd 68 1e 46 bc 5b 57 3d bd
       -0.11441289 -0.051682014 -0.01209221 -0.046225887

block_2.2.weight f4 [32, 32, 3, 3]
000000 d3 ba b2 bc 88 56 e6 3c 19 1b 7d bd 60 e3 ec 3d
       -0.0218176 0.028117433 -0.06179342 0.11566806
000010 42 64 aa bd 48 82 b1 bd a2 db b3 3b 9a b0 86 bd
       -0.08319904 -0.08667427 0.0054888288 -0.06576653
000020 83 fe 3e 3e b9 3e 3c 3c 41 b7 85 bc 86 6b 87 bd
       0.18651776 0.011489564 -0.016322734 -0.06612305
000030 20 d0 b6 bd 82 5e 20 be 25 ee 38 be 1e 4c 17 3d
       -0.089264154 -0.15661052 -0.18059595 0.036937825
000040 da a0 a0 3d 96 6e 18 3e 07 69 5c 3d 0e 35 07 3a
       0.0784318 0.14885935 0.0538111 0.0005157747
000050 5e 99 4d 3d a7 56 b9 ba 02 3f ea 3c bb 4d 68 bc
       0.05019509 -0.0014140204 0.028594498 -0.014178689
000060 2a 24 62 bc cc fa 6f bd 5b 5d 4f bb 00 3a 21 3d
       -0.0138025675 -0.058588788 -0.0031641338 0.039361954
000070 80 15 f9 3c b9 24 c8 3c 13 9c 97 bc 70 81 f7 3b
       0.03040576 0.024431573 -0.01850704 0.007553272
000080 a8 fc 2d bd 7d 27 6b 3c 54 83 01 bd 64 55 14 bc
       -0.04247728 0.014352676 -0.031619385 -0.009053562
000090 2d 1b b2 bb fb e7 da bc 89 d0 c8 3d 65 27 2c 3e
       -0.0054353685 -0.026721945 0.098054 0.16811903
0000a0 d4 ee e9 3c 00 e5 89 bd 5b b5 99 bc 8d 41 77 bd
       0.028556265 -0.067331314 -0.018763235 -0.06036525
0000b0 36 9f 80 bd 36 87 a7 3c 93 1c 16 3d f7 04 db 3c
       -0.06280367 0.020450216 0.036648344 0.026735766
0000c0 08 8d d8 bb 8f db 1f 3c bf 76 70 bd c3 9a 88 3c
       -0.006608609 0.009756937 -0.058706995 0.016675359
0000d0 18 eb a2 bc 9b 69 53 bd 89 03 82 bc 58 e6 3b 3d
       -0.019887492 -0.051614385 -0.015870826 0.04587397
0000e0 29 1f 6d 39 67 cb a7 3c 8d 32 ef bc 0e 4e 4e bd
       0.0002261369 0.020482732 -0.02919891 -0.050367408
0000f0 a6 51 dc 3c 69 63 c9 bc ee 1e ce 3c 9b 1a 96 bd
       0.026894402 -0.024583535 0.025161233 -0.07329293
000100 79 e9 e4 3c 5a cf 98 bd ac a5 cb bc 8a da fa 3c
       0.02794336 -0.07461424 -0.024859272 0.030621786
000110 7c e7 95 bc 00 09 12 bd f8 b5 7c bd 37 35 2d 3d
       -0.018298857 -0.035653114 -0.061696976 0.042287078
000120 c1 04 a8 bd d5 61 d2 bd 55 c7 4b be 10 00 86 3d
       -0.08204032 -0.10272566 -0.19900258 0.06542981
000130 16 67 9c 3c f8 19 bd bc dd e8 61 3d 43 f8 fa bc
       0.019092124 -0.023083672 0.055153716 -0.030635959
000140 ad b3 70 3c 58 67 2b bd 36 6d 3c be e2 da b1 be
       0.014691276 -0.041846603 -0.18401036 -0.34737307
000150 0b c9 40 bd dc 73 c0 bd ed 18 5b bb 6f 87 c7 bd
       -0.04706673 -0.093970984 -0.0033431605 -0.09742629
000160 86 67 68 3d 14 c0 27 3d 93 7b 25 3b 89 6e 14 bd
       0.056739353 0.040954664 0.0025250658 -0.036238227
000170 e8 12 3a 3c 0e b9 58 bd c9 21 79 bb b7 4f 49 3d
       0.011357047 -0.052910857 -0.0038014522 0.049148288
000180 ad 11 d5 3c f9 54 3c bd b8 d5 fc bc 69 d8 04 3d
       0.026009405 -0.045979474 -0.030863628 0.032432947
000190 b6 53 69 3b 2f 20 46 bd 04 98 fb bb cf 32 1c be
       0.0035602874 -0.048370536 -0.007678034 -0.15253757
0001a0 35 65 d3 bd 2d a5 11 3e 7a e0 35 3d 13 fe 31 3d
       -0.10322038 0.14223166 0.04440353 0.043455195
0001b0 9e 30 17 3d 91 17 90 3c 35 ab 79 3d 37 2f 66 3c
       0.0369116 0.017589362 0.06095429 0.014049343
0001c0 fc 1b 08 3d a4 8f a2 bb 9f a2 b8 bc 98 2b 49 3d
       0.033229813 -0.004960971 -0.022538481 0.04911384
0001d0 37 e7 ff bb ae fb 31 3d eb b2 af bb ad f7 8f bd
       -0.0078095454 0.04345291 -0.005361905 -0.07029662
0001e0 1b e9 ec bc 43 51 df bd 1f 2f b4 bd 07 ef 57 3e
       -0.028919747 -0.10904171 -0.0879805 0.21087275
0001f0 53 06 fa 3d a1 d7 58 bd f1 c2 67 bc 67 43 c7 bc
       0.122082375 -0.052940015 -0.014145599 -0.024324132
000200 a9 0b 70 3d 6d 00 3c 3d ef e0 a5 bc 7e 6d a2 3c
       0.05860487 0.045898844 -0.020248858 0.0198276
000210 2a 67 a4 3c 24 3b 4d bd 70 f8 59 bd 93 a2 d7 bd
       0.020068724 -0.05010523 -0.053215444 -0.105290554
000220 9d d7 fd bd 04 0b cc 3c ef 53 33 bd e5 97 45 be
       -0.123946406 0.024907596 -0.043781217 -0.19296224
000230 2d 3b e0 bd 47 48 8b 3d 7b e5 51 3d 99 95 40 3e
       -0.10948787 0.06800895 0.05124424 0.18807067
000240 bb 03 45 bd 9d d8 c8 bd 36 ac e5 bd 41 5f a2 be
       -0.04809926 -0.09806941 -0.11214487 -0.31713298
000250 7c 8f c0 be 80 87 48 be b7 bb 09 3e 66 85 9c 3e
       -0.3760947 -0.19582939 0.13450514 0.30570525
000260 81 b1 10 3e 6f 99 c5 bd 91 77 b4 3c ee 76 a4 bd
       0.14130212 -0.09648406 0.02202967 -0.080304965
000270 8b ce 5c be 0a b6 12 be 38 25 3f be 0a ef ec bd
       -0.21563165 -0.14327255 -0.18666542 -0.115690306
000280 6c 50 c5 3d ed eb f1 3d 42 c6 0f bd b8 bc 8c bd
       0.0963448 0.118125774 -0.035101183 -0.06871933
000290 3b 06 83 3c 62 5a 05 bb 5f 35 b5 3c f8 77 dc bc
       0.015994182 -0.0020348062 0.022120176 -0.026912674
0002a0 8e cd 58 bd 2c 3a 2d 3d a6 c4 83 3d d6 7b 12 be
       -0.052930407 0.042291805 0.06433992 -0.14305052
0002b0 2d 77 59 ba d1 22 bd bd ae 09 0d 3e 98 16 0e be
       -0.00082956516 -0.09235156 0.13773224 -0.13875806
0002c0 04 00 73 be 39 34 a2 bd da 8a 06 be 53 37 03 bd
       -0.23730475 -0.07920117 -0.13138905 -0.032035183
0002d0 2a 84 42 3e bd 58 6a 3e 78 d2 e4 bc 7c f8 90 be
       0.18995729 0.22885413 -0.02793239 -0.2831458
0002e0 f4 e6 fc be 7c e5 a1 be db a3 7e 3d b8 99 ba 3e
       -0.49394953 -0.31620395 0.062167984 0.36445403
0002f0 85 ce a3 3e 95 2f 17 bd a7 bc ab bc 37 72 2e bd
       0.319935 -0.036910612 -0.02096398 -0.042589393
000300 67 04 61 3b b4 1d 45 bd 06 91 06 3d 1e 2e 4b 3d
       0.00343349 -0.04812403 0.03285315 0.049604528
000310 31 e6 95 3a d5 95 4b bd 72 27 01 bd bd 37 51 bb
       0.00114364 -0.049703438 -0.03153176 -0.0031924092
000320 14 c9 06 bc b6 33 f9 3c 98 cf 6d bd fb 79 de bc
       -0.008226652 0.030420166 -0.058059305 -0.027157774
000330 49 ad 5a 3d 5d 82 26 3b 1a e2 61 3c c5 34 31 be
       0.053387914 0.0025407292 0.013786817 -0.17305286
000340 4e 32 31 be 13 a6 1c be 04 17 81 be 50 3d 4a be
       -0.17304346 -0.15297727 -0.25212872 -0.19749951
000350 a8 04 11 3d f5 73 02 3e f1 18 8a 3e 66 7f aa 3d
       0.03540483 0.12739547 0.26972154 0.083250806
000360 e4 98 b9 3c 1a 3a 36 bd 7a f9 62 bd 06 e4 44 bd
       0.022655912 -0.044489004 -0.0554137 -0.048069023
000370 bb 41 cc 3c 09 9a 51 bd b1 a6 c5 3b a1 d8 cd bc
       0.024933686 -0.05117229 0.006031834 -0.02512771
000380 db 44 45 3c 78 a3 e7 bd 35 44 5d be 68 bb c8 be
       0.012040342 -0.11310476 -0.2160805 -0.3920548
000390 a2 ed e5 bc 9b 40 03 be db 16 57 bc 1c 44 b7 3e
       -0.028067414 -0.12817614 -0.013128008 0.3579415
0003a0 c9 b3 2b 3d 41 5a 49 bc 84 15 05 bd 23 5d bd 3d
       0.041919503 -0.012289585 -0.032491222 0.0924628
0003b0 8d 8f 4a 3d eb 46 d9 3d f7 86 d9 bd 89 2c ea bd
       0.049453307 0.1060923 -0.106214456 -0.11434276
0003c0 72 53 20 3d e5 ad 81 bd 55 63 57 3d bf ce ca bc
       0.03914208 -0.06331996 0.052584965 -0.024756787
0003d0 a1 b1 00 3c 0c 21 3b bd 52 5c d2 bc bb fb 9a bd
       0.00785485 -0.045685813 -0.025678787 -0.07567545
0003e0 40 a4 b6 bd 0a 86 92 bd e1 ef ae bd 9e 44 64 bd
       -0.08918047 -0.07154472 -0.08541847 -0.0557295
0003f0 57 05 9e 3d 51 e4 9a bd b6 ce a3 3b e6 3b c8 3d
       0.07715862 -0.07563079 0.004999007 0.0977705

block_2.2.bias f4 [32]
000000 98 d2 e9 bd d3 b3 3b bd 5b bd 06 3c e3 ce 60 bd
       -0.11417121 -0.04582579 0.008223857 -0.054884803
000010 b1 d2 ef 3c dc be b1 bd f2 d0 9a 3a 3c 5b df 3d
       0.02927527 -0.08678982 0.0011811538 0.109060735
000020 c9 52 48 bd 00 e3 f9 bc f9 b4 6b 3c 69 6b 37 bd
       -0.048907075 -0.03050375 0.014386409 -0.04478017
000030 ae 71 ab bb cc 10 7b 3d 0c 52 e0 bc 9e 30 86 3a
       -0.0052320575 0.061295316 -0.027382873 0.0010237878
000040 0e ba bb 3d d3 b0 f6 bb b3 1f d0 3c 8d 6d 92 bb
       0.091663465 -0.0075284033 0.02540574 -0.004468626
000050 c6 70 fb bc c4 37 f5 3d 9f 18 9d 3c 63 c8 5f 3d
       -0.030693423 0.11973527 0.01917678 0.054634463
000060 54 2c 99 bc ca e2 d4 bb fb 0c b2 bc ad 04 73 3c
       -0.018697895 -0.006496762 -0.021734705 0.014832658
000070 a6 bc 19 bd 8c 0d 32 bc 43 57 3e 3c e9 9f b3 3d
       -0.037533425 -0.010867488 0.0116174845 0.08770735

classifier.1.weight f4 [10, 512]
000000 3a 83 98 3d aa 22 a4 bd f7 0d 85 3a 9f 0f ec bd
       0.074469045 -0.08014424 0.0010151257 -0.11526417
000010 0a e4 10 be 53 03 01 be 62 9f af bc 74 88 1b bc
       -0.1414949 -0.12598924 -0.021438304 -0.009492982
000020 03 ba 09 bf c2 be 05 bd f1 12 5b bd b1 b7 6c 3d
       -0.53799456 -0.032652624 -0.05348486 0.05779237
000030 4d 57 60 be d2 0b 33 be af 64 97 3c 7d 56 3d bc
       -0.21908303 -0.17484978 0.018480627 -0.011556265
000040 fc 46 ad 39 96 6c 36 bd c0 58 8d 3c b2 65 b8 3b
       0.0003305002 -0.04453715 0.017254233 0.0056273574
000050 69 20 0c be 75 17 c7 3c b4 63 a4 3d 29 fe 17 3d
       -0.13684238 0.024303177 0.08026829 0.03710762
000060 8c 63 f9 bc 09 73 37 bd 3c 53 9a 3d 5f 24 8a bc
       -0.030442975 -0.04478744 0.07535407 -0.016863046
000070 80 1b 85 bc a4 06 12 3d 89 3c 16 3d 88 63 05 3b
       -0.016248465 0.035650864 0.036678825 0.0020353515
000080 4e 36 97 bc 81 b8 75 3c 8b bf f6 bd 53 bc ed bc
       -0.018458512 0.014997602 -0.12048253 -0.029020464
000090 fb d4 81 3d 41 a5 06 3d 42 ed 83 3d 03 d7 a0 bd
       0.06339451 0.032872442 0.06441738 -0.0785351
0000a0 5b 63 fe 3d 9e 68 d7 3b a8 4f d3 bd 83 f2 67 bd
       0.12421294 0.0065737506 -0.103179276 -0.05662776
0000b0 cc 46 bf 3d 5c 90 f8 bc cc f9 ce bd b8 77 b2 bc
       0.09339675 -0.030342273 -0.10106239 -0.021785602
0000c0 da 8c e4 bb 9d 15 31 be 79 60 4f bd f2 78 84 3d
       -0.0069747986 -0.17293401 -0.050629113 0.06468381
0000d0 e0 0b fd 3c a6 fb 57 bd 64 1e 46 3d 4e 5d ab 3d
       0.030889452 -0.052730225 0.048368827 0.08367406
0000e0 b8 87 90 3c 83 e2 21 bd 19 f3 bb 3c 66 8d bb 3b
       0.01764284 -0.03952266 0.022943066 0.005723643
0000f0 d8 d3 c3 3d 76 97 49 bd 20 c5 8b bd ec d3 1c bd
       0.0956189 -0.04921671 -0.06824708 -0.038288042
000100 22 02 de 3d 4f 63 1e 3d d4 b6 7d ba 58 50 e7 3d
       0.108402506 0.038668927 -0.00096784276 0.11294621
000110 af 4a 5c bd cd 84 ab bd ac 63 70 bd 0e 02 56 3d
       -0.05378216 -0.08374939 -0.058688805 0.052248053
000120 3a 9a 0e bd 24 42 53 bd fe f5 2f bc cd ba 97 3d
       -0.03481505 -0.05157675 -0.010739801 0.07408676
000130 83 17 68 bc fe 2b ce bd 16 2a a0 bd 0a 0c 2b 3d
       -0.014165762 -0.100669846 -0.07820527 0.04175953
000140 8d 17 74 3c a4 09 29 3c 1c f2 0b 3d 16 da 9f 3c
       0.014898193 0.01031724 0.03416644 0.019513171
000150 63 e1 77 3d b3 91 3b 3c 6d e7 26 bd 48 c0 be 3c
       0.06051768 0.011448312 -0.04074805 0.023285046
000160 1d 85 26 3c d2 59 45 bd f2 d0 c6 bc a7 70 a4 bb
       0.010163573 -0.048181362 -0.024269555 -0.005018312
000170 80 a5 4c 3c 46 16 be 3c ef 1a 39 3c b6 8c 96 3d
       0.01249063 0.02320398 0.011297925 0.07351057
000180 5f 40 03 3e 9c a4 7c bd 08 93 b2 bd d0 b8 b3 bd
       0.12817524 -0.06168042 -0.0871945 -0.087754846
000190 ef 7d 91 3d e1 a5 23 be ed 11 9d be e4 15 9f bc
       0.07104098 -0.15981247 -0.3067774 -0.019419618
0001a0 ed 96 ab bd cb bb 43 bd 49 26 ec 3d f6 75 a4 bc
       -0.08378396 -0.047786515 0.1153074 -0.02007578
0001b0 9e f9 98 3d 26 91 d4 3d c0 27 2c 3e 1d ee 15 3d
       0.07469486 0.10379247 0.16812038 0.036604036
0001c0 ea 8f a4 3b 51 86 02 bd 41 01 b2 3d 24 5c 0d 3d
       0.0050220387 -0.031866375 0.086916454 0.0345117
0001d0 4e d6 86 be d8 64 ad 3d b4 d7 1b 3e 08 53 03 3d
       -0.26335377 0.084665 0.15219003 0.032061607
0001e0 54 da 84 be 1d b6 24 3b 3a e0 8e 3d 26 50 97 3d
       -0.2594782 0.0025132962 0.069763616 0.07388334
0001f0 d4 df 44 be 4a 70 c0 bd 03 e7 e3 bc 73 43 03 bd
       -0.19226009 -0.093964174 -0.027820116 -0.032046746
000200 1e 57 fb 3d 1f a0 86 3d ca c3 0b 3e fc 08 3e 3d
       0.12272476 0.065735094 0.13648906 0.046395287
000210 fc 4c 19 bd 6a b0 88 bb 34 97 9c 3d 78 46 d2 bd
       -0.037426934 -0.004171421 0.07646027 -0.10267347
000220 76 8f 04 be 4b 42 cb 3d 9a aa 2a bd 3f cb 3c be
       -0.12945351 0.09924754 -0.041666605 -0.18436907
000230 97 18 9b 3d a3 94 2a 3e 11 c4 5b 3d c8 dc a2 bc
       0.075730495 0.16658263 0.05365378 -0.019880667
000240 9a d8 04 3c 7a 64 4a 3e 92 89 87 3d fc 25 67 3e
       0.008108282 0.19764891 0.06618036 0.22573084
000250 b0 11 32 bd 4d 7a d4 bc 3e 9e 2e 3d bb ae 7a bd
       -0.0434739 -0.025937224 0.04263138 -0.061201792
000260 1b b7 08 3c e9 d0 59 bc fd 82 ea bd af cc 1d be
       0.008344437 -0.013294437 -0.11450765 -0.15410112
000270 44 22 4f 3c cc 14 78 3d 65 c1 a8 3b 62 6c 33 be
       0.012642447 0.06056671 0.0051500075 -0.17521814
000280 c1 cc 0b 3c a2 6c 6e bd 43 cc f0 bd 2b 8f 94 bc
       0.008532704 -0.05820907 -0.1175771 -0.018134674
000290 e1 92 2f be 16 37 ef bd 52 a5 3a be 8b 23 bd bc
       -0.17145874 -0.11680429 -0.18227127 -0.023088237
0002a0 8d dd f8 3d 66 0d d8 bc 51 52 a7 bc 52 d2 9e 3d
       0.121516325 -0.026373576 -0.020424994 0.07754959
0002b0 77 1b 0f 3e db 03 3b 3e 94 81 6c 3e 37 c1 74 3d
       0.13975321 0.1826319 0.23096305 0.059754577
0002c0 26 f9 86 3c 9e 26 94 bd 72 c4 9b 3b f9 d1 d1 3c
       0.016476225 -0.07233928 0.0047536427 0.025612818
0002d0 bd be 6a 3c 2d c5 ed bb 88 66 e2 bb e4 38 ae 3d
       0.014327702 -0.007256171 -0.0069091953 0.08506945
0002e0 6b 56 88 3d 30 39 97 bd 73 95 a2 3d 9a 16 84 3d
       0.06657108 -0.073839545 0.079386614 0.064496234
0002f0 62 d8 93 3d b3 f3 9f bd 05 bd 55 bd 4c b3 68 bc
       0.07219006 -0.07810154 -0.052182216 -0.014202904
000300 5d 4f 46 bd 9d 78 c1 bc 9b 9c e5 3c 8a 4e b8 3c
       -0.04841553 -0.023617083 0.028028777 0.022498388
000310 d1 8b 23 3c 82 75 75 3d c0 87 22 ba 3c a7 03 3d
       0.009982065 0.059926517 -0.0006200038 0.03214191
000320 2d a0 e0 3c fb 62 89 3c 41 ab fb bd 11 7b f8 3c
       0.027420128 0.01677083 -0.122885235 0.03033212
000330 4b 7d 8f 3d 75 c9 6e bc 24 24 97 3c a5 06 04 3d
       0.070063196 -0.014574398 0.01844985 0.0322329
000340 19 8f 35 3e d8 b2 b4 3b 2f e6 42 be f4 c0 1f be
       0.17730369 0.005514484 -0.1903312 -0.1560095
000350 d0 ae 99 3d b1 93 15 be 47 77 88 3c fe a3 7f bc
       0.07504046 -0.14607121 0.016658438 -0.015603064
000360 37 bd e4 bc 40 e6 85 3b 8d 2e 6c 3e 50 08 18 3d
       -0.027922256 0.004086286 0.23064633 0.037117302
000370 68 50 4e be 48 7a 1a bd f9 3e 11 3d 4b 9d 41 3d
       -0.2014786 -0.037714273 0.035460446 0.047269147
000380 20 71 38 bd 29 e0 92 bd 94 17 15 3c 77 38 0c 3e
       -0.04502976 -0.071716614 0.00909986 0.13693415
000390 cd 16 10 bd d9 68 02 3d 67 9c a8 bd 8a c6 c8 3b
       -0.035177995 0.03183827 -0.082329564 0.0061271833
0003a0 20 51 01 bb 94 e9 9d 3d 26 87 1f be 86 d0 89 bd
       -0.0019732192 0.07710567 -0.15578899 -0.06729226
0003b0 26 a8 6e 3e 12 22 d4 3e a9 cc 6d bc fc a4 21 be
       0.23306331 0.41432244 -0.014514127 -0.15785593
0003c0 03 8a b8 3c 2c 86 70 bd e2 9b 3c 3d 81 0b 2a 3d
       0.022526747 -0.058721706 0.0460471 0.041514877
0003d0 0f 52 82 bd 00 31 01 bd d7 57 bc 3d 4c c3 27 3d
       -0.06363308 -0.03154087 0.091964416 0.040957734
0003e0 4c 75 f8 bc 25 67 1d bd a1 c8 05 3d c4 cd fe 3c
       -0.030329369 -0.038428444 0.032662038 0.031103976
0003f0 9e 3d d8 3d a2 45 01 3d ae 6a ef bd a1 c1 be bc
       0.105586275 0.031560548 -0.116902694 -0.023285689

classifier.1.bias f4 [10]
000000 f5 ca b7 3c a6 d4 32 3e aa a5 90 bd 1c e4 b8 bd
       0.022435645 0.17463931 -0.07062848 -0.090278834
000010 be a5 9b bc 9c a3 5a bb 3e 74 f2 bd f2 6a aa bc
       -0.01899993 -0.003336168 -0.11838578 -0.020802949
000020 8f e9 26 3e 42 3a 23 bd
       0.16300033 -0.03985048
