PyTorch Course/Chapter 5/models/05_going_modular_script_mode_tinyvgg_model.pth (torch, 48117 bytes, 10 tensors)

conv_block1.0.weight f4 [10, 3, 3, 3]
0	0xbe0d4b55	-0.13798268
1	0x3e2d43f6	0.16920456
2	0x3db33e65	0.08752135
3	0xbe01812d	-0.12646933
4	0xbdebb222	-0.115085855
5	0xbd4830e5	-0.048874754
6	0x3d751d54	0.059842423
7	0x3d8b6d62	0.068079725
8	0x3ca83cee	0.020536866
9	0x3df5c1f9	0.11999888
10	0x3e3df229	0.18549408
11	0x3d0f5b09	0.034998927
12	0x3d8ce33b	0.06879278
13	0x3dd52c96	0.10408895
14	0x3d0c7e1d	0.03429996
15	0x3bd23310	0.0064147785
16	0x3e2c106f	0.16803144
17	0x3e03e883	0.12881665
18	0x3df7943e	0.12088822
19	0xbda228f9	-0.07917971
20	0xbdc268c3	-0.09492638
21	0xbddfca42	-0.109272495
22	0xbe28bbe9	-0.16477932
23	0xbcb03f95	-0.021514693
24	0x3dd5bdfb	0.104366265
25	0x3cc903dc	0.024537973
26	0xbd901183	-0.0703459
27	0xbcaef262	-0.021355812
28	0xbe121321	-0.1426511
29	0xbdf08221	-0.1174357
30	0x3c861bcb	0.016370675
31	0xbde64e47	-0.11245399
32	0x3cc66f23	0.024222916
33	0x3e242056	0.1602796
34	0x3d52853f	0.051396605
35	0x3e1a53d8	0.15071046
36	0xbde59b2b	-0.112112366
37	0x3c89ece4	0.016836591
38	0xbe35c8f7	-0.17752443
39	0x3a4d11dc	0.00078227906
40	0xbe10e92e	-0.14151451
41	0x3e3a0bfe	0.18168637
42	0xbe25b3d9	-0.16181888
43	0x3d8fa020	0.07012963
44	0xbde1905a	-0.11013861
45	0x3d64dfbf	0.055877443
46	0x3b9b8a19	0.004746687
47	0xbc8e40b3	-0.017364835
48	0xbd937764	-0.07200506
49	0x3e028ccb	0.12749021
50	0xbd016168	-0.031587034
51	0x3ca5a25c	0.02021902
52	0xbd59b416	-0.05315026
53	0xbe0acffd	-0.13555904
54	0xbd9d7f48	-0.076902926
55	0x3e330246	0.17481336
56	0x3e3dd0ba	0.18536654
57	0xbdaf64c8	-0.085641444
58	0x3cb584a6	0.022157978
59	0x3d0b4da5	0.034009594
60	0x3e32987a	0.17440978
61	0x3cffbc1e	0.031217631
62	0x3c5381ec	0.012909394
63	0xbd5c0b79	-0.05372188
64	0x3d2ac99b	0.041696172
65	0xbe433f50	-0.1906712
66	0xbe429439	-0.19001855
67	0xbcac42ba	-0.021027911
68	0xbe07a6af	-0.13247178
69	0xbe05e8bb	-0.13077061
70	0xbcf6b51d	-0.030115658
71	0x3ddee314	0.108831555
72	0x3dc6d87d	0.097092606
73	0xbd8869c9	-0.06660802
74	0xbc5689b3	-0.0130943535
75	0x3e3813e0	0.17976332
76	0x3d2b45bb	0.041814547
77	0x3e0687ab	0.1313769
78	0xbd9f64c2	-0.0778289
79	0xbe2edf62	-0.17077401
80	0xbdb40e73	-0.087918185
81	0x3cdbfe11	0.026854547
82	0xbd13ae5d	-0.036054958
83	0xbdc2184d	-0.09477291
84	0x3e487042	0.19574073
85	0xbe2a5cc3	-0.16636948
86	0x3c816824	0.015796728
87	0x3db310a4	0.08743408
88	0xbd260dd6	-0.04054054
89	0x3dc1e53f	0.09467553
90	0x3c3cfb11	0.011534468
91	0xbdd28b7b	-0.1028051
92	0xbdbeebef	-0.093223445
93	0xbd9a3a45	-0.07530645
94	0xbe344324	-0.17603737
95	0x3e06826b	0.13135688
96	0x3e403115	0.18768723
97	0xbdb1eaa7	-0.086873345
98	0x3cae9b50	0.021314293
99	0x3d9988be	0.074967846
100	0x3d86ae2f	0.06576192
101	0xbdc43ac5	-0.09581522
102	0xbdd88ead	-0.10574088
103	0x3e4bc84c	0.19900626
104	0x3dfc286d	0.12312398
105	0x3e43d13f	0.1912279
106	0x3e169259	0.14704265
107	0xbb2fb4ca	-0.002681064
108	0x3e088205	0.13330849
109	0xbc0a6562	-0.008447023
110	0xbb5dbf85	-0.0033836078
111	0xbda9057a	-0.08252998
112	0x3e1a53d2	0.15071037
113	0xbd261c41	-0.04055429
114	0x3cef1256	0.029183548
115	0xbe1a3f14	-0.15063125
116	0x3d895094	0.06704822
117	0xbdba652e	-0.0910133
118	0xbd2f468d	-0.04279189
119	0xbc8774ea	-0.016535241
120	0x3d9966fa	0.07490344
121	0x3c3d858c	0.011567485
122	0x3d17b790	0.037040293
123	0xbdf78ad0	-0.12087023
124	0xbe0e3ff5	-0.13891585
125	0x3d968a99	0.07350654
126	0xbd9faa80	-0.07796192
127	0xbe269e8d	-0.1627142
128	0xbd9be79c	-0.07612535
129	0xbe39db66	-0.181501
130	0x3d3d370f	0.046195086
131	0x3cb16872	0.021656249
132	0x3e3d4c7e	0.1848621
133	0xbdc3ca32	-0.0956005
134	0xbdbcfb29	-0.092275925
135	0x3d3a0a57	0.045420017
136	0xbd518ecb	-0.05116157
137	0x3e17a82b	0.14810245
138	0x3ce423cb	0.027849099
139	0xbba85d4e	-0.005138076
140	0xbd9ab687	-0.075543456
141	0x3de542cd	0.11194382
142	0xbdc098f0	-0.094041705
143	0x3d96d69e	0.07365154
144	0x3e006c6e	0.12541363
145	0xbe192a2e	-0.14957497
146	0xbe2e6616	-0.1703113
147	0xbddbb814	-0.107284695
148	0x3dbe8f00	0.09304619
149	0xbdd78b81	-0.10524655
150	0x3c885459	0.016641783
151	0x3cdb94aa	0.026804287
152	0x3d1fef85	0.039046783
153	0xbdc83412	-0.097755566
154	0x3c11c031	0.00889592
155	0x3e0b2e06	0.13591775
156	0x3dcdf725	0.10056905
157	0x3d1c3f7b	0.038146477
158	0xbe1a95ad	-0.1509616
159	0x3db83d7d	0.08996103
160	0xbda1903a	-0.07888837
161	0x3e082e7e	0.13298985
162	0x3da8c9e8	0.082416356
163	0xbd0c2365	-0.034213442
164	0x3d991a4a	0.07475717
165	0xbd9aee65	-0.075650014
166	0x3d175ea9	0.03695551
167	0xbbd1b3ba	-0.006399599
168	0x3bf1e374	0.007381851
169	0x3d950187	0.07275682
170	0x3e45eeab	0.19329326
171	0xbda98b37	-0.08278506
172	0x3e40f7a2	0.18844464
173	0xbd158f37	-0.036513533
174	0x3e4029db	0.18765967
175	0x3d3f1ef5	0.046660382
176	0x3c838cad	0.01605829
177	0xbd7729c2	-0.060342558
178	0xbdc70c46	-0.09719138
179	0xbe3eaab1	-0.18619801
180	0xbdce0197	-0.10058897
181	0xbc6bdfdb	-0.014396633
182	0x3e271f92	0.16320637
183	0x3de13d42	0.10998012
184	0x3d1c1b75	0.038112123
185	0xbe3cf8f1	-0.18454339
186	0x3e106118	0.14099538
187	0x3e0d1aae	0.13779709
188	0xbdaafc92	-0.08348955
189	0x3d845925	0.064623155
190	0xbe3265ee	-0.17421696
191	0xbde379d0	-0.11107218
192	0xbd9109b5	-0.070819296
193	0xbe401c8c	-0.1876089
194	0xbccdc372	-0.02511761
195	0x3cd93c72	0.02651808
196	0x3d2ede90	0.04269272
197	0x3e2a8653	0.16652803
198	0x3dcd7cfd	0.10033605
199	0xbe404f3b	-0.18780224
200	0xbd947920	-0.07249665
201	0x3dc5d125	0.09659032
202	0xbe497134	-0.1967209
203	0xbcc8cf36	-0.024512868
204	0x3d781953	0.060571026
205	0xbe1157d5	-0.14193662
206	0x3e1b8c93	0.15190344
207	0xbe0c0d35	-0.13676913
208	0xbe1bda53	-0.15220003
209	0xbe212581	-0.15736963
210	0xbd325d83	-0.04354621
211	0x3d5b4077	0.053528275
212	0x3d3537b8	0.04424259
213	0xbdd99814	-0.1062471
214	0x3e20416e	0.1564996
215	0xbdeba1d5	-0.115054764
216	0x3e1e77a7	0.15475331
217	0x3d8cfc92	0.068841115
218	0xbd6b70a0	-0.057480454
219	0x3e144ae9	0.14481701
220	0x3d8ac086	0.06775002
221	0xbe2369d7	-0.15958343
222	0x3dcd8a01	0.10036088
223	0x3e3da896	0.18521342
224	0xbe0ef962	-0.1396232
225	0xbd15696b	-0.036477488
226	0xbe1b140f	-0.1514437
227	0x3e080806	0.1328431
228	0x3dd5e98f	0.104449384
229	0x3e134fc3	0.14385895
230	0x3d678ecb	0.056532662
231	0xbcf3c507	-0.029757036
232	0xbc877112	-0.016533408
233	0xbe105625	-0.14095362
234	0x3e00ffbd	0.12597556
235	0xbd987ef5	-0.0744609
236	0x3cc067f2	0.023487065
237	0x3c01a764	0.007913444
238	0x3d764b21	0.060130242
239	0xbe1d37cc	-0.15353316
240	0xbcf2d721	-0.029643597
241	0x3db7536d	0.08951459
242	0xbe10d9f7	-0.14145647
243	0xbda1b1fa	-0.078952745
244	0xbdd18388	-0.10230166
245	0xbe220aab	-0.15824382
246	0x3e437566	0.19087753
247	0x3e2ce621	0.16884662
248	0x3dfe4d35	0.1241707
249	0xbe1feda2	-0.15617993
250	0x3a30bb33	0.0006741762
251	0x3d1d8e81	0.03846598
252	0x3db4c789	0.08827121
253	0x3d281e4f	0.04104453
254	0xbdeaeb48	-0.114706576
255	0x3bf65775	0.00751775

conv_block1.0.bias f4 [10]
0	0x3e20d7c7	0.15707313
1	0xbdb6b531	-0.08921278
2	0x3e1c4bb1	0.15263249
3	0xbe0cd95c	-0.13754791
4	0x3e1f15cf	0.15535663
5	0xbd500d1a	-0.050793745
6	0xbe2b3edb	-0.16723196
7	0x3dbd4c6c	0.09243092
8	0xbc7c7bf7	-0.015410415
9	0x3d803d74	0.06261721

conv_block1.2.weight f4 [10, 10, 3, 3]
0	0x3d5ea0f8	0.05435273
1	0x3c8ae402	0.016954426
2	0x3d21dbd9	0.039516304
3	0xbdabb172	-0.083834544
4	0xbdb47d1d	-0.08812926
5	0xbd35d139	-0.044388983
6	0xbd4d8975	-0.050179917
7	0xbdc0dfd7	-0.09417694
8	0x3cb2055e	0.021731075
9	0xbb9c9303	-0.0047782674
10	0xbc9349e7	-0.017979575
11	0x39c8e979	0.00038320923
12	0x3d313fa1	0.043273572
13	0xbd2cca81	-0.04218531
14	0x3ba6794f	0.005080379
15	0x3ba857ec	0.005137434
16	0x3d78dee8	0.060759455
17	0xbaab138c	-0.001305209
18	0x3d269e3a	0.04067824
19	0xbd1b4d1d	-0.037915338
20	0x3dafd236	0.085850164
21	0x3cad149e	0.021127995
22	0x3caf7add	0.02142089
23	0x3d617d14	0.055050924
24	0xbdcda1f5	-0.100406565
25	0x3d55d4a0	0.052204728
26	0x3db9af0b	0.0906659
27	0x3d8879bd	0.06663845
28	0x3d8e58fd	0.06950567
29	0xbdb0401a	-0.086059764
30	0x3dbdf18e	0.092745885
31	0x3cb88f3d	0.022529239
32	0xbdd33301	-0.103124626
33	0x3dbaa1aa	0.09112866
34	0x3d9f5365	0.07779578
35	0xbca693de	-0.02033418
36	0x3ddd82fd	0.10816
37	0x3c0c31f5	0.008556833
38	0x3db02e99	0.08602638
39	0xbdb27d93	-0.08715358
40	0xbdbea71a	-0.09309216
41	0x3d0947f7	0.033515897
42	0x3bf5f9a1	0.0075065647
43	0xbda7a8aa	-0.08186467
44	0xbd53c2e3	-0.05169953
45	0x3d80ed27	0.06295233
46	0x3d8e7803	0.06956484
47	0xbd9d5e1d	-0.07683966
48	0xbd3c3791	-0.04595143
49	0x3b0a7d84	0.0021131942
50	0x3b530940	0.0032201558
51	0xbd9ac049	-0.07556207
52	0x3da0e7d2	0.07856716
53	0xbd91453e	-0.07093285
54	0x3da33477	0.07968991
55	0xbd7d9f57	-0.061919536
56	0xbdd16825	-0.10224942
57	0x3cf61079	0.030037152
58	0xbd45093e	-0.048104517
59	0x3d96363f	0.07334565
60	0xbcfe827b	-0.031068077
61	0x3c41b10f	0.011821999
62	0x3da17afb	0.07884785
63	0xbd8adc1e	-0.06780265
64	0xbd362d6d	-0.044476915
65	0x3d8b2ac2	0.06795265
66	0x3db2419c	0.0870392
67	0x3c596f49	0.013271161
68	0x3d99ae42	0.0750394
69	0x3d849ba6	0.06475
70	0x3d6415c8	0.055684835
71	0xbbdbc6da	-0.0067070546
72	0x3dd96ceb	0.106164776
73	0xbce99770	-0.028514594
74	0x3c638712	0.013887184
75	0xbceb1ce2	-0.028700296
76	0xbb691c29	-0.0035569763
77	0x3d8efcf4	0.06981841
78	0x3dabc239	0.083866544
79	0x3c9b9602	0.018992428
80	0x3d98e273	0.07465067
81	0x3da0db40	0.078543186
82	0x3d616f34	0.055037692
83	0xbcc4ae84	-0.024008997
84	0x3d8327d0	0.06404078
85	0x3dbaf1cb	0.091281496
86	0x3dc36492	0.09540667
87	0x3cf1b33a	0.029504407
88	0x3d9e9e17	0.07744997
89	0xbd895f68	-0.067076504
90	0x3c86506b	0.016395768
91	0xbdc4d227	-0.09610396
92	0x3d4fce7a	0.05073402
93	0x3ae8de41	0.0017766432
94	0xbcbd7a5b	-0.023129633
95	0x3d844f8b	0.06460484
96	0xbc9aebe9	-0.018911319
97	0x3d252137	0.04031488
98	0x3d5cc862	0.053902037
99	0xbd4e5b62	-0.05038012
100	0xbdb7ee33	-0.0898098
101	0x3bf7ac98	0.0075584166
102	0xbd8325f8	-0.06403726
103	0xbd80579e	-0.06266712
104	0x3d4e18f2	0.05031676
105	0x3ccd324c	0.025048397
106	0xbcbfe710	-0.023425609
107	0xbd1cf6ee	-0.038321428
108	0xbd96ebcc	-0.073691934
109	0xbd22a1cd	-0.039705086
110	0x3c0cefa2	0.008602055
111	0xbd6c63e5	-0.057712454
112	0xbdbdf332	-0.092749014
113	0xbdd236cd	-0.10264359
114	0xbdcc4d8b	-0.09975728
115	0xbd3ec3ae	-0.046573333
116	0x3d076a3b	0.033060294
117	0xbd3f9182	-0.046769626
118	0x3d8fab2e	0.07015072
119	0x3d76d757	0.060263958
120	0xbda90038	-0.08251995
121	0x3cdbdd21	0.02683884
122	0xbd34f358	-0.044177383
123	0x3db8272c	0.089918464
124	0x3da8f5ce	0.082500085
125	0x3d52fa14	0.051508024
126	0xbd388ff4	-0.04505916
127	0x3cd2d9c6	0.025738608
128	0xbd69d64e	-0.057089143
129	0x3cc649f4	0.024205185
130	0x3ddfd0ae	0.10928474
131	0xbc6d204d	-0.014473033
132	0xbd7df31e	-0.061999433
133	0xbd49749b	-0.04918347
134	0xbd7607da	-0.06006608
135	0x3d4f82f2	0.05066199
136	0xbd848c9d	-0.06472132
137	0x3d9364ce	0.07196961
138	0x3d6c325f	0.057665225
139	0x3d7964ab	0.06088702
140	0xbb6742c0	-0.0035287589
141	0xbcd7d44e	-0.026346352
142	0x3d0c67d1	0.034278695
143	0xbc93dbc5	-0.01804913
144	0x3d152c60	0.036419272
145	0x3c966f80	0.018363714
146	0x3d03bc2f	0.032161888
147	0xbd4de3b3	-0.05026598
148	0x3d7a146c	0.061054632
149	0xbcc3df3b	-0.023910156
150	0x3d5fefc4	0.054672018
151	0xbc32df06	-0.010917431
152	0xbddcc483	-0.10779669
153	0xbc0104af	-0.007874652
154	0xbcf4058c	-0.029787801
155	0xbd44db94	-0.04806097
156	0x3ba15921	0.004923955
157	0xbcf56ca5	-0.029959032
158	0x3c82cc7e	0.01596665
159	0xbcae0146	-0.021240842
160	0xbd57b1ba	-0.052659728
161	0x3d495fba	0.049163558
162	0xbdbe39c5	-0.092883624
163	0xbdb1948a	-0.0867091
164	0xbcb5e377	-0.02220319
165	0xbc79cd2c	-0.015246671
166	0xbdd2d737	-0.10294955
167	0x3d465d02	0.048428543
168	0x3b4956a8	0.0030721817
169	0x3d2201e5	0.039552588
170	0xbbc6b970	-0.0060645863
171	0xbc95e79e	-0.01829892
172	0xbd10ec0b	-0.035381358
173	0xbc39ccfb	-0.011340375
174	0xbdb936b5	-0.09043638
175	0x3d08ff71	0.033446733
176	0x3caf660e	0.021410968
177	0x3d94ce75	0.07265941
178	0xbdbf70ba	-0.09347673
179	0xbc870759	-0.016482996
180	0xbd1c5150	-0.038163483
181	0x3b9c6355	0.0047725835
182	0x3c90f1e6	0.017693471
183	0xbc4e7de2	-0.012603255
184	0xbbcfb66f	-0.0063388865
185	0xbc745dd9	-0.014914953
186	0x3cf4b9b4	0.029873706
187	0xbd5ab450	-0.053394616
188	0xbbfedae5	-0.007777559
189	0x3d6ef2dd	0.05833708
190	0x3da1d01d	0.079010226
191	0x3c98cf3a	0.0186535
192	0xbbd4a234	-0.0064890627
193	0x3ca12f25	0.0196758
194	0x3d530b43	0.051524412
195	0x3c38efe8	0.011287667
196	0xbd921630	-0.07133138
197	0xbdb241a9	-0.0870393
198	0x3d3d1193	0.04615934
199	0xbd420839	-0.047371123
200	0x3d1f04eb	0.03882305
201	0xbdb6c6ff	-0.08924674
202	0x3d72bbaf	0.05926102
203	0x3d3e646d	0.046482492
204	0xbc875392	-0.016519342
205	0xbd9fedd0	-0.07809031
206	0xbc164359	-0.00917133
207	0x3d7b34f8	0.06132981
208	0x3da56f97	0.08077925
209	0xbbd243e0	-0.0064167827
210	0xbb37875d	-0.0028004267
211	0x3dbb96e8	0.091596425
212	0x3cb68324	0.02227933
213	0x3dd7b067	0.10531693
214	0x3dccb695	0.09995762
215	0xbd84a619	-0.06476993
216	0xbd944f2c	-0.07241663
217	0xbcf1553d	-0.02945959
218	0xbc63b887	-0.013898975
219	0x3db972ab	0.09055074
220	0xbdac3da5	-0.08410195
221	0x3d27425b	0.040834766
222	0x3da64bba	0.081199124
223	0x3be0204b	0.006839787
224	0xbdb8b179	-0.09018225
225	0xbd973ed6	-0.07385032
226	0x3cafc4f5	0.021456221
227	0x3d0952bf	0.03352618
228	0x3cf3366f	0.029689042
229	0x3d8f61ff	0.07001113
230	0x3d90de78	0.070736825
231	0xbdaef3ef	-0.085426204
232	0x3d5fe566	0.05466213
233	0x3d8ff5cd	0.07029305
234	0xbd53fe83	-0.051756393
235	0xbd868585	-0.065684356
236	0xbdbfdbc8	-0.09368092
237	0xbdc88446	-0.09790854
238	0x3d70aedf	0.05876052
239	0x3d0f2f73	0.03495736
240	0xbd74027a	-0.059572674
241	0xbdc97ea4	-0.09838608
242	0xbdcb33a4	-0.09921959
243	0x3dc22bf4	0.0948104
244	0x3d191116	0.03736981
245	0x3ca26853	0.019825136
246	0xb9a591d1	-0.00031579894
247	0x3d5715dd	0.052511085
248	0x3c9e8fb9	0.019355642
249	0x3d50dabb	0.050989848
250	0x3d050d5a	0.032483436
251	0xbd41525f	-0.047197696
252	0xbd39a552	-0.045323677
253	0x3cd7cfc7	0.026344193
254	0x3cdb68f0	0.026783437
255	0x3da7d607	0.08195119

conv_block1.2.bias f4 [10]
0	0x3dc586b8	0.09644836
1	0xbd3d4bec	-0.046214983
2	0xb86ea1f9	-5.689447e-05
3	0xbd7fd7f5	-0.062461812
4	0x3cabe9b5	0.020985464
5	0xbde3e54d	-0.1112772
6	0x3d22694a	0.039651193
7	0xbd7c68c5	-0.061623354
8	0x3da35605	0.07975391
9	0x3dbfb100	0.09359932

conv_block2.0.weight f4 [10, 10, 3, 3]
0	0x3d88a999	0.06672973
1	0xbdca96c4	-0.098920375
2	0x3d4240ea	0.047425188
3	0xbda2124a	-0.079136446
4	0x3bd628a0	0.0065356046
5	0xbd833408	-0.064064085
6	0x3d885679	0.06657118
7	0xbc4843c0	-0.012223184
8	0x3d0b2dd6	0.03397926
9	0x3d083a76	0.033258878
10	0x3d8d5833	0.06901588
11	0x3d88387b	0.06651398
12	0xbb758cc0	-0.0037467927
13	0xbd99a137	-0.075014524
14	0x3d1e82be	0.038698904
15	0xbd21cf7e	-0.03950452
16	0xbc6a97f0	-0.014318451
17	0x3bdb2800	0.006688118
18	0x3dc0f06f	0.09420859
19	0x3da1baa9	0.07896931
20	0xbc7549f0	-0.014971241
21	0xbd4e1c54	-0.050319985
22	0x3dc5a2c1	0.096501835
23	0x3d6985b2	0.057012267
24	0xbdbacdc3	-0.09121277
25	0xbb58e120	-0.003309317
26	0xbd9f575a	-0.07780333
27	0xbcdd0294	-0.026978768
28	0xbdb9be9c	-0.09069559
29	0xbdb411d5	-0.08792464
30	0xbd970de8	-0.07375699
31	0xbcb7b020	-0.02242285
32	0x3d1a0b5a	0.037608482
33	0xbdc1c0d0	-0.09460604
34	0xbd23bee4	-0.03997697
35	0x3cabaf3c	0.020957582
36	0x3ce8685c	0.028370075
37	0xbaf082c0	-0.0018349513
38	0xbda7b2e9	-0.08188421
39	0xbbc74920	-0.006081715
40	0x3d0b5eda	0.034026004
41	0xbdc05de8	-0.09392911
42	0xbd8a6dd0	-0.06759226
43	0x3c9b7a84	0.018979318
44	0x395f3000	0.00021284819
45	0x3da0dd19	0.07854671
46	0x3d02c9b6	0.031930648
47	0x3d67a8aa	0.056557335
48	0xbda39183	-0.079867385
49	0xbcc35cf4	-0.023848034
50	0xbc704158	-0.014664017
51	0xbcd17bd4	-0.025571741
52	0xbc90c7c4	-0.01767338
53	0x3d51393a	0.051079966
54	0xbd833620	-0.06406808
55	0xbd0cd2aa	-0.034380592
56	0xbd24373e	-0.040091746
57	0x3c827700	0.015925884
58	0x3c8771c4	0.01653374
59	0xbc665fb0	-0.0140609
60	0x3d5f96aa	0.054587044
61	0xbda8296c	-0.082110256
62	0x3d9c105d	0.076203085
63	0x3ce763b4	0.028245784
64	0x3d973619	0.07383365
65	0xbdce2ba1	-0.10066915
66	0x3d9d4c93	0.07680621
67	0x3d708ebe	0.05872988
68	0x3d8a6e33	0.067593
69	0x3d642316	0.055697523
70	0xbd4a86ad	-0.049444843
71	0xbcd4d2ac	-0.025979362
72	0x3b410ee0	0.002945833
73	0x3cd0930c	0.025460742
74	0xbdce7fcf	-0.10082971
75	0xbca7be0c	-0.020476364
76	0xbdcc5332	-0.09976806
77	0xbd937a74	-0.072010905
78	0xbd21f3d2	-0.039539166
79	0xbd06a022	-0.03286756
80	0x3cc1c104	0.023651607
81	0x3d98cbdd	0.07460759
82	0xbd0d4080	-0.03448534
83	0xbc9391e4	-0.018013902
84	0x3d15a7c2	0.03653694
85	0x3cd5e91c	0.026112132
86	0x3dd41e95	0.103573956
87	0x3c977c84	0.01849199
88	0x3c297e30	0.010345027
89	0xbda5e5f8	-0.08100504
90	0x3d1afab2	0.037836738
91	0x3d0a70ba	0.03379891
92	0x3d1750a6	0.036942147
93	0xbb722580	-0.0036948621
94	0xbc5dc2b0	-0.013535187
95	0x3cad3dfc	0.02114772
96	0xbbd846c0	-0.006600231
97	0xbcacb9d0	-0.021084696
98	0xbdc2b9cf	-0.095080964
99	0x3d5cfc76	0.053951703
100	0xbd748830	-0.05970019
101	0x3cffcfb4	0.03122697
102	0x3d344db2	0.04401941
103	0x3d4b9c6e	0.04970973
104	0xbc3d0a08	-0.011538036
105	0xbb397d60	-0.002830349
106	0x3d917b53	0.071036
107	0xbd75b5b2	-0.05998773
108	0xbd9789d2	-0.07399334
109	0x3d8c128d	0.06839476
110	0x3dcedb07	0.1010037
111	0x3da34005	0.07971195
112	0x3d8579a1	0.065173395
113	0xbd6558e4	-0.055992976
114	0x3d821e6f	0.06353461
115	0xbd5f0be1	-0.054454688
116	0x3d4163ce	0.04721432
117	0x3dc3ec0b	0.09566506
118	0xbd010c1a	-0.03150568
119	0xbd9f5b95	-0.0778114
120	0xbd9959c1	-0.07487822
121	0xbd103302	-0.035204895
122	0x3bffe370	0.007809095
123	0x3dc5a3ad	0.09650359
124	0x3c9da4f8	0.019243702
125	0xbd5ce3f5	-0.053928334
126	0xbc2b03d8	-0.010437928
127	0xbcf44cf4	-0.02982185
128	0x3cd57bcc	0.026060008
129	0x3d2e0c36	0.042492114
130	0xbd7b872e	-0.061408214
131	0x3d0be436	0.034153186
132	0x3d513c5e	0.05108296
133	0xbbd49a10	-0.0064880922
134	0xbd94d782	-0.07267667
135	0x3d89b233	0.06723442
136	0xbdcda2b3	-0.10040798
137	0x3d54036a	0.05176107
138	0x3c884954	0.016636528
139	0xbced8d80	-0.028998137
140	0xbd2471fe	-0.040147774
141	0x3cbee00c	0.023300193
142	0xbd790edc	-0.060805187
143	0xbb93d300	-0.004511237
144	0x3da0f631	0.07859457
145	0xbbd66b50	-0.0065435544
146	0xbd8fe848	-0.07026726
147	0x3da8476d	0.082167484
148	0x3d867adf	0.065664046
149	0x3db21815	0.086959995
150	0xbd051eee	-0.0325002
151	0xbdd3667a	-0.1032228
152	0xbd110844	-0.035408273
153	0x3d92882b	0.07154878
154	0x3cf88e7c	0.03034138
155	0x3daee9c1	0.08540679
156	0x3d490f96	0.04908713
157	0xbdd62edf	-0.10458159
158	0xbdd597eb	-0.10429367
159	0xbc4c1a50	-0.012457445
160	0xbd9284fc	-0.07154271
161	0xbd8c2e1f	-0.068447344
162	0x3c33f3a0	0.010983378
163	0xbca45770	-0.020061225
164	0x3da907c3	0.082534336
165	0xbd6ddb91	-0.058070723
166	0x3d4627f6	0.048377953
167	0xbd57d73b	-0.052695494
168	0xbd5d8668	-0.054083258
169	0x3dbe0569	0.09278376
170	0x3c51ccb8	0.012805156
171	0x3dd77923	0.10521152
172	0xbdb37c7b	-0.08763977
173	0xbd1c2364	-0.03811969
174	0xbdb73ded	-0.08947358
175	0x3dac02eb	0.08398994
176	0x3d51b1ca	0.051194943
177	0x3ba0e2c0	0.004909843
178	0x3dcbeea5	0.09957627
179	0xbd95b888	-0.07310587
180	0xbd8f057d	-0.06983469
181	0x3de3375b	0.110945426
182	0xbc70578d	-0.014669311
183	0x3da1469b	0.07874795
184	0x3d82ec25	0.06392697
185	0x3d2795bd	0.040914286
186	0xbd7bbac4	-0.06145741
187	0xbcdde033	-0.027084446
188	0x3dc95c3a	0.09832044
189	0x3d46550a	0.048420943
190	0xbcd0474f	-0.025424628
191	0x3d1124c3	0.03543545
192	0xbcb9617f	-0.022629498
193	0xbc30ca3f	-0.010790407
194	0x3c9ab00e	0.018882778
195	0x3d9a3fc2	0.07531692
196	0x3dcc0c9c	0.099633425
197	0x3dc493fa	0.09598537
198	0xbc9881c1	-0.018616559
199	0x3ba9d4df	0.005182847
200	0xbdc74f84	-0.09731963
201	0xbc0e1aea	-0.008673409
202	0x3bb2033e	0.0054325154
203	0xbd758733	-0.05994339
204	0x3dbb56a7	0.09147387
205	0xbd218de5	-0.03944196
206	0xbdb8776a	-0.090071514
207	0xbd4e6f59	-0.05039916
208	0xbca4ccad	-0.020117128
209	0xbdb0e427	-0.086372666
210	0x3d8d7798	0.06907576
211	0x3c9d92c3	0.01923502
212	0xbd714f1c	-0.058913335
213	0x3c2e1eed	0.0106274905
214	0xbdae1dd4	-0.08501783
215	0x3d10aabf	0.035319086
216	0xbb19a77f	-0.0023445783
217	0x3b1c20af	0.0023823192
218	0x3c4a8faa	0.012363354
219	0xbd50f161	-0.051011447
220	0x3da0db96	0.07854383
221	0xbd9141b6	-0.070926115
222	0xbaf23f80	-0.0018482059
223	0x3dc41c87	0.09575754
224	0x3cef3274	0.029198863
225	0xbd9b6e9c	-0.075894564
226	0x3dd664d5	0.10468451
227	0xbd7ff7cc	-0.062492177
228	0xbd378c31	-0.04481143
229	0x3d849139	0.064730115
230	0xbd81ccae	-0.06337868
231	0x3b8a25e0	0.004215941
232	0x3d1f4bda	0.038890697
233	0x3d6f28d2	0.05838854
234	0xbd7a9fb8	-0.061187476
235	0x3de3308a	0.110932425
236	0x3daee492	0.0853969
237	0xbd375cef	-0.044766363
238	0x3c2b04c3	0.010438147
239	0xbd0fd66e	-0.035116605
240	0xbd5271d3	-0.051378082
241	0x3dc9cfc8	0.09854084
242	0x3dac2274	0.08405009
243	0x3d22e3b7	0.039767947
244	0x3dd921ea	0.10602172
245	0xbdc51612	-0.0962335
246	0x3c9f0a80	0.019414186
247	0xbd3487a8	-0.044074684
248	0x3d73873f	0.059455153
249	0x3c490859	0.012270057
250	0xbda6fdfc	-0.081539124
251	0x3b9245e3	0.0044638976
252	0x3d576757	0.052588787
253	0xbcab0d92	-0.020880494
254	0x3ac22da2	0.0014814625
255	0xbd8753b4	-0.06607762

conv_block2.0.bias f4 [10]
0	0xbd89d8ff	-0.06730842
1	0xbdc619e9	-0.09672911
2	0xbd2bf3b2	-0.041980453
3	0xbb86b8c5	-0.0041113817
4	0x3dbafd7c	0.091303796
5	0x3c6f9c5a	0.014624679
6	0xbc93c793	-0.0180395
7	0xbda2d3c1	-0.07950545
8	0x3d7f29f1	0.062295858
9	0x3c2108b3	0.009828734

conv_block2.2.weight f4 [10, 10, 3, 3]
0	0xbcfa1150	-0.030525833
1	0xbcf22734	-0.02955971
2	0x3c7d3888	0.015455373
3	0x3d7e371e	0.062064283
4	0xbd81d326	-0.063391015
5	0xbcd09158	-0.02545993
6	0x3d4b9e16	0.04971131
7	0xbd93ddd6	-0.07220046
8	0xbb2ab600	-0.0026048422
9	0x3daed66b	0.08536991
10	0x3d96bde3	0.07360437
11	0xbdad3396	-0.08457105
12	0xbd4aa4bb	-0.049473505
13	0x3c8aee6c	0.016959392
14	0x3d885c45	0.06658224
15	0xbd2d718a	-0.042344607
16	0xbdc40790	-0.09571755
17	0xbb806190	-0.0039178804
18	0x3d89ae83	0.067227386
19	0xbd6217c8	-0.05519846
20	0xbdc6ce13	-0.09707274
21	0x3c0d7b40	0.008635342
22	0x3db52f00	0.08846855
23	0xbdaf0047	-0.08544975
24	0x3cc232d3	0.023705876
25	0x3d8a7e45	0.06762365
26	0x3b4ff2e0	0.0031730458
27	0xbd676525	-0.056492943
28	0xbd1c38b8	-0.03814003
29	0xbd8f9064	-0.07009962
30	0x3bfb0e70	0.007661633
31	0xbd3bdffe	-0.045867912
32	0x3b692840	0.003557697
33	0xbcbe107c	-0.02320122
34	0xbd93d5a0	-0.0721848
35	0x3dd4a6b7	0.10383361
36	0x3ccaf1b3	0.024773454
37	0x3d56d81c	0.05245219
38	0x3d81250e	0.06305896
39	0x3d2df212	0.042467184
40	0xbcca22ac	-0.024674736
41	0xbd01fde6	-0.031736277
42	0xbd685573	-0.056722116
43	0xbdc00b9c	-0.09377214
44	0xbda30498	-0.079598606
45	0xbd246d4e	-0.040143304
46	0x3dcb5907	0.0992909
47	0xbdce0190	-0.10058892
48	0xbd87f8ce	-0.066392526
49	0xbda7eeae	-0.081998214
50	0xbd974263	-0.07385709
51	0x3db089cf	0.08620035
52	0xbdaac1d8	-0.08337754
53	0xbd9a78ac	-0.075425476
54	0xbd7a81b4	-0.06115885
55	0x3cea506e	0.028602805
56	0xbd03e5e4	-0.032201663
57	0xbd8d75b9	-0.069072194
58	0x3db30f88	0.08743197
59	0x3c885035	0.016639808
60	0xbd9b46b7	-0.07581847
61	0xbd1f9336	-0.03895875
62	0x3d85e4ce	0.06537782
63	0x3d1cbf9a	0.038268663
64	0xbd89893e	-0.0671563
65	0xbd5b5d82	-0.053555973
66	0xbd295a94	-0.041346148
67	0x3d24eaca	0.040262975
68	0xbdad1fc2	-0.08453323
69	0x3dc9ce33	0.098537825
70	0x3c28bc58	0.010298811
71	0x3d2b8962	0.041879065
72	0x3d01941d	0.031635392
73	0x3da98352	0.082770005
74	0xbd0aa6fb	-0.03385065
75	0xbd205fa1	-0.0391537
76	0xbd8bfa61	-0.06834865
77	0x3db1c70e	0.08680545
78	0xbbfe7007	-0.0077648195
79	0xba9b6050	-0.0011854265
80	0x3dbf6ceb	0.09346946
81	0xbcd2d366	-0.025735568
82	0xbd0e75f1	-0.034780446
83	0xbd32a220	-0.043611646
84	0x3d7b5f4e	0.061370187
85	0x3c5c048f	0.013428821
86	0xbd6499ae	-0.055810623
87	0x3d8f3543	0.06992581
88	0x3d2b694e	0.041848473
89	0xbcc11e8b	-0.023574134
90	0x3cc65404	0.024209984
91	0xbdc3a7fd	-0.095535256
92	0xbd996726	-0.07490377
93	0xbd1e6504	-0.038670555
94	0x3d4fefda	0.05076585
95	0xbcbc77c4	-0.023006327
96	0x3d9d83eb	0.07691177
97	0xbdc95ddd	-0.09832356
98	0x3d9d105f	0.07669138
99	0xbdd0ba6b	-0.101918064
100	0xbd145168	-0.036210448
101	0x3dc5fcd3	0.09667363
102	0xbd104c0a	-0.035228767
103	0xbd3c45c7	-0.045964982
104	0x3d69402a	0.056945957
105	0xbd675161	-0.056474093
106	0x3cb2f9e4	0.021847673
107	0xbd1ae5b0	-0.037816703
108	0x3d23e383	0.040011894
109	0xbd80f4a5	-0.06296662
110	0xbd5d2be0	-0.05399692
111	0xbda0c5eb	-0.0785025
112	0xbcb3f2c3	-0.021966344
113	0x3dd3bc09	0.10338599
114	0x3d5751d9	0.05256829
115	0xbdc7883b	-0.09742781
116	0x3d60995b	0.05483375
117	0x3db84baf	0.089988105
118	0x3ddea2da	0.10870905
119	0x3ca3e8c1	0.020008447
120	0x3cdd66f5	0.027026633
121	0x3d9f6eab	0.0778478
122	0x3dcf4425	0.101204194
123	0x3a90d713	0.0011050425
124	0xbc9ec6d9	-0.019381927
125	0x3d9ab445	0.07553915
126	0xbd2b9a29	-0.041895065
127	0x3d91c472	0.07117547
128	0x3d9b7bd6	0.07591979
129	0x3c814b00	0.015782833
130	0xbdc982bf	-0.09839391
131	0x3d8bb2aa	0.06821187
132	0x3d193d72	0.037412114
133	0x3c540734	0.0129411705
134	0x3c2ed2a9	0.0106703425
135	0x3d126ee8	0.0357503
136	0x3d58a26d	0.052889276
137	0xbda451a8	-0.08023387
138	0xbdc70793	-0.097182415
139	0x3d2edad8	0.042689174
140	0xbd6a3adc	-0.05718504
141	0xbdd97f6a	-0.106200054
142	0x3d9a8ffb	0.07546993
143	0xbdbe69c2	-0.092975155
144	0xbd4a9b96	-0.049464785
145	0xbda65633	-0.0812191
146	0x3d9da210	0.076969266
147	0xbcc70726	-0.0242954
148	0xbd8971b2	-0.06711139
149	0x3d9c4d62	0.07631947
150	0x3db4ad6f	0.08822142
151	0x3d41e236	0.047334872
152	0x3d9c491e	0.076311335
153	0xbdc2642c	-0.094917625
154	0xbdc31998	-0.09526366
155	0x3d7d5d60	0.061856627
156	0xbcc1e1e8	-0.02366729
157	0x3d3795ca	0.044820584
158	0x3dcb30ab	0.09921392
159	0xbcc54a1c	-0.02408319
160	0xbd6563b5	-0.05600329
161	0x3dc69162	0.09695698
162	0xbd85c034	-0.065308005
163	0xbd99d67c	-0.07511613
164	0x3d910a04	0.070819885
165	0xbca676d2	-0.02032033
166	0xbd86aab3	-0.06575527
167	0x3cbc25a4	0.022967167
168	0xbd88bf6b	-0.06677135
169	0xbc0d1403	-0.008610728
170	0xbdc3ae7a	-0.09554763
171	0xbd209a3e	-0.039209597
172	0x3d90f59a	0.07078095
173	0x3b1c52a7	0.0023852976
174	0xbcd90fde	-0.026496824
175	0x3d90787d	0.07054231
176	0x3d41278a	0.047156848
177	0x3d3ff5dc	0.04686533
178	0x3d27d369	0.0409731
179	0xbd3f74db	-0.0467423
180	0xbdc0322d	-0.0938457
181	0xbd7faca0	-0.062420487
182	0xbd805177	-0.06265538
183	0x3cf07804	0.029354103
184	0x3dad1f1b	0.084531985
185	0x3dc78eb3	0.097440146
186	0x3dacde13	0.08440795
187	0x3c750d70	0.014956817
188	0x3d94ac33	0.07259407
189	0x3bad5960	0.0052901953
190	0x3d488812	0.04895789
191	0xbd8ee992	-0.06978144
192	0x3dcff0df	0.101533644
193	0x3d47995a	0.04873023
194	0x39228a00	0.00015500933
195	0xbd2b69d6	-0.04184898
196	0x3c973cec	0.018461667
197	0xbc46f3d8	-0.012143098
198	0xbd93df28	-0.07220298
199	0xbd89816c	-0.067141384
200	0xbd2fb5a6	-0.042897843
201	0x3c872c75	0.016500691
202	0xbd917c9b	-0.07103845
203	0x3d6b8e24	0.057508603
204	0xbd5c787f	-0.05382585
205	0x3d809511	0.06278432
206	0x3b85f5d3	0.0040881424
207	0x3a7fd41c	0.0009759085
208	0x3c340585	0.010987644
209	0xba506500	-0.00079496205
210	0x3d548d56	0.0518926
211	0xbc0cee9d	-0.008601812
212	0xbd1a58e9	-0.037682448
213	0xba10717f	-0.00055100763
214	0xbd62c7c5	-0.055366296
215	0x3d082721	0.03324044
216	0xbab5664f	-0.0013839694
217	0x3d27ef7a	0.040999867
218	0xbcf93cb4	-0.030424453
219	0xbc5551a1	-0.01301995
220	0xbd80ba02	-0.06285478
221	0xbd756273	-0.05990834
222	0xbc1ae0c8	-0.009453006
223	0x3d29925e	0.041399352
224	0xbd561931	-0.05227012
225	0x3d9b0e0e	0.0757104
226	0xbd1a3b58	-0.03765425
227	0xbcc6e5a8	-0.02427943
228	0x3d99679a	0.074904636
229	0xbcea4d92	-0.028601442
230	0x3d457cca	0.04821471
231	0xbc93d1d0	-0.018044382
232	0x3d654cc5	0.055981416
233	0x3b41d5f4	0.002957699
234	0xbd7d8f23	-0.061904084
235	0xbda45038	-0.08023113
236	0x3d424a2b	0.047434013
237	0x3cac9025	0.021064827
238	0xbca7f71a	-0.02050357
239	0xbce3bf10	-0.027801067
240	0xbd4ddfee	-0.050262384
241	0xbda2349f	-0.07920193
242	0x3bfdda84	0.0077469964
243	0xbdb78e83	-0.08962729
244	0x3b87b7cd	0.004141784
245	0x3d9a44b3	0.075326346
246	0x3d44fc3a	0.048092104
247	0x3d6f60a9	0.05844179
248	0x3c9f9c14	0.019483604
249	0xbd718081	-0.05896044
250	0x3d68f102	0.056870468
251	0x3da8764f	0.082256906
252	0x3ce5edf6	0.02806757
253	0x3d77790a	0.060418166
254	0xbdca9395	-0.0989143
255	0xbdda2989	-0.106524535

conv_block2.2.bias f4 [10]
0	0xbd1412fc	-0.036150917
1	0x3d94949e	0.07254909
2	0x3d9add90	0.07561791
3	0xbd06ec47	-0.032940175
4	0x3d0f2ad9	0.034952972
5	0xbcdb4b70	-0.02676937
6	0x3d8e8489	0.06958873
7	0xbdc2337b	-0.09482475
8	0x3c0dfaf6	0.008665791
9	0xbc080401	-0.008301736

classifier.1.weight f4 [3, 2560]
0	0x3c5d18b6	0.013494661
1	0x3b0943e0	0.0020944998
2	0x3b75c050	0.003749866
3	0xbc9e89f5	-0.019352892
4	0xbc3225e0	-0.010873288
5	0x3c9721c1	0.018448712
6	0xbae82b40	-0.0017713085
7	0x3c0a6bd4	0.00844856
8	0xbc845f25	-0.01615865
9	0x3c26b95c	0.010176029
10	0xbc0ce1a1	-0.008598716
11	0xbb04e8f8	-0.0020280462
12	0x3c989025	0.018623421
13	0x3c65633e	0.014000712
14	0xbc8df70f	-0.01732972
15	0xbc114321	-0.008866102
16	0x3c3f118a	0.0116618965
17	0xbb6e0450	-0.0036318488
18	0x3c7fb12a	0.015606204
19	0x3c050b34	0.008120347
20	0xbb0fac20	-0.0021922663
21	0xbc49e416	-0.012322446
22	0x3a94ad00	0.0011343062
23	0x3c7f6a06	0.015589243
24	0x3c78d91e	0.0151884835
25	0xbc0bbf16	-0.008529445
26	0xbbb2fcb6	-0.0054622544
27	0x3bd0dec0	0.00637421
28	0xbc899e13	-0.016799008
29	0x3b2d0eb8	0.0026406478
30	0x3ba5717c	0.005048929
31	0x3c96ba86	0.018399488
32	0xbb206070	-0.0024471544
33	0x3c9d8613	0.01922897
34	0x3c9d7913	0.019222772
35	0xbc26a054	-0.010170061
36	0x3b495ea8	0.0030726586
37	0x3c399a30	0.011328265
38	0xbb166b60	-0.0022952184
39	0xbc315dc3	-0.010825577
40	0x3b8a1854	0.004214326
41	0x3c0eb376	0.008709779
42	0xbc832fde	-0.016014036
43	0xbc827859	-0.015926527
44	0xbc7458b0	-0.014913723
45	0xbc782466	-0.015145397
46	0x3c8dc3d9	0.017305302
47	0xbc1007c3	-0.008790913
48	0xbb19d3e0	-0.0023472235
49	0xbbac5958	-0.005259674
50	0xbc267210	-0.010159031
51	0x3c88fcdd	0.016722137
52	0xbbe73f52	-0.007057109
53	0x3c44a40e	0.012002004
54	0xbc15a3e7	-0.009133316
55	0x3c9ecf01	0.019385817
56	0x3ba3ae28	0.0049951263
57	0xbb649dd8	-0.0034884121
58	0x3911f080	0.00013917871
59	0x3c0628a0	0.008188397
60	0xbc2de99e	-0.010614781
61	0xbbc01316	-0.00586165
62	0xbc7049dc	-0.014666047
63	0xbc592cee	-0.013255341
64	0x3c1bc1c2	0.009506645
65	0xbad8e3d0	-0.0016547386
66	0xbc21a295	-0.009865423
67	0x3a70da60	0.0009187814
68	0x3c38c436	0.011277249
69	0x3c94b26b	0.018151483
70	0xbc3d9034	-0.011570025
71	0x3c042a46	0.008066719
72	0x3af79260	0.0018888228
73	0xbc24576d	-0.01003061
74	0x3b8f8a58	0.0043805055
75	0x3b1188b8	0.0022206735
76	0x3c3f5ebe	0.011680303
77	0x3c847c0b	0.01617243
78	0x3c1817a0	0.009282976
79	0x3b751120	0.003739424
80	0xbc73496a	-0.014849046
81	0xbc878ec0	-0.01654756
82	0x3c17b604	0.0092597045
83	0xbc46a931	-0.012125299
84	0x398f4480	0.00027326122
85	0x3c79485a	0.015215004
86	0x3c2289ba	0.009920532
87	0xbb248c80	-0.0025108159
88	0x3b4c2130	0.003114771
89	0x3a323ac0	0.00067989156
90	0x3adf9ad0	0.0017059688
91	0x3c8d3067	0.017234994
92	0xbc461c0c	-0.012091648
93	0x3c8cf0f3	0.017204737
94	0x3a78af20	0.0009486545
95	0x3c998e6b	0.018744668
96	0xbc0a0fe8	-0.008426644
97	0x3c471016	0.012149831
98	0xbc3206c9	-0.0108658755
99	0xbc84a83e	-0.016193505
100	0x3c6b6146	0.0143664535
101	0x3bdfdddc	0.0068318676
102	0x3c9f29fb	0.019429198
103	0x3c033e3c	0.008010443
104	0xbc089c3e	-0.008338032
105	0xbc4095c9	-0.011754462
106	0x3c848613	0.016177213
107	0xbb80637c	-0.0039181095
108	0xbc406444	-0.011742655
109	0xbc6f2b3a	-0.014597708
110	0xbc58c3f0	-0.013230309
111	0xbc080594	-0.008302111
112	0xbc822ca6	-0.01589043
113	0x3c9bd4b3	0.019022321
114	0x3b15a7f0	0.0022835694
115	0x3bd5aa7c	0.0065205675
116	0xbc1f4e58	-0.009723268
117	0x3a1207e0	0.00055706315
118	0x3c5cb996	0.0134719815
119	0xbbdb7d2a	-0.0066982703
120	0x3c82b853	0.015957033
121	0xbbc958ee	-0.0061446344
122	0xbbf22154	-0.007389227
123	0xbc6e5872	-0.014547454
124	0xbca076ff	-0.019587992
125	0x3c0d2ec2	0.008617105
126	0xbc50e75c	-0.012750473
127	0xbc4ecb25	-0.012621676
128	0xbc04767f	-0.008084892
129	0xbc77a912	-0.015115993
130	0xbc78e921	-0.015192301
131	0xbc53697e	-0.012903569
132	0x3c9dd9b1	0.019268842
133	0x3a967f30	0.0011481997
134	0xbbf40f8c	-0.0074481424
135	0xbad7f820	-0.0016477145
136	0x3c8758e7	0.016521884
137	0xbc3c5b40	-0.011496365
138	0x3c02c822	0.007982286
139	0xbb7152f0	-0.0036823116
140	0xbc898ff2	-0.016792271
141	0x3c562c66	0.013072109
142	0x3c1597b0	0.009130403
143	0x3c6dfe86	0.014526015
144	0x3c144058	0.009048544
145	0x3b530d88	0.003220411
146	0x3bc71d94	0.006076524
147	0xbc71bf8e	-0.014755143
148	0x3c9c06b5	0.019046167
149	0xbc5096c6	-0.01273126
150	0x3c647476	0.013943782
151	0xbc4d0802	-0.012514116
152	0xbc6a0402	-0.014283182
153	0x3c057378	0.008145206
154	0x3c543866	0.0129529
155	0xbbb06558	-0.005383175
156	0x3bb56360	0.005535528
157	0xbc8d1fe4	-0.01722712
158	0xbb1172d8	-0.0022193696
159	0x3c8eda39	0.017438041
160	0x3c97493d	0.01846754
161	0xbbce3910	-0.0062934235
162	0x3bef4a3c	0.0073025506
163	0x3c9552f7	0.018228037
164	0x3bf02e84	0.007329764
165	0x3b6d70c0	0.0036230534
166	0xbc82776c	-0.015926085
167	0x3bba2f58	0.0056819133
168	0x3bace744	0.0052765924
169	0xbc366828	-0.011133231
170	0x3c21b138	0.009868912
171	0xbc533b11	-0.0128925005
172	0x3c9b0095	0.018921176
173	0xba825cb0	-0.0009945836
174	0x3c5c770a	0.0134561155
175	0xbbaa0e08	-0.005189661
176	0xbc247d67	-0.010039664
177	0x3c6b9276	0.014378181
178	0x3c449a42	0.011999669
179	0x3c9efa5b	0.019406488
180	0x3bbe6148	0.0058099367
181	0xbc07f18a	-0.0082973335
182	0xbc3e2845	-0.011606281
183	0xbc9a7ed4	-0.018859304
184	0x3aa42a80	0.0012524873
185	0x3c9aff77	0.018920643
186	0xbbd6ad3a	-0.006551412
187	0xbb79fed0	-0.0038146265
188	0x3c6415ca	0.013921211
189	0x3c900667	0.017581178
190	0x3bafefa0	0.0053691417
191	0x3acdbfe0	0.0015697442
192	0x3c9e547b	0.019327393
193	0x3c8798ed	0.016552413
194	0xbc4e0cde	-0.01257631
195	0xbc61ebb2	-0.013789104
196	0xbb949394	-0.0045341942
197	0x3c0053a6	0.007832443
198	0xbc462b00	-0.012095213
199	0xbc0a9e24	-0.008460555
200	0x3ad70c40	0.0016406849
201	0xbba3a0a8	-0.004993517
202	0x3c593cf2	0.013259159
203	0x3c4d1d02	0.012519123
204	0x3c5f0132	0.013611125
205	0x3c2c3c60	0.010512441
206	0xbc3b578c	-0.011434447
207	0xbc7939f7	-0.015211574
208	0xbc599764	-0.013280723
209	0xbb25ca38	-0.0025297534
210	0x3c7e86aa	0.015535036
211	0xbb8fce36	-0.004388596
212	0x3c94fc77	0.01818679
213	0x3c71adf2	0.014750944
214	0xbc99ab11	-0.018758329
215	0x3c15890c	0.009126913
216	0xbc0896ba	-0.008336717
217	0xbc9a739c	-0.018853955
218	0x3be2fdcc	0.0069272276
219	0xbbde85e6	-0.0067908643
220	0xbc8fd936	-0.017559629
221	0xbc63e264	-0.013908956
222	0x3c6e403a	0.01454168
223	0xbb9b25ee	-0.004734746
224	0x3c7dce3a	0.015491063
225	0xbbe0bd42	-0.006858499
226	0x3c9e2a41	0.019307258
227	0xbba21b42	-0.004947097
228	0x3c993f53	0.018706953
229	0x3bfb3820	0.0076666027
230	0xbc73505c	-0.014850702
231	0x3c0d8034	0.008636523
232	0x3c07f842	0.008298935
233	0xbc87ec23	-0.016592091
234	0xbc8bfb2d	-0.017087543
235	0x3a9644f0	0.0011464637
236	0x3c2f65f4	0.01070546
237	0x3c89f441	0.016840102
238	0xbbb38f52	-0.0054797316
239	0xbc979ed7	-0.018508358
240	0x3c13eb00	0.009028196
241	0x3ab4a300	0.0013781488
242	0x3a0421c0	0.00050404295
243	0x3c4c703e	0.0124779325
244	0x3b1aac78	0.0023601335
245	0x3c8c59bf	0.017132638
246	0x3c78975e	0.0151728075
247	0x3ba5d3e0	0.005060658
248	0x3c713572	0.014722215
249	0x3bcf5810	0.0063276365
250	0xbc99a745	-0.018756518
251	0x3c91535d	0.017739946
252	0x3a1dd440	0.00060207024
253	0xbb2005d8	-0.0024417546
254	0x3c856e17	0.016287846
255	0x3c8d38b3	0.01723895

classifier.1.bias f4 [3]
0	0x3c5525cb	0.013009499
1	0xbabdc091	-0.0014476945
2	0xba2606ed	-0.00063334295
