PyTorch Course/Chapter 5/models/05_going_modular_cell_mode_tinyvgg_model.pth (torch, 48021 bytes, 10 tensors)

conv_block1.0.weight f4 [10, 3, 3, 3]
0	0x3e16aab1	0.14713551
1	0x3e239199	0.1597351
2	0xbd38abd8	-0.045085758
3	0x3e35079b	0.17678683
4	0xbd2cb6c8	-0.0421665
5	0x3d1f1110	0.03883463
6	0xbdbfe352	-0.0936953
7	0x3de77866	0.11302261
8	0x3e2db985	0.16965301
9	0xbe109346	-0.1411868
10	0x3e2b4aa1	0.16727687
11	0x3d138878	0.03601882
12	0x3e1198a3	0.14218383
13	0x3cd58360	0.026063621
14	0x3dbe0c6e	0.092797145
15	0xbcde9848	-0.027172223
16	0x3e17eae9	0.14835705
17	0x3ce90740	0.02844584
18	0xbdb7ffcf	-0.089843385
19	0x3d48ee1c	0.049055204
20	0xbdb597fe	-0.08866881
21	0xbcb8e2f8	-0.022569165
22	0xbda01515	-0.07816521
23	0x3e02bad3	0.1276658
24	0xbe1b8f70	-0.15191436
25	0xbdb5b39c	-0.088721484
26	0xbd5e96d0	-0.054343045
27	0xbdecfbf4	-0.11571494
28	0x3c94ccc0	0.018164039
29	0xbe42a40e	-0.19007894
30	0x3e31f987	0.17380343
31	0xbe27675d	-0.16348024
32	0x3e182481	0.14857675
33	0x3d032f24	0.03202738
34	0xbd7ff4e8	-0.06248942
35	0x3df38eb2	0.11892451
36	0x3cf5b4e8	0.02999349
37	0x3e1f3975	0.15549262
38	0x3cac5918	0.021038577
39	0xbd7899d8	-0.06069359
40	0x3d53cbf8	0.05170819
41	0xbd55c39c	-0.0521885
42	0x3da5e03a	0.080994084
43	0x3e2ff28d	0.1718237
44	0x3de3d5ca	0.111247614
45	0xbdac4e64	-0.08413389
46	0x3de38596	0.11109464
47	0x3d0d0b0c	0.034434363
48	0x3dc8282e	0.09773289
49	0xbdf03a9e	-0.1172993
50	0xbe431486	-0.19050798
51	0xbd98477f	-0.07435512
52	0xbe172806	-0.14761361
53	0x3e21b3e3	0.15791278
54	0x3d630c50	0.055431664
55	0x3da341da	0.079715446
56	0x3d794d0c	0.060864493
57	0xbb5b67c0	-0.0033478588
58	0x3e1a3a4d	0.15061302
59	0xbe0c0527	-0.1367384
60	0x3c4687f0	0.012117371
61	0xbe0681e8	-0.13135493
62	0x3d7310fc	0.05934237
63	0xbd87bbec	-0.0662764
64	0x3d718a5c	0.05896984
65	0xbd243b00	-0.04009533
66	0x3e237285	0.15961654
67	0xbde99b31	-0.114065535
68	0xbdeb1020	-0.11477685
69	0xbdeb13c2	-0.11478378
70	0x3e31408f	0.17309783
71	0x3d8358ca	0.064134195
72	0x3e3da133	0.18518524
73	0xbe22a2e3	-0.15882449
74	0xbe4377ca	-0.19088665
75	0xbe1a2df8	-0.15056598
76	0xbe0490ec	-0.12945908
77	0x3d9fa442	0.077950016
78	0x3d8d219a	0.068911746
79	0x3e23bfd5	0.15991147
80	0xbdcb8af2	-0.09938611
81	0xbe06581d	-0.1311955
82	0x3dd11ef2	0.102109805
83	0xbd9f4ff0	-0.07778919
84	0x3def362e	0.11680256
85	0xbd3b0eec	-0.045668527
86	0x3de17706	0.1100903
87	0xbe191dc1	-0.14952756
88	0xbdc6e6cb	-0.09711989
89	0x3d70539c	0.058673486
90	0x3d26a5bc	0.0406854
91	0xbd48fa50	-0.04906684
92	0x3deaeefa	0.114713624
93	0x3e05f821	0.13082935
94	0xbe0ee8bc	-0.13955969
95	0xbdd26aea	-0.102742985
96	0x3e3472cf	0.17621921
97	0xbd84feb2	-0.06493892
98	0xbd8bba72	-0.06822671
99	0xbe3eaecc	-0.18621367
100	0xbde1b602	-0.11021043
101	0x3d44ea04	0.048074737
102	0xbcd01810	-0.025402099
103	0xbe0f0caf	-0.13969682
104	0x3b93ec40	0.004514247
105	0xbe069d37	-0.1314591
106	0xbe27314e	-0.16327402
107	0xbdd90976	-0.10597508
108	0xbe2c7a22	-0.16843465
109	0xbdfaf668	-0.122540295
110	0x3e44fde7	0.19237481
111	0x3d14e2b0	0.036349
112	0x3d72ea2c	0.059305355
113	0xbe37cd96	-0.17949519
114	0xbe016e00	-0.12639618
115	0xbd8330ea	-0.06405814
116	0x3cf686f0	0.03009364
117	0xbe2d67b6	-0.16934094
118	0xbda9d2c7	-0.08292156
119	0xbdebf539	-0.11521382
120	0x3a0bcf00	0.00053332746
121	0xbd92a8f2	-0.0716113
122	0xbc5a7f20	-0.013335973
123	0xbe058a2c	-0.1304099
124	0xbe074463	-0.13209681
125	0xbde5f0d1	-0.11227573
126	0xbd86e990	-0.06587517
127	0xbe1b8aef	-0.15189718
128	0x3e253c7f	0.16136359
129	0xbd1c71c0	-0.038194418
130	0x3e298eb3	0.16558342
131	0x3d759cd4	0.059964016
132	0xbe26e09a	-0.16296616
133	0x3e0860ed	0.13318224
134	0xbd58e3d4	-0.05295165
135	0xbd971552	-0.073771134
136	0xbe2394c1	-0.15974714
137	0xbe43eb0b	-0.1913263
138	0x3d6188b8	0.055062026
139	0xbd2c31a8	-0.042039543
140	0x3d99726a	0.07492526
141	0xbe21ba2c	-0.15793675
142	0x3e124f47	0.14288054
143	0xbe10a8be	-0.1412687
144	0xbd081d3c	-0.033231005
145	0x3d24a598	0.040196985
146	0x3dcb796e	0.0993527
147	0x3e1f1883	0.15536694
148	0x3e338591	0.1753142
149	0xbe1c42a2	-0.15259793
150	0x3d466218	0.048433393
151	0xbda98765	-0.082777776
152	0xbcacc420	-0.021089613
153	0xbe13810e	-0.14404699
154	0x3e33807d	0.17529483
155	0xbe10a389	-0.14124884
156	0x3dd2a5be	0.10285519
157	0x3d8a83fe	0.06763457
158	0x3d8013d2	0.062537804
159	0xbdd516cf	-0.10404741
160	0x3e332047	0.17492782
161	0x3d2d3950	0.042290986
162	0x3ccacec0	0.02475679
163	0xbe2daafc	-0.16959757
164	0x3da5745a	0.08078833
165	0xbcec83e0	-0.028871477
166	0xbdb49068	-0.08816606
167	0x3e29458b	0.16530435
168	0x3d2fbebc	0.042906508
169	0xbdda1130	-0.106478095
170	0xbdc77d0d	-0.097406484
171	0xbc169420	-0.009190589
172	0x3ddc123e	0.10745667
173	0xbd496e5c	-0.049177513
174	0xbde0e297	-0.109807186
175	0xbd86f83c	-0.06590316
176	0xbe1339a8	-0.14377463
177	0x3d8c8ff6	0.06863396
178	0x3e188a0d	0.14896412
179	0xbe398753	-0.18118028
180	0x3d3713dc	0.044696674
181	0x3dcb9bbe	0.09941815
182	0x3d0ef000	0.03489685
183	0xbd8c5cb8	-0.06853622
184	0x3dcdb796	0.10044782
185	0x3dcf1fe6	0.10113506
186	0x3d9360fe	0.07196234
187	0xbd0a8454	-0.033817604
188	0xbd50bc84	-0.050961033
189	0x3ca8a930	0.020588487
190	0xbd0b408c	-0.033997104
191	0xbd6ae82c	-0.057350323
192	0x3dfbef82	0.12301542
193	0x3e295c65	0.16539152
194	0xbc9c1308	-0.019052044
195	0xbd307e10	-0.043088973
196	0x3b380b40	0.0028082877
197	0xbc3c4420	-0.011490852
198	0x3d3d82a4	0.046267167
199	0x3d5ce6bc	0.053930983
200	0xbe32fd39	-0.1747941
201	0xbd9173a4	-0.07102135
202	0x3e25f521	0.1620679
203	0x3d9989d2	0.0749699
204	0xbc1cd3e0	-0.009571999
205	0xbdeda0c1	-0.11602927
206	0xbdf122b0	-0.11774194
207	0xbe30871d	-0.17239042
208	0xbd807960	-0.062731504
209	0x3d851a1a	0.06499119
210	0x3dfb4f8e	0.12271033
211	0x3db5f8ee	0.0888537
212	0xbe2e32a8	-0.17011511
213	0xbded0509	-0.11573226
214	0xbcf8ce58	-0.03037183
215	0x3e3ea26f	0.18616651
216	0x3ce40f58	0.027839348
217	0xbd4c23ec	-0.049838945
218	0x3da30f92	0.07961954
219	0xbd961eac	-0.07330069
220	0xbdff1ba0	-0.12456441
221	0x3e0fd68b	0.14046685
222	0xbdb33714	-0.0875074
223	0xbd1e05e8	-0.03857985
224	0xbe440b84	-0.19145018
225	0x3e03e475	0.12880118
226	0x3e154e65	0.14580686
227	0x3d8fa48e	0.07013808
228	0xbe09693b	-0.13419048
229	0xbe427ec2	-0.18993667
230	0xbe200e22	-0.15630391
231	0x3e12f44f	0.14351009
232	0x3dbd3a52	0.09239639
233	0x3e25d599	0.16194762
234	0x3dce7a16	0.1008188
235	0x3d4781a0	0.048707604
236	0xbaf70500	-0.0018846095
237	0xbe15df41	-0.14635946
238	0xbe28d7d8	-0.16488588
239	0xbe385400	-0.18000793
240	0x3da15852	0.07878174
241	0xbdc18250	-0.09448683
242	0xbd1ea47c	-0.038731083
243	0xbde2d410	-0.11075604
244	0xbd0fa474	-0.035068944
245	0xbe0ab437	-0.13545309
246	0xbe00c496	-0.12574992
247	0x3d82bd62	0.06383778
248	0xbd6a45cc	-0.05719547
249	0x3df3517a	0.11880775
250	0xbd7ce2c0	-0.061739683
251	0xbe109033	-0.14117508
252	0xbd0b1520	-0.033955693
253	0xbdbf0ea9	-0.09328968
254	0xbd712a90	-0.05887848
255	0xbe3b9bd5	-0.18321164

conv_block1.0.bias f4 [10]
0	0x3dbd25da	0.09235735
1	0xbe43a241	-0.19104864
2	0x3df4ae42	0.119472995
3	0x3e1373af	0.14399599
4	0x3e3a5e8b	0.18200128
5	0xbd39f028	-0.045395046
6	0xbe21eb89	-0.15812506
7	0x3d313a6c	0.043268606
8	0x3dd9bb82	0.106314674
9	0xbe4424f7	-0.19154726

conv_block1.2.weight f4 [10, 10, 3, 3]
0	0xbcc400d4	-0.023926176
1	0xbd8168cb	-0.06318816
2	0xbc170d58	-0.00921949
3	0xbd54842b	-0.051883858
4	0xbd307ced	-0.04308789
5	0xbd09109c	-0.033463106
6	0xbdcd265f	-0.10017084
7	0x3db12131	0.08648909
8	0x3db4fa37	0.08836787
9	0xbc87755c	-0.016535453
10	0xbc44ad60	-0.012004226
11	0xbd303557	-0.04301962
12	0xbdc2f398	-0.09519118
13	0xbdd214a4	-0.10257843
14	0x3d207742	0.039176233
15	0xbd6d0ddd	-0.05787455
16	0xbd8ac879	-0.067765184
17	0xbc06bf80	-0.008224368
18	0xbd0fc798	-0.035102457
19	0xbd0baea0	-0.034102082
20	0x3b5df720	0.0033869222
21	0xbcb72968	-0.022358611
22	0xbd14a8b8	-0.036293715
23	0xbd4eba3c	-0.050470576
24	0xbdafb004	-0.08578494
25	0x3db503f1	0.088386424
26	0xbd2cc888	-0.04218343
27	0x3ce4d02c	0.027931295
28	0xbd15ce02	-0.036573417
29	0x3c0c5720	0.008565694
30	0x3dc94367	0.09827309
31	0x3d46eb82	0.04856444
32	0xbdbb1477	-0.09134763
33	0x3d2b5d82	0.041837223
34	0x3dccebb9	0.10005898
35	0x3ce32d04	0.027731426
36	0x3d90bae5	0.07066897
37	0x3dd4d4e3	0.103921674
38	0xbc8450b0	-0.016151756
39	0x3cb339d4	0.02187816
40	0xbd960afc	-0.07326314
41	0xbcb1f340	-0.021722436
42	0x3d9fe039	0.07806439
43	0x3d5d568e	0.054037623
44	0xbd889af6	-0.066701815
45	0xbdad1c06	-0.08452611
46	0xbd9385f6	-0.072032854
47	0xbdd50b9b	-0.10402604
48	0xbda6947b	-0.08133789
49	0xbcd58b60	-0.026067436
50	0x3d91b0f5	0.0711383
51	0x3c908964	0.017643638
52	0xbda432b7	-0.080174856
53	0xbdad2ec0	-0.084561825
54	0x3d56c9c2	0.052438505
55	0xbda0943f	-0.07840776
56	0xbc54a4f0	-0.012978777
57	0x3d4f1dba	0.05056546
58	0xbd47d271	-0.048784677
59	0xbc3c5090	-0.011493817
60	0xbc1653f8	-0.009175293
61	0xbccc4af0	-0.024938077
62	0xbd5aea12	-0.053445883
63	0xbdc0712c	-0.09396586
64	0xbdae81b2	-0.08520831
65	0xbd67305f	-0.056442615
66	0x3dd080d7	0.10180824
67	0xbd508b6e	-0.05091422
68	0xbd90f7de	-0.07078527
69	0x3cd14f7c	0.025550596
70	0x3cedfe34	0.029051878
71	0x3d6c9042	0.057754762
72	0x3da417e9	0.08012373
73	0x3d706f16	0.05869969
74	0xbdd60b1d	-0.104513384
75	0x3c192ae0	0.009348601
76	0x3d82c4d3	0.063851975
77	0xbc1f9f00	-0.009742498
78	0xbd7e6ccd	-0.06211548
79	0x3dcdce25	0.100490846
80	0xbd217d28	-0.039426
81	0xbd75d16f	-0.060014185
82	0xbdc2a045	-0.09503225
83	0x3b9a4960	0.004708454
84	0x3d3f5356	0.046710335
85	0x3cbf264c	0.023333691
86	0x3caac264	0.020844646
87	0xbda3b823	-0.07994106
88	0xbdc99b1a	-0.098440364
89	0x3af34b80	0.001856193
90	0x3dc4d857	0.09611576
91	0x3d7916e6	0.060812853
92	0xbd7b6221	-0.06137288
93	0xbc602ec0	-0.013683021
94	0xbd9f244f	-0.07770597
95	0xbd504a14	-0.050851896
96	0x3c9c6174	0.019089438
97	0x3d6b1ba2	0.0573994
98	0x3db2d3ab	0.08731779
99	0xbdc632f5	-0.09677688
100	0x3d9056e5	0.07047824
101	0xbd9841d5	-0.074344315
102	0x3d21adba	0.03947232
103	0x3db6af95	0.08920208
104	0x3ac20340	0.0014801994
105	0x3dc4686b	0.09590229
106	0xbdb7f076	-0.08981411
107	0xbd24e9ce	-0.040262036
108	0x3d7bd2ba	0.06148026
109	0xbcbc21b4	-0.02296529
110	0xbcb0c2e0	-0.021577299
111	0xbd33f3d3	-0.0439337
112	0x3d94ce5f	0.07265925
113	0x3d53c722	0.05170358
114	0x3d0a5b3a	0.033778407
115	0xbd72a1a1	-0.059236173
116	0xbdaf3d2f	-0.08556592
117	0x3c3acbd0	0.011401132
118	0x3cffd72c	0.031230532
119	0xbd4758d6	-0.048668705
120	0xbcf19bdc	-0.029493265
121	0x3d91cc11	0.07119001
122	0x3c099308	0.008396871
123	0x3b9bd750	0.004755892
124	0xbcd482cc	-0.025941275
125	0xbdc37f3e	-0.09545754
126	0xbdcafb26	-0.09911184
127	0xbd4e62d2	-0.05038721
128	0xbd5b7892	-0.05358178
129	0x3d0683e6	0.032840632
130	0xbcfb60b8	-0.030685768
131	0xbd28e9a2	-0.041238435
132	0x3dcdd31d	0.10050032
133	0x3d1663fe	0.036716454
134	0x3d99e669	0.075146504
135	0xbd5104cc	-0.051029965
136	0xbd305bae	-0.043056183
137	0x3d1eb01a	0.038742162
138	0xbd8fd592	-0.07023157
139	0xbd8d1ed4	-0.068906456
140	0xbba6d460	-0.005091235
141	0xbd1deb64	-0.038554564
142	0xbda1d5b4	-0.07902089
143	0x3d800cd1	0.062524445
144	0x3dad99e9	0.08476622
145	0x3c8c14f8	0.017099842
146	0xbc965958	-0.01835315
147	0xbdc7f64d	-0.09763775
148	0xbd1d432c	-0.03839414
149	0x3cdbd684	0.026835687
150	0x3d4b9622	0.049703725
151	0xbc5a5388	-0.013325579
152	0xbd2ab232	-0.041673847
153	0x3d7095fa	0.05873678
154	0xbdabece1	-0.083947904
155	0x3d88705b	0.06662055
156	0xbd278080	-0.04089403
157	0x3ad37680	0.0016133338
158	0xbcaaa4d0	-0.020830542
159	0x3c5161f8	0.012779705
160	0xbd0279e0	-0.03185451
161	0x3d9cf889	0.07664592
162	0xbb339740	-0.0027403384
163	0x3da883af	0.08228242
164	0x3dcf9009	0.101348944
165	0xbd525908	-0.051354438
166	0xbd9d7c2e	-0.07689701
167	0x3dad3311	0.08457006
168	0x3da92a45	0.082600154
169	0xbda4d54c	-0.08048496
170	0xbc058138	-0.008148484
171	0xbdd4e215	-0.10394684
172	0xbdb0b7b9	-0.08628792
173	0x3ca6c7f4	0.020359017
174	0x3ce5b964	0.028042503
175	0x3cb70c5c	0.02234476
176	0xbceb0484	-0.028688677
177	0x3dc72a15	0.097248234
178	0x3c76ed30	0.015071198
179	0xbd7ec5d9	-0.0622004
180	0xbbc38c00	-0.005967617
181	0x3ccf5e54	0.025313534
182	0x3d1732aa	0.03691355
183	0xbd98a4b0	-0.07453287
184	0x3d21d15a	0.039506294
185	0xbd5c938e	-0.053851657
186	0xbdb361c3	-0.08758881
187	0xbd6bd419	-0.05757532
188	0x3dd031e5	0.101657666
189	0x3db88b8d	0.09010992
190	0x3dc150c7	0.09439235
191	0x3d7d7222	0.061876424
192	0x3da315c7	0.07963138
193	0xbc672970	-0.014109001
194	0xbd6d907a	-0.05799911
195	0x3d57bada	0.05266843
196	0xbd5fba8b	-0.05462126
197	0xbd91b055	-0.07113711
198	0xbd09dfde	-0.033660762
199	0x3cb53754	0.022121109
200	0x3d5e4446	0.05426433
201	0xbd27b2b4	-0.04094191
202	0xbd7e1e02	-0.062040336
203	0x3c68f6b8	0.014218979
204	0xbd7e7dd3	-0.062131714
205	0xbd8c8cc9	-0.0686279
206	0x3d610dc6	0.054944776
207	0xbc910e8c	-0.017707132
208	0x3dc54427	0.0963214
209	0x3dd200a5	0.10254029
210	0x3d012406	0.031528495
211	0x3d14979e	0.036277406
212	0x3cc6da5c	0.024274044
213	0x3ad85fc0	0.0016508028
214	0xbbfb38b0	-0.00766667
215	0x3abde440	0.001448758
216	0x3d213a7e	0.039362423
217	0x3dc8b79b	0.09800645
218	0xbcdfc984	-0.02731777
219	0xbd36829d	-0.044558156
220	0xbcd11cc8	-0.02552642
221	0xbd50978a	-0.05092577
222	0x3c92d4a0	0.017923653
223	0x3da12453	0.078682564
224	0x3da8cfd5	0.08242766
225	0x3d463af6	0.048396073
226	0xbd9edf1d	-0.07757399
227	0xbd67b9c6	-0.05657365
228	0xbcbdb93c	-0.023159616
229	0xbc9f2a8c	-0.019429468
230	0x3c0e0b40	0.008669674
231	0xbdc62b85	-0.096762694
232	0x3d0661c2	0.032808073
233	0xbda4affb	-0.08041378
234	0xbd889884	-0.06669715
235	0xbdb37a32	-0.08763541
236	0x3dbc1951	0.09184516
237	0xbdcc6c73	-0.099816225
238	0x3da2d9ef	0.07951724
239	0xbb683aa0	-0.0035435334
240	0xbc48d9d8	-0.012258969
241	0x3d8706f3	0.06593122
242	0xbc1f9ff8	-0.009742729
243	0x3d87638d	0.06610785
244	0x3d9c1549	0.07621247
245	0xbdbb6d77	-0.09151738
246	0x3d262206	0.04055979
247	0x3ca30354	0.019899048
248	0x3cb9aa54	0.022664227
249	0x3c7c2180	0.015388846
250	0x3cec328c	0.028832696
251	0xbd4fb422	-0.050708897
252	0xbc5cf520	-0.013486177
253	0x3dcd1c33	0.10015144
254	0x3d9109a3	0.07081916
255	0xbb81c370	-0.0039600655

conv_block1.2.bias f4 [10]
0	0x3c0951d8	0.0083813295
1	0x3cb1b55c	0.021692924
2	0xbdbc4620	-0.09193063
3	0xbdade6f2	-0.08491315
4	0x3c53bc58	0.012923323
5	0xbd28ecbe	-0.0412414
6	0xbafd8640	-0.0019342378
7	0xbcc623fc	-0.02418708
8	0x3c866ab0	0.016408294
9	0x3d8c7425	0.0685809

conv_block2.0.weight f4 [10, 10, 3, 3]
0	0xbd0f3040	-0.034958124
1	0x3dace369	0.084418125
2	0x3daa72fb	0.08322712
3	0xbda5afa3	-0.08090141
4	0xbda6b4ef	-0.08139979
5	0xbdaea95e	-0.08528398
6	0xbd6c9c78	-0.057766408
7	0xbd28128e	-0.04103332
8	0xbc01fe08	-0.007934101
9	0xbcd1ffe0	-0.025634706
10	0xbd5a24ee	-0.053257875
11	0xbd092a8e	-0.03348785
12	0xbd1c2f7c	-0.038131222
13	0x3dd3c8e3	0.103410505
14	0xbd200576	-0.039067708
15	0xbd9a91a7	-0.07547312
16	0x3d337ae6	0.043818377
17	0xbbc782e0	-0.0060885996
18	0x3da544bf	0.08069753
19	0x3d86e341	0.06586314
20	0x3dc6555f	0.09684252
21	0xbd9e19b6	-0.07719748
22	0x3d8ac7b9	0.06776375
23	0x3db52c5f	0.08846354
24	0xbd553702	-0.052054413
25	0x3dc66e4d	0.09689007
26	0x3da1d4e1	0.079019316
27	0x3a974dc0	0.0011543557
28	0x3d502c22	0.05082334
29	0xbd16f388	-0.036853343
30	0xbdbc4912	-0.091936246
31	0x3cda475c	0.026645355
32	0x3d00b7aa	0.031425156
33	0xbd8d16d0	-0.06889117
34	0x3d5166d2	0.051123448
35	0xbdb86874	-0.09004298
36	0x3db9ca39	0.09071774
37	0x3dd10de9	0.10207731
38	0x3ceb193c	0.028698556
39	0xbd8772bb	-0.0661368
40	0x3d521f96	0.051299654
41	0x3c9327fc	0.017963402
42	0x3ceace24	0.028662749
43	0x3d0de5ee	0.034643106
44	0x3da45c2b	0.08025392
45	0xbd399599	-0.045308683
46	0xbcc23e30	-0.023711294
47	0x3ceb7c2c	0.028745733
48	0x3c3c2db8	0.01148551
49	0x3dae144f	0.08499967
50	0xbd62c669	-0.055365
51	0xbb7b91e0	-0.0038386509
52	0x3ca1599c	0.01969605
53	0xbce556e8	-0.027995542
54	0x3d932af1	0.07185925
55	0x3c3ce798	0.011529826
56	0xbdc78565	-0.0974224
57	0xbc3b1948	-0.011419602
58	0xbd43d378	-0.047809094
59	0x3c27d130	0.010242745
60	0xbc48b538	-0.012250237
61	0xbdd6230d	-0.10455904
62	0xbc9d5a98	-0.019208238
63	0xbc2569d0	-0.010096028
64	0xbcfea19c	-0.03108292
65	0x3dc65839	0.09684796
66	0xbcbc6af0	-0.02300021
67	0x3d8aaf11	0.067716725
68	0x3cd5e84c	0.026111744
69	0xbdb63adb	-0.088979445
70	0x3ccae9d4	0.024769701
71	0x3db2e7e9	0.087356396
72	0xbd8d34c0	-0.06894827
73	0xbd8b89ca	-0.068133906
74	0x3dd34fe7	0.103179745
75	0x3dad75d3	0.08469739
76	0xbd70dfcf	-0.05880719
77	0x3d81e753	0.0634295
78	0xbc5cf120	-0.013485223
79	0xbdd4d733	-0.103926085
80	0x3c01c1e0	0.007919759
81	0x3d0b7f76	0.034057103
82	0xbd01828e	-0.031618647
83	0x3d16336e	0.03667014
84	0xbdb898fc	-0.090135545
85	0x3d959b65	0.0730503
86	0x3db80b25	0.08986501
87	0x3d6e1966	0.05812969
88	0x3c925b9c	0.017865948
89	0x3d0e32ce	0.03471642
90	0xbd9c32bb	-0.076268636
91	0xbcd7c4d4	-0.026338972
92	0xbc24dff8	-0.010063164
93	0xbd704433	-0.05865879
94	0xbd9f73b2	-0.07785739
95	0x3d913415	0.07090012
96	0x3d928133	0.07153549
97	0xbdc40ed9	-0.095731445
98	0x3d0963d6	0.033542477
99	0x3d2fa3b2	0.04288072
100	0x3dcd13d1	0.10013545
101	0x3d79cb52	0.060984917
102	0x3dc676f7	0.096906595
103	0xbd0d5a42	-0.034509905
104	0x3d9732b9	0.073827215
105	0x3daf9879	0.08574004
106	0xbdcbdc1c	-0.09954092
107	0xbdad496f	-0.08461272
108	0x3caec79c	0.021335416
109	0x3d6bc15a	0.05755744
110	0xbd56808f	-0.052368697
111	0x3c3e3480	0.011609197
112	0xb9207600	-0.00015302747
113	0x3cda8fcc	0.026679896
114	0xbd68010b	-0.05664162
115	0x3d738702	0.059454925
116	0x3d8f8f9d	0.07009814
117	0xbd95c9f2	-0.07313909
118	0x3a85d800	0.0010211468
119	0x39995600	0.0002924651
120	0x3d0aa4ce	0.033848576
121	0x3dc91bd7	0.09819763
122	0x3cfd3c94	0.030912675
123	0xbcc43584	-0.0239513
124	0x3dc1e325	0.094671525
125	0xbd244c26	-0.040111683
126	0xbcfabd5c	-0.030607872
127	0x3bebd390	0.007196851
128	0xbda464a4	-0.08027008
129	0x3c3bee28	0.011470355
130	0xbd9277d2	-0.0715176
131	0x3c3192e8	0.010838248
132	0x3c257648	0.010099001
133	0x3c6f0e58	0.014590822
134	0xbdb60c92	-0.08889116
135	0xbdcd09a6	-0.10011606
136	0x3d46a896	0.04850062
137	0x3db922df	0.09039854
138	0xbdbf9077	-0.09353726
139	0x3d1feb8a	0.039042987
140	0xbd9ee99e	-0.07759403
141	0x3bd88a00	0.0066082478
142	0x3dc8d80b	0.09806832
143	0x3da3c4f1	0.07996548
144	0xbd9dd64d	-0.0770689
145	0x3d858941	0.0652032
146	0x3d618386	0.05505707
147	0xb9298a00	-0.00016168505
148	0x3dd1207f	0.10211276
149	0xbd2b7ba0	-0.041865945
150	0xbcc8f3fc	-0.024530403
151	0xbd5a373b	-0.053275328
152	0x3c788370	0.015168056
153	0x3ce4a58c	0.02791097
154	0x3c099c18	0.008399032
155	0xbd72ec10	-0.059307158
156	0xbd425cba	-0.047451712
157	0x3d12dcee	0.035855226
158	0xbdbd49a5	-0.09242562
159	0xbc867a90	-0.016415864
160	0xbb190680	-0.0023349822
161	0xbd2eee9c	-0.042708024
162	0x3d1d1fba	0.038360335
163	0x3bdea060	0.0067940205
164	0x3d978f77	0.074004106
165	0xbc196138	-0.009361558
166	0xbd883fbf	-0.066527836
167	0x3d988773	0.0744771
168	0x3c712d50	0.014720276
169	0xbcf74ef4	-0.030189015
170	0xbd8e4930	-0.06947553
171	0x3cca65d4	0.024706759
172	0xbdcde4f3	-0.10053434
173	0x3ce36e14	0.02776245
174	0x3d557aca	0.052119054
175	0xbdbd5e51	-0.09246505
176	0xbd8d5458	-0.06900853
177	0xbd9b334c	-0.075781435
178	0x3db5726f	0.08859717
179	0x3db785c1	0.089610584
180	0x3bd83a00	0.006598711
181	0x3dcaaaed	0.09895883
182	0xbd10567e	-0.035238735
183	0xbdd1944e	-0.10233365
184	0x3d16cf6e	0.036818914
185	0x3d18f52a	0.03734318
186	0x3dd3a4a5	0.10334138
187	0xb7fff000	-3.0510128e-05
188	0x3da572bd	0.08078525
189	0x3d845353	0.06461205
190	0x3d9c3ef3	0.07629194
191	0xbdd6390b	-0.10460099
192	0x3db1c43f	0.08680009
193	0xbdb806a5	-0.08985642
194	0x3dc18983	0.094500564
195	0xbb8f2350	-0.0043682232
196	0xbdbf509e	-0.093415484
197	0x3cf022f4	0.029313542
198	0xbcafc3e4	-0.021455713
199	0xbdc1e67c	-0.094677895
200	0xbd1c8736	-0.038214885
201	0x3c3210b8	0.010868244
202	0x3da822cf	0.08209764
203	0xbd04bc16	-0.032405935
204	0x3d803985	0.06260971
205	0x3c5845d8	0.013200246
206	0x3b68db80	0.0035531223
207	0x3ca53a94	0.020169534
208	0xbd8dac90	-0.06917679
209	0xbdb37003	-0.08761599
210	0xbd07a9b0	-0.03312081
211	0xbdc92abc	-0.09822604
212	0xbd49598c	-0.049157664
213	0x3b9ee810	0.0048494413
214	0xbd8e2dea	-0.06942351
215	0xbd33173e	-0.043723337
216	0xbc9b2958	-0.018940613
217	0xbc46f588	-0.0121435
218	0xbd6e55f6	-0.058187447
219	0x3ba5f880	0.005065024
220	0xbc7267f8	-0.014795296
221	0x3cf6f5fc	0.030146591
222	0x3b9c02c0	0.00476107
223	0xbd579b25	-0.05263819
224	0xbd14a592	-0.036290713
225	0xba9f3e00	-0.0012149215
226	0xbd86b46e	-0.06577383
227	0x3c073340	0.008251965
228	0xbbf3e030	-0.0074424967
229	0x3d27831e	0.040896527
230	0x3ccc5d24	0.024946757
231	0x3da18f45	0.078886546
232	0xbb63ba80	-0.0034748614
233	0xbd9f8374	-0.077887446
234	0x3d40ffba	0.04711888
235	0xbd91e60d	-0.07123957
236	0xbc6d6238	-0.014488749
237	0xbd0bcdca	-0.034131803
238	0xbd23d3da	-0.03999696
239	0xbd1fbe2e	-0.03899973
240	0x3dc65ff7	0.096862726
241	0x3d77296e	0.060342245
242	0x3cef4fc4	0.02921284
243	0x3dcab341	0.09897471
244	0xbdc3a22f	-0.095524184
245	0x3c8b57c8	0.01700963
246	0x3d8a333b	0.06748053
247	0x3d8f67db	0.07002231
248	0xbdabceb4	-0.08389035
249	0x3d19a856	0.037514053
250	0xbd75f72b	-0.06005017
251	0xbb86f680	-0.0041187406
252	0xbcb4307c	-0.021995775
253	0xbdb44028	-0.08801299
254	0xbdcdede6	-0.10055141
255	0xbd8e069a	-0.06934853

conv_block2.0.bias f4 [10]
0	0x3d0b0106	0.033936523
1	0xbc7e6f98	-0.015529536
2	0x3cedaf34	0.029014207
3	0x3da4bd69	0.080439396
4	0xbd5ad04c	-0.053421304
5	0xbd518400	-0.051151276
6	0x3d53d41e	0.051715963
7	0x3bbd1e20	0.0057714134
8	0xbc3e12c0	-0.01160115
9	0xbdbd9ff4	-0.09259024

conv_block2.2.weight f4 [10, 10, 3, 3]
0	0x3db6e791	0.089308865
1	0xbb82ced0	-0.003991939
2	0xbc9f0c54	-0.019415058
3	0xbd313b4b	-0.043269437
4	0xbcaa6770	-0.020801276
5	0x3d51d92e	0.05123251
6	0xbb1ec560	-0.0024226531
7	0x3db89ef1	0.09014691
8	0xbbc76b30	-0.006085776
9	0xbc77c158	-0.01512178
10	0x3d73b49e	0.05949842
11	0xbb32c040	-0.0027275234
12	0xbcac59dc	-0.021038942
13	0x3d104df2	0.035230584
14	0x3daa3f8b	0.08312901
15	0x3cd77d3c	0.026304834
16	0x3d9651e3	0.073398374
17	0x3d8be5b5	0.068309225
18	0x3cf43314	0.029809512
19	0x3d161de2	0.036649592
20	0x3d0b522a	0.034013905
21	0x3c332380	0.010933757
22	0x3db7a7c9	0.08967549
23	0x3dc7492f	0.097307555
24	0x3d19b34a	0.0375245
25	0xbbac7d80	-0.005263984
26	0x3dc18e19	0.09450931
27	0xbda805bc	-0.08204219
28	0x3d9e9fb1	0.077453025
29	0x3d64c16a	0.055848517
30	0x3d8a9f87	0.06768709
31	0xbc04b270	-0.008099183
32	0xbda110f6	-0.07864563
33	0x3d99fe89	0.07519252
34	0xbd3cc9b2	-0.04609079
35	0x3ce33374	0.027734496
36	0x3d749c06	0.059719108
37	0xbdc9be61	-0.09850765
38	0x3be53970	0.0069953725
39	0xbd195f0a	-0.037444152
40	0x3d99387d	0.074814774
41	0xbd897330	-0.067114234
42	0x3d83131f	0.064001314
43	0x3d869d79	0.06573004
44	0x3d6e34d6	0.058155857
45	0x3dcf3ee5	0.10119418
46	0x3c82c7ac	0.015964352
47	0xbdc3aafb	-0.09554096
48	0x3d9a1b9b	0.075247966
49	0x3c1e1a88	0.00964988
50	0x3b091760	0.0020918474
51	0xbdcda4aa	-0.10041173
52	0xbcc21470	-0.023691386
53	0xbd518f84	-0.051162258
54	0x3dd36ef7	0.10323899
55	0x3d99b623	0.07505443
56	0x3da10ae5	0.07863406
57	0x3d93d75d	0.07218812
58	0xbd85d136	-0.065340444
59	0xbd396d1c	-0.04527007
60	0xbd28f7cc	-0.041251943
61	0xbd2d155c	-0.042256698
62	0x3da80be7	0.08205395
63	0x3d12b24e	0.035814576
64	0x3dacfead	0.08447013
65	0xbba193a0	-0.0049309283
66	0xbdc0708d	-0.09396467
67	0xbcfa866c	-0.030581675
68	0x3d97b7d1	0.07408107
69	0x3d836d85	0.064173736
70	0x3d05a8d2	0.032631703
71	0xbcfd4acc	-0.030919455
72	0xbdc97e93	-0.09838595
73	0xbd67fe84	-0.05663921
74	0x3d611bfa	0.05495832
75	0xbd2e26fa	-0.04251764
76	0x3d4e8696	0.05042132
77	0x3cebc644	0.028781064
78	0xbd25d506	-0.040486358
79	0x3d837c99	0.064202495
80	0xbd0abcc4	-0.033871427
81	0xbb658160	-0.003501974
82	0xbd24762c	-0.04015176
83	0xbdccc6a0	-0.09998822
84	0x3c8b3b30	0.016995996
85	0x3cf98754	0.030460037
86	0xbd59619b	-0.0530716
87	0x3d846e05	0.06466297
88	0xbdc1a79a	-0.094557956
89	0xbdd019fc	-0.10161206
90	0xbd855640	-0.065105915
91	0xbd153794	-0.036429957
92	0xbc3fccd8	-0.011706553
93	0xbca6df34	-0.020370103
94	0x3d450c72	0.048107572
95	0xbdbd75cc	-0.092509836
96	0x3c7e4ce0	0.015521258
97	0x3aef43c0	0.0018254444
98	0x3ce4146c	0.02784177
99	0x3dd699a5	0.10478524
100	0x3d84dca5	0.06487397
101	0xbd6f10c2	-0.05836559
102	0xbdb0e6e3	-0.08637788
103	0xbcd10ea8	-0.025519684
104	0xbd5894a3	-0.052876126
105	0x3d16d092	0.036820002
106	0x3a7d4e00	0.0009662807
107	0x3dada2c9	0.084783144
108	0x3d2998b6	0.041405402
109	0xbc9ec63c	-0.019381635
110	0x3b6d6e60	0.0036229119
111	0x3ccecc94	0.025244035
112	0xbc564d40	-0.013079941
113	0x3dae3317	0.08505838
114	0xbda8cb92	-0.08241953
115	0x3d5270ca	0.051377095
116	0xbd899c37	-0.06719249
117	0xbdbd207a	-0.0923471
118	0xbcb146b8	-0.021640167
119	0x3d5265a2	0.051366456
120	0x3d988803	0.07447817
121	0x3cd8b124	0.026451655
122	0xbc1543d8	-0.0091104135
123	0xbbc1a1c0	-0.0059091747
124	0xbd2f06a4	-0.042730942
125	0xbc1afa90	-0.009459153
126	0xbbeea770	-0.0072831437
127	0x3db7b449	0.089699335
128	0x3d7caed2	0.06169016
129	0xbdacc039	-0.08435101
130	0x39e49d00	0.00043604523
131	0xbd84c7b8	-0.06483406
132	0xbc891324	-0.01673276
133	0xbdab92b5	-0.083775915
134	0x3ce07acc	0.027402304
135	0xbd9baa3e	-0.076008305
136	0x3dd51e95	0.10406224
137	0x3da3081f	0.07960533
138	0xbd949a06	-0.0725594
139	0xbdcb3dd3	-0.099239014
140	0x3b86c4e0	0.004112825
141	0xbcf10d10	-0.029425174
142	0x3cfd7fa4	0.030944653
143	0xbd922187	-0.07135301
144	0x3d30bc52	0.043148346
145	0xbdba76f2	-0.09104718
146	0xbd63de39	-0.05563185
147	0xbd62f99d	-0.05541383
148	0x3d50ec52	0.051006623
149	0xbb34dcc0	-0.0027597398
150	0xbdcf770f	-0.101301305
151	0xbd7695ad	-0.060201336
152	0xbd47ce8e	-0.04878097
153	0xbdc84c54	-0.097801834
154	0x3c5d23e0	0.013497323
155	0x3d19d9e6	0.03756132
156	0xbc9e6f6c	-0.01934024
157	0xbd2bd0b0	-0.041947067
158	0xba279400	-0.0006392598
159	0xbdab77d4	-0.08372465
160	0xbd8372d3	-0.06418385
161	0xbb1d8c60	-0.002403997
162	0x3dbfc801	0.093643196
163	0xbd04c4c8	-0.032414228
164	0x3d56010e	0.0522471
165	0xbd29eafa	-0.041483857
166	0xbce5dd7c	-0.028059714
167	0xbdcd8107	-0.10034376
168	0x3db2da11	0.08732999
169	0x3dd234df	0.102639906
170	0xbb1117c0	-0.00221394
171	0x3d892997	0.06697386
172	0x3db09363	0.08621862
173	0x3d567602	0.052358635
174	0x3d5e5ce2	0.0542878
175	0xbdcd8394	-0.10034862
176	0xbdcadab8	-0.099049985
177	0xbda5b1f8	-0.080905855
178	0x3d070c12	0.032970496
179	0xbdbabac5	-0.09117655
180	0xbda4ca18	-0.08046359
181	0xbd514605	-0.051092166
182	0xbdc6f8c4	-0.09715417
183	0x3914ee00	0.00014203042
184	0x3c7927a0	0.015207201
185	0xbd7ca9fb	-0.061685544
186	0x3d8d597b	0.06901833
187	0xbd23ea00	-0.04001808
188	0xbcf31a28	-0.029675558
189	0x3da478e3	0.0803087
190	0x3db957b1	0.09049929
191	0xbc462008	-0.012092598
192	0xbd9af965	-0.075670995
193	0xbd58994a	-0.052880563
194	0x3c5beb08	0.013422735
195	0x3d7d17a2	0.061790116
196	0x3d56f296	0.05247744
197	0xbd3ea7f0	-0.046546876
198	0xbdcc1581	-0.09965039
199	0xbdbcecd5	-0.092248596
200	0xbd095db0	-0.033536613
201	0x3aad5000	0.0013222694
202	0xbd41ef35	-0.047347266
203	0xbdaab22c	-0.08334765
204	0x3c3601d8	0.011108838
205	0xbdab59ee	-0.08366762
206	0xbda5c72f	-0.08094632
207	0xbdaf7f4e	-0.08569203
208	0xbce9fd30	-0.028563112
209	0x3dbead17	0.09310358
210	0x3d28c82a	0.041206516
211	0xbc4cc590	-0.012498274
212	0x3cb1b87c	0.021694414
213	0x3d2bede6	0.041974925
214	0x3a20fe00	0.00061413646
215	0xbdae1f2d	-0.0850204
216	0xbd850158	-0.06494397
217	0xbd92a84d	-0.07161007
218	0xbb2f69a0	-0.0026765838
219	0xbdc59d80	-0.09649181
220	0xbc9d013c	-0.019165628
221	0xbd1de196	-0.038545214
222	0x3dd3db3b	0.10344549
223	0x3daf7891	0.08567918
224	0x3d7ac98a	0.06122736
225	0x3bc1b600	0.0059115887
226	0xbd0bca7c	-0.03412865
227	0x3cdc41ac	0.026886784
228	0xbd952818	-0.07283038
229	0xbd382553	-0.04495747
230	0xbcad7794	-0.021175183
231	0xbccae2e8	-0.0247664
232	0xbdcc807a	-0.099854425
233	0x3d2ba2f2	0.041903444
234	0x3db1c593	0.086802624
235	0xbd6e2532	-0.05814094
236	0x3ce8c61c	0.028414778
237	0xbc484a60	-0.012224764
238	0xbb7bf480	-0.0038445294
239	0x3bc95630	0.0061443076
240	0x3dbb1385	0.091345824
241	0x3c6767b0	0.014123842
242	0xbd8894c7	-0.06669002
243	0xbd1b4f00	-0.037917137
244	0x3d52ecbe	0.051495306
245	0x3d06bb46	0.03289344
246	0x3b064360	0.0020486936
247	0xbc63ed70	-0.01391159
248	0xbd27fc84	-0.041012302
249	0xbd193df8	-0.037412614
250	0xbd63bed2	-0.055601902
251	0x3c8d7f28	0.017272547
252	0x3cf282bc	0.029603355
253	0x3da54ec1	0.08071662
254	0xbcc31440	-0.023813367
255	0x3bf74570	0.0075461194

conv_block2.2.bias f4 [10]
0	0x3da632db	0.08115169
1	0x3da1d753	0.07902398
2	0x3d1347b2	0.035957046
3	0xbdc4a4c1	-0.09601737
4	0x3c5e5500	0.01357007
5	0xbd17d4aa	-0.037068047
6	0xbcf2bde4	-0.029631563
7	0x3da5677b	0.08076378
8	0xbd12baa8	-0.03582254
9	0xbd9a9b0b	-0.07549103

classifier.1.weight f4 [3, 2560]
0	0xbc81f860	-0.015865505
1	0x3c4c73f6	0.012478819
2	0x3a7a0020	0.0009536762
3	0x3c9fe955	0.019520441
4	0x3b847188	0.0040418543
5	0xbc96e2bb	-0.01841866
6	0x3ba03ad0	0.0048898235
7	0x3c94274d	0.018085146
8	0x3c48d74e	0.012258364
9	0x3bc25930	0.005931042
10	0xbc734902	-0.014848949
11	0xbc422c08	-0.011851318
12	0x3c5be066	0.0134202
13	0xbc5885e0	-0.013215512
14	0x3b93bf40	0.0045088828
15	0xbb25f430	-0.002532255
16	0x3bd90280	0.0066226125
17	0x3aa98110	0.001293214
18	0xbc76a459	-0.015053832
19	0xbc01137d	-0.0078781815
20	0x3c8d371b	0.01723819
21	0x3b187938	0.0023265611
22	0x3c243172	0.010021554
23	0xbc235ddf	-0.009971111
24	0x3c802c67	0.015646173
25	0xbb8aa29a	-0.0042308094
26	0xbbda4b4c	-0.006661808
27	0x3b836024	0.0040092636
28	0xbbe80e5a	-0.007081789
29	0xbc022034	-0.007942248
30	0xbb3958c8	-0.0028281678
31	0xba93e510	-0.0011283476
32	0xbc382c19	-0.011240982
33	0x3bdd5ec8	0.0067556836
34	0xbc9ceb42	-0.019155148
35	0x3c46c78e	0.0121325385
36	0x3c962a13	0.01833061
37	0x3b518d68	0.0031975154
38	0xbb97533e	-0.0046180775
39	0xbc944ad0	-0.01810208
40	0x3c1810bc	0.009281334
41	0x3c84aa2b	0.016194424
42	0x3c8a6b79	0.01689695
43	0x3ae6ffa0	0.001762379
44	0x3bd75048	0.0065708496
45	0x3c9b2473	0.018938279
46	0x3b4154b8	0.002949996
47	0xbc1c5441	-0.009541572
48	0xbc99b87b	-0.018764725
49	0x3c0d9390	0.008641139
50	0x3bfc4820	0.0076990277
51	0x3c8fe2bb	0.017564168
52	0xbc24db69	-0.010062077
53	0x3c0b1644	0.008489195
54	0xbbd645cc	-0.006539082
55	0xbba0f5ba	-0.0049121054
56	0x3c3cf16a	0.011532167
57	0xbc946b06	-0.018117439
58	0x3c6eb29e	0.014568953
59	0x3c169b5e	0.009192316
60	0xbc40736a	-0.011746267
61	0x3c253e14	0.010085601
62	0xbba2e6a8	-0.004971344
63	0x3ae92410	0.0017787237
64	0xbbad5848	-0.005290065
65	0xbc9e86e1	-0.019351425
66	0xbb0625f8	-0.0020469408
67	0x3c1dff2c	0.009643357
68	0xbb16b350	-0.0022995062
69	0xbc1f73a6	-0.009732163
70	0x3a242a60	0.0006262418
71	0x3b6c5ec0	0.0036067218
72	0xbbb4b33e	-0.0055145314
73	0xbc7b1d78	-0.01532685
74	0xbc2d9cc6	-0.01059646
75	0xbb532bf0	-0.0032222234
76	0x3be93dac	0.0071179476
77	0x3c8ffb25	0.01757581
78	0x39c04f40	0.0003668014
79	0x3be7e164	0.007076429
80	0x3c3a50aa	0.011371771
81	0xbc0d3379	-0.008618229
82	0xbbd6e564	-0.006558107
83	0x3c56ca36	0.013109734
84	0x3c67d96a	0.014150957
85	0x3b997674	0.00468331
86	0xbc7a3d82	-0.015273454
87	0x3c37cb54	0.011217911
88	0xbc85d111	-0.016335042
89	0x3c21d9e2	0.0098786075
90	0x3b198208	0.0023423452
91	0x3bd1320c	0.00638414
92	0xbc9dd1f1	-0.019265147
93	0xbbe3b138	-0.0069486164
94	0x3c09862a	0.008393804
95	0x3c793cd6	0.015212258
96	0xbbb96960	-0.0056583136
97	0x3c9061c9	0.017624753
98	0xbb90867e	-0.004410564
99	0xbc434f28	-0.011920728
100	0xbc0c3a19	-0.008558773
101	0x3aa13390	0.0012298692
102	0xbb663660	-0.0035127625
103	0x3c1cba92	0.009565966
104	0xbc333521	-0.01093796
105	0xbbb83ba2	-0.005622343
106	0xbca0741c	-0.019586615
107	0x3c842825	0.016132424
108	0xbb73b8b8	-0.0037188958
109	0xbc7f44e0	-0.015580386
110	0xba7a0220	-0.000953706
111	0xb8175000	-3.607571e-05
112	0x3bb3ddc8	0.005489085
113	0xbb0e2b88	-0.0021693427
114	0x3c4bb396	0.012432953
115	0xbbdf7304	-0.006819131
116	0xbbc1d806	-0.0059156446
117	0xbb99cb2a	-0.0046934085
118	0x3b673e90	0.0035285093
119	0x3c81b977	0.015835507
120	0xba6e6640	-0.0009094216
121	0x3c792782	0.015207173
122	0x3c7e5f9a	0.015525723
123	0xbc28986d	-0.010290247
124	0xbade9460	-0.0016981475
125	0xbc18dc60	-0.009329885
126	0x3c06b316	0.008221408
127	0xbbe3b030	-0.0069484934
128	0x3bc58f94	0.0060290787
129	0x3a9ac550	0.0011808071
130	0xbc549327	-0.012974537
131	0xbc59b34f	-0.013287379
132	0xbc9e23e2	-0.01930422
133	0xbc35232a	-0.011055747
134	0x3bb4eb64	0.005521225
135	0x3a9dd4b0	0.0012041535
136	0x3c738b2a	0.014864722
137	0xbc8e5e5b	-0.017378977
138	0xba176680	-0.00057754666
139	0xbc912ce3	-0.017721599
140	0x38f2a000	0.000115692616
141	0x3bebf4fc	0.0072008353
142	0xbc913d32	-0.017729376
143	0x3c8efd71	0.017454835
144	0xbbc92640	-0.006138593
145	0x3c8f74f7	0.017511828
146	0xbb596990	-0.0033174492
147	0x3c37b4d2	0.0112125445
148	0x3c932ff5	0.017967204
149	0xbbebc95c	-0.007195635
150	0xbb9d6e6c	-0.004804423
151	0x3c29da08	0.010366924
152	0xbc8a9d6f	-0.016920773
153	0x3c3fad2e	0.011699004
154	0xbc4b64d6	-0.012414178
155	0x3c965ff3	0.018356299
156	0xbc5437f6	-0.012952795
157	0xbc054126	-0.008133208
158	0x3c71a0b2	0.014747785
159	0xbc0cfc59	-0.008605086
160	0x3c8ac7b9	0.016940938
161	0x3c5ecae6	0.013598179
162	0x3c93fc81	0.01806474
163	0xbc9cef63	-0.019157117
164	0x39684600	0.00022151321
165	0xbbd50408	-0.0065007247
166	0x3b9a44d4	0.004707912
167	0xbc747fa2	-0.014923008
168	0x3c04c854	0.008104403
169	0xba757280	-0.000936307
170	0xbc191093	-0.0093423305
171	0xbc91a751	-0.017779978
172	0x3c2960e4	0.010338042
173	0xbbea61de	-0.00715278
174	0x3c6eefe2	0.01458356
175	0x3b669398	0.0035183188
176	0x3bc4f8c4	0.0060111005
177	0xbb447238	-0.0029975306
178	0xbb336d00	-0.0027378201
179	0xbbdc01f6	-0.006714101
180	0xbc8c3262	-0.017113868
181	0x3c4b952a	0.0124257
182	0xbc4bebc5	-0.012446349
183	0x3c3cbb9e	0.011519341
184	0xbbda6f90	-0.0066661313
185	0x3c4adc8a	0.012381682
186	0x3c8ac25f	0.016938386
187	0xbc460c71	-0.012087927
188	0x3c85b12d	0.016319836
189	0x39fc8d00	0.0004817024
190	0xbc775fc0	-0.015098512
191	0x3c042f9c	0.008067992
192	0x3c375ba8	0.011191286
193	0x3c8eb96f	0.017422406
194	0xbc9a1fc5	-0.018813977
195	0x3c923287	0.017846359
196	0x3c757cfa	0.01498341
197	0x3c9f478b	0.019443294
198	0x3c307b7e	0.01077163
199	0xbc1d696b	-0.009607653
200	0x3c75a6ca	0.014993379
201	0x3c93f895	0.01806287
202	0xbbf7a2ca	-0.0075572478
203	0xbb53b9a0	-0.0032306686
204	0x3c7d65be	0.015466152
205	0x3c825567	0.015909864
206	0x3c55e8ca	0.0130559895
207	0x3c78163a	0.015142018
208	0xbc2668be	-0.010156808
209	0xbb5f7410	-0.0034096278
210	0xbc015e2b	-0.007895987
211	0x3c284cd6	0.010272225
212	0x3ba16604	0.0049254913
213	0xbc7a2234	-0.015266944
214	0xbb22b370	-0.0024826191
215	0xbc84077a	-0.016116846
216	0xbc985ffb	-0.018600455
217	0x3c9399b5	0.01801763
218	0xbc22e30a	-0.009941826
219	0x3c10877e	0.008821366
220	0xbb9036dc	-0.004401071
221	0xbb832540	-0.0040022433
222	0xb7562800	-1.2764707e-05
223	0x3c7c8dd2	0.015414672
224	0xbb332eb0	-0.002734106
225	0x3c85f94d	0.016354227
226	0x3c3d77ce	0.011564208
227	0x3c5e2436	0.013558438
228	0xbc92d76a	-0.017924983
229	0xbc176a59	-0.009241664
230	0xbc83e930	-0.016102403
231	0xbb898cda	-0.004197699
232	0xbb8623ac	-0.004093608
233	0x3b839a10	0.0040161684
234	0x3c9110bd	0.017708177
235	0x3c115cfc	0.008872267
236	0xbc6154a8	-0.013753094
237	0xbc4b1470	-0.012395009
238	0x3c748422	0.014924081
239	0x3b00efb0	0.0019674115
240	0x3bb6f5b8	0.005583491
241	0xbc295e2b	-0.010337393
242	0xbb1df500	-0.002410233
243	0x3bb8627c	0.0056269746
244	0xbc547f40	-0.012969792
245	0x3c5357d2	0.012899356
246	0x3c215f56	0.00984939
247	0xbc3cd759	-0.011525952
248	0xbc04ca90	-0.008104935
249	0xbb98426e	-0.004646591
250	0x3b4993e8	0.0030758325
251	0xbbed90b4	-0.007249916
252	0x3c9ae29d	0.018906886
253	0xbc9bf3ae	-0.019037094
254	0xbc370576	-0.011170736
255	0xbc448cd4	-0.011996467

classifier.1.bias f4 [3]
0	0x3b8ed66c	0.004359057
1	0x3c34f958	0.011045776
2	0x3bae016c	0.005310228
