Projects/Course Projects/Fashion-MNIST Model.pth (torch, 35506 bytes, 10 tensors)

block_1.0.weight f4 [10, 1, 3, 3]
00000000: 7b99 813e 8e7b bb3e 054d ddbe 4b24 c83e
00000010: 5953 ba3e e839 023e cd93 cfbe a918 cdbd
00000020: d4b3 be3d 42ce 2cbf 416c e03e 0e6b 2cbd
00000030: e883 543e abc8 ec3e d0a7 503e 3415 c03d
00000040: 6b76 8e3e 2f93 103d 6861 40be 0faa 74be
00000050: 231f 3fbe 58e2 26bf 3bbb 45bf b50d 9bbe
00000060: a273 33bf de0a 6abf dce0 34bf 4c9b 80be
00000070: 1819 3cbc 0fe3 bebe 4708 7a3e 3c5d abbe
00000080: 322c 273e 123a 1cbc f018 3dbe 1093 ad3d
00000090: acbc 3dbe 1fbc d53e 0d5d df3d 9aec 67bd
000000a0: 3792 433e 0983 8dbe b309 813e 74f1 0b3f
000000b0: 74ca 893d c50d 17be 51fa 413e 5763 873d
000000c0: d0ae 283e 5344 52be 0986 aabe 0fc6 07be
000000d0: 2407 84be d0d6 773e 1cfd 39bb b803 003d
000000e0: 9156 1cbc 6a49 c3bd 80da 1e3e 8397 b2be
000000f0: 3d6b 9abd c83c abbe f0f2 09bc e11a 27be
00000100: 9e14 8b3d d2cf aebe ba74 b83e a99b 9ebd
00000110: 9178 81be 425a 32be a836 f43e 9363 ae3d
00000120: cc59 bc3c 1784 20bf 56af 57bf 3e7a 49be
00000130: 4f59 27be d637 9f3c 4f23 1d3e 93c5 593f
00000140: e171 793e 2217 68be 103c 373e ef18 09be
00000150: e373 503e 9c39 a1bd 0ed0 433e e3ae 84be
00000160: b138 2cbe b8ef d43d
0.2531241 0.36617702 -0.43222824 0.3909019 0.36391714 0.12717402 -0.4054245 -0.10014469
0.09311643 -0.67502224 0.4383259 -0.042094283 0.20753443 0.46246848 0.20376515 0.09379044
0.2782472 0.035296615 -0.18787158 -0.23892997 -0.18664221 -0.65189123 -0.77238816 -0.30283895
-0.70098317 -0.9142283 -0.7065561 -0.25118482 -0.011480592 -0.37282607 0.2441722 -0.3346957
0.16325453 -0.009535329 -0.18466544 0.084753156 -0.18529004 0.41745088 0.1090642 -0.056622125
0.19098745 -0.27639034 0.25202712 0.54665303 0.06728068 -0.14751346 0.18943144 0.066107444
0.16472936 -0.20533876 -0.33305386 -0.13259147 -0.25786698 0.24203038 -0.0028379625 0.031253546
-0.009542123 -0.09535487 0.15513039 -0.3488122 -0.07539985 -0.3344481 -0.008419737 -0.16318847
0.06791042 -0.3414293 0.36026555 -0.077445336 -0.25287297 -0.17417243 0.4769795 0.08515086
0.022992037 -0.62701553 -0.84251916 -0.19675538 -0.16342662 0.019435804 0.153455 0.850671
0.24359848 -0.22665074 0.17894006 -0.13388418 0.20356707 -0.07872316 0.19122335 -0.25914678
-0.16818501 0.10397285

block_1.0.bias f4 [10]
00000000: 3b9f 7f3e 2f34 973d 53eb c63e 9e0b 01be
00000010: 74f9 d1be b0a2 50be abcd 71bd 5d43 2cbe
00000020: c8f6 30be bf16 a4be
0.24963085 0.07383 0.38851413 -0.12602088 -0.4101063 -0.2037456 -0.05903403 -0.16822572
-0.1728164 -0.32048604

block_1.2.weight f4 [10, 10, 3, 3]
00000000: f7b5 03be 2379 52bd 96c7 babd fff4 13be
00000010: 1259 8bbd ef71 14be 823c 1abe 2519 fcbd
00000020: 4b00 25be d626 00be db4d 303d 83d8 3ebd
00000030: ec91 c8bc 7443 1abe d2ee 0cbe 8c51 b3bd
00000040: 0cc0 2ebd 1b1d 25be b39e 19bd 1550 60bd
00000050: ada6 6e3c d0a0 13bd 8ec2 063b a42a 6dbd
00000060: 41ff 8bbd 079d 58bd 246d 9bbc 2609 d0bd
00000070: 877c 5d3d 93cd 2abd 558b 7f3d 331b 1a3b
00000080: 80b3 e6bd b5de 2d3d 3a70 80bd 7ffa 80bd
00000090: 86e8 d2bd 9820 f1bd 84ee 453c 7c8c 1fbd
000000a0: ed35 e53c 120b d6bd b903 843d 0326 b9bd
000000b0: 65ad 15bd fe15 b43c 6bb2 5e3d 892c ae3d
000000c0: 3e7e c43d c73b abbd 7533 d93c 96da 39bd
000000d0: 9bca 3dbc b498 a1bd 1532 5d3d 1983 e7bd
000000e0: cf33 da3c 9774 f1bb 0e08 d4bb c7e7 b5bd
000000f0: 64c7 643d 65f7 2dbc 727f 95bc b1f4 bebd
00000100: f5b0 303d ded8 86bc 50cb 4bbd dfc8 b63d
00000110: 3e21 b43c 2c6e 71bd 5309 5ebd 05dc babb
00000120: 0260 713d ae76 dfbc 64f3 77bd 04f8 15bd
00000130: 342e a3bd 7f36 153d a254 a63d 3487 ccbd
00000140: ccd6 c53c d409 5f3d 6e3a 9c3c 50c2 19bd
00000150: 553d 613d 81e4 623d ae71 213d ebbc 97bc
00000160: 4fef e4bc 9dc0 383c 5631 1fbc e899 27bd
00000170: 57f4 4c3d 57dc 0f3e e2d8 13bc 83f0 46bd
00000180: 3e3f d43c 721e 98bc 9762 883a c326 f33c
00000190: 2fb3 f9bd dcd9 94bd 4f05 b43d bc60 65bb
000001a0: f6d9 24bd 8b9f ebbd dbaf c1bd 2a0b fbbd
000001b0: 0bd8 49bd 12d7 cd3c 7ef8 a33d d641 023d
000001c0: 4566 d6bd 629c 18bd 7ccc ddbc 1bfc d33d
000001d0: 5812 253d 4671 dbbc d225 333d 0e56 24bd
000001e0: 3d03 8bbd cd6f a13d a011 46bd f904 adbc
000001f0: 092b d5bd e389 913d c082 a93d bb9f a03c
00000200: 9ae4 bcbd befe f2bd 7722 d9bd b28b 903d
00000210: 6c24 9b3c 39fe 8e3d 20a0 253d 3e2f db3c
00000220: 1575 68ba 0520 a4bd b9a8 b8bd 7fbe c9bd
00000230: e2d7 303d a4e2 53bd aec5 adbc a996 78bd
00000240: 422a 9ebc 7434 98bd 4448 8dbd fe38 0e3d
00000250: f054 01bd ef9c 843d f166 0bbd 4dbb 9ebd
00000260: 4440 99bc 011e 3ebd 0c15 efbc 1b54 d1bd
00000270: f170 793d 19b1 a2bd 6151 5d3d aaaf 3d3d
00000280: dbc1 9b3d eb3e b1bd 96d3 a33d e63d 64bd
00000290: f94e 063d d674 b13d 2b91 abbc 3cb0 6cbb
000002a0: bacf fbbc ee37 c1bd 77a2 1e3d 5d4e d6bd
000002b0: 6b07 863d 4487 a13d 252a cc3d 91b2 cbbc
000002c0: 395e b1bd c123 c23c 9283 6e3d 8cdd d6bd
000002d0: 5125 c4bc f069 81bd 09ca 16bc 26bc 54bd
000002e0: 4fa5 30bd 1019 09bd f584 cdbd f4c7 b03d
000002f0: 50a9 b43d 205e 87bc 64a4 44bc 5237 30bd
00000300: 8819 c3bd c221 d2bd ea49 203d 0052 6ebd
00000310: 8996 8bbd bf48 0cbc c53e 10bd 34db 0cbd
00000320: 66a9 593b 4de6 b7bc 91a3 15bd 55ea 4ebd
00000330: acc5 afbd 787c b43d c6ca 2cbd ff0a e23c
00000340: 10e2 16bd 06d0 0a3c 1a9c c73d ed44 443d
00000350: abda bbbd cb9a 273d b90b cb3d 0821 de3c
00000360: eebf 903d f9d3 d43d 7c50 84bc dd6f b23c
00000370: 6c33 96bd f498 b2bc 0b8d 9f3d c9b1 5c3d
00000380: 91ed 88bd 061c adbd f685 93bd 9b0b d5bd
00000390: 7b94 a6bd dd97 d5bc 63b2 913d 6489 903c
000003a0: d731 a4bd c02e adbd 4b91 553d 8d2c a1bd
000003b0: de09 56bc d0b7 4d3d 5844 49bd b71b 3fbc
000003c0: 11a2 1bbc 65b9 cebc 054f 5bbd d16f c0bd
000003d0: d081 aebd 5f30 67bd 5b4f d03d 018d 50bd
000003e0: 3c0c 91bd 2341 d13c e183 ed3c 2b37 6c3d
000003f0: af21 a43d 0862 703d 0e0b d6bd 9925 193c
-0.12862383 -0.051385056 -0.09120099 -0.14448927 -0.06804098 -0.14496587 -0.15062144 -0.123094834
-0.16113393 -0.12514815 0.043043 -0.0465932 -0.024483643 -0.15064794 -0.13762978 -0.08755788
-0.04266362 -0.16124384 -0.037504863 -0.054763872 0.014566106 -0.036042035 0.002056274 -0.057901993
-0.06835795 -0.052884128 -0.01897294 -0.10157995 0.054073837 -0.041699957 0.062388737 0.0023514747
-0.11264706 0.042448718 -0.062714055 -0.06297778 -0.102982566 -0.11773795 0.012080792 -0.038952336
0.027979815 -0.1045133 0.064460225 -0.09040453 -0.036542315 0.021983143 0.05436937 0.08504588
0.09594391 -0.08361011 0.026513794 -0.045374475 -0.011583949 -0.07890454 0.05400284 -0.11304302
0.026636032 -0.007368635 -0.0064706868 -0.08882099 0.055854216 -0.0106180655 -0.018249247 -0.09324015
0.04313751 -0.016460832 -0.04975444 0.08925032 0.021988507 -0.05894296 -0.05420811 -0.005702498
0.05892945 -0.02727827 -0.06053485 -0.03661348 -0.07967797 0.036428925 0.08121611 -0.099867254
0.024150275 0.054452732 0.01907083 -0.037538826 0.05499013 0.0553937 0.039415054 -0.0185227
-0.027946142 0.011276391 -0.009716352 -0.04091826 0.050037708 0.14048897 -0.009023877 -0.048569214
0.025909062 -0.018569205 0.0010405359 0.029681569 -0.1219238 -0.07268116 0.08790075 -0.0035000285
-0.040246926 -0.1150504 -0.0945737 -0.12257989 -0.0492783 0.025126968 0.080063805 0.031801067
-0.10468725 -0.037258513 -0.027075045 0.1035082 0.040300697 -0.026787411 0.04373724 -0.04012113
-0.06787727 0.078826524 -0.048356652 -0.021120535 -0.10408599 0.07106378 0.08276892 0.019607415
-0.0922329 -0.118649945 -0.10602277 0.07057895 0.018938266 0.06982083 0.04043591 0.026755925
-0.0008867544 -0.0801392 -0.09016556 -0.09850787 0.043174632 -0.051729813 -0.021212425 -0.060690556
-0.01930726 -0.0743188 -0.06898549 0.03472232 -0.031575143 0.06475245 -0.03403372 -0.077505685
-0.018707402 -0.046415333 -0.02918484 -0.1022112 0.060898725 -0.07943935 0.054032687 0.046310104
0.07605334 -0.08654579 0.07999341 -0.055723093 0.032790158 0.08664863 -0.020943245 -0.0036115786
-0.0307387 -0.09434496 0.038729157 -0.10464165 0.065443836 0.07887128 0.09968976 -0.02486542
-0.0866055 0.02369869 0.058230944 -0.104914755 -0.023943575 -0.06319034 -0.009203442 -0.051937245
-0.0431264 -0.033471167 -0.10035125 0.08631888 0.08821356 -0.016524374 -0.012002084 -0.043021508
-0.09526354 -0.10260345 0.03913299 -0.05818367 -0.06815822 -0.008562266 -0.03521611 -0.034388736
0.0033212542 -0.022448683 -0.036532942 -0.050516445 -0.08582625 0.08812803 -0.042185567 0.027593134
-0.036836684 0.008472448 0.09746571 0.047917295 -0.09172567 0.040919106 0.09914345 0.02711536
0.07067858 0.10391993 -0.01615166 0.021781856 -0.07334027 -0.02180145 0.07790574 0.053880487
-0.06685937 -0.08452611 -0.072032854 -0.10402604 -0.08133789 -0.02607339 0.07114103 0.017643638
-0.08017319 -0.084561825 0.052140515 -0.078698255 -0.013063876 0.050224125 -0.049137443 -0.011664323
-0.009499089 -0.025234887 -0.053542156 -0.09396327 -0.085208535 -0.056442615 0.10171386 -0.05091572
-0.07082412 0.025543755 0.028993549 0.0576698 0.08014237 0.05868724 -0.10451327 0.009347343

block_1.2.bias f4 [10]
00000000: a05f 72bd 57d1 f8bc 4687 69bd 0f20 223f
00000010: 1039 0bbe 4fae a23d ef14 483e 4aad 32bd
00000020: 26da 31be c41c ca3e
-0.059173226 -0.030373259 -0.057013772 0.6333017 -0.13595986 0.07943403 0.19539236 -0.043622293
-0.17368373 0.3947507

block_2.0.weight f4 [10, 10, 3, 3]
00000000: 550c db3c b741 afbd 3f95 82bd 78af 863a
00000010: f164 6d3c 1120 703d c48c 98bd bb05 093d
00000020: 90cd 763d 7787 5b3d 939d e3bd ccb8 44bd
00000030: 552c acbd 120e a6bd c316 143d 4556 8abc
00000040: a77a 2a3d c3e0 8dbd 2233 833c c594 82bd
00000050: 35d5 573d 95da 3cbd 878a d8bc 8f4d bbbd
00000060: f056 b739 b0f8 cc3d a191 513d ebd7 c3bd
00000070: 7491 c73d f18d 9dbe 0ef3 a9be 7415 f73e
00000080: a895 abbd 8d4e 053e c248 db3e 5064 043d
00000090: 496d 6d3c a27b 193d 371c ac3c 9859 59bd
000000a0: a257 cf3d addb 8dbc eb76 8bbd 9dbd 4fbd
000000b0: 5c8a cf3d 40ac 3ebe d281 7cbe 78e7 b3be
000000c0: af9b 83be eb30 bb3d ade0 75be d4bf 193e
000000d0: 706f eb3e 5633 9d3e 1444 21be bb5e 053e
000000e0: e36d a3be 66c5 6dbd e24c 183e 8538 51bd
000000f0: 170a 523e c86e 783e 2698 03be 986e 463d
00000100: bb6f 17bd 8df2 3a3d 9112 24bd 7c1a f4bb
00000110: eae4 bbbd ca8e febc 27ea a6bb 5dc8 21bd
00000120: 9bec 91bd e245 c7bd 0ba6 6e3b 77ee 843d
00000130: 128d c03d 84a3 723d c7e1 74bd 64e0 dcbd
00000140: 70e9 153d 3f41 a0bd 1602 eebe 039f cc3e
00000150: aa4d e83d 5d66 d1bd 1972 673e c6ce 123e
00000160: ab13 023f 5137 263e 1439 d6bd a484 e23c
00000170: 7a60 c8bd 3bd5 943d d952 9dbd 9845 213d
00000180: dc58 4bbb 67f0 563b 66e7 0abd a917 4e3d
00000190: e3af 66bd 87b9 eabd 835f a5bb a6dd 9f3d
000001a0: a6ca d2bc 0705 673d df0c 7cbd 611d ab3d
000001b0: 6437 813d 9f71 183d c7a9 5cbd de65 b0bd
000001c0: 552c 823b 8c46 7dbd 717e b13d 2074 cfbd
000001d0: d3ef 403d ac37 4c3e 59dd 0f3e 16de 12be
000001e0: 93a7 14be 8121 da3e ca63 19bd da24 acbd
000001f0: 3d19 89be ef64 92be 6af6 9bbc d45f bc3d
00000200: b209 cdbd 2f47 a8bd b419 943c e033 1abd
00000210: d6e7 9fbb 52ba e0bd aac4 30bd abdd f8bd
00000220: 0d2d 7abe 0ff8 61be ff37 243f cc95 fd3e
00000230: 855b ce3d f156 d23e 083f 25be 954e 48be
00000240: e1f2 56be b60e 663e ac33 dd3d a65d bebd
00000250: 487d 3c3d 5688 333d 3e13 5b3e b4c4 1abe
00000260: a846 1fbd f96c 9f3d f0a8 c1bd d6b6 973d
00000270: 0f6a b5bd 5c69 db3c bcd1 bdbd 8f86 8cbd
00000280: ae1e 6dbc 2b90 27bd 05b6 62bd c07a b4ba
00000290: 1ceb 933d e1c9 053d 686f 773d 4143 9b3c
000002a0: 9f8f dd3c 2cbc 0fbd c5d2 3ebd 4918 c6bd
000002b0: 93e4 99be c801 b73e 292e a7bd 2b13 debe
000002c0: e89e 983e e663 e6be 4b54 b8be 909e fa3d
000002d0: d759 82bd 0e8f 643d eb38 713d 35b2 e0bd
000002e0: e591 e1bd 2bb4 e0bd b3bc a4bd b342 81bd
000002f0: 2ae9 dbbc 7400 e4bc 55d2 5ebd 21fe 13bd
00000300: d339 2cbd b941 d53d eb8d 2ebd ff3c a3bd
00000310: 3e4d 303d c8a8 5dbc 6746 a53d 5be4 863d
00000320: 4857 c63d 1e1a 9ebd 88c9 8a3d 802f b53d
00000330: 4637 55bd 556e c63d add4 a13d 0e22 e5bd
00000340: 39cc 86bd 6f8f 36be bd4b 2bbe 1d36 fb3c
00000350: 6090 153e 8263 9bbe 9f46 1ebe af77 8ebe
00000360: 54ce 8f3d 3df1 b43d 9265 a4ba 51e0 a0bd
00000370: 1770 3d3d c3f8 bebb 16a9 823b 24df 843c
00000380: 5f75 323d 3526 63be e0e1 49be 7a6b b6bd
00000390: 16c4 03be 3f06 da3d d403 ac3e 66a9 57be
000003a0: 9d16 d43d 7b16 c73e 0140 32bd 760b 84bd
000003b0: 4512 79be ad96 d2bd c3b3 fabd f48d 27be
000003c0: 6a72 24be 3580 6abe 8290 46be b615 d4bc
000003d0: c70e 37bd 2f4c 9b3d 5313 03bd d3c0 803d
000003e0: fbc4 4d3c 0ebf d6bd a00c 613c 0b7a 883d
000003f0: 559d e3bd 4b3d c1bd 78d6 7e3d 1562 6f3d
0.026739279 -0.08557456 -0.06376123 0.0010275682 0.014489398 0.05862433 -0.07448724 0.03345273
0.060254633 0.053595986 -0.11114039 -0.0480278 -0.08406893 -0.081081524 0.03615452 -0.01688684
0.041620877 -0.069276355 0.016015593 -0.06376032 0.052693564 -0.046106894 -0.026433242 -0.091456525
0.00034969253 0.10008371 0.051164273 -0.095626675 0.0974454 -0.30772355 -0.3319325 0.48258555
-0.08378154 0.13018246 0.42828947 0.032322228 0.014491388 0.03747142 0.021009548 -0.05306396
0.101241365 -0.017316664 -0.06809791 -0.05071794 0.10133812 -0.18620396 -0.24658898 -0.35137534
-0.25704715 0.0914019 -0.24011488 0.15014583 0.45983458 0.3070323 -0.15748626 0.13024418
-0.31919774 -0.058049582 0.14873078 -0.05107929 0.20511661 0.2426101 -0.12851009 0.048445314
-0.03697179 0.04564147 -0.04005677 -0.0074494462 -0.09174521 -0.031073947 -0.005093831 -0.039497722
-0.07125207 -0.09730126 0.0036414887 0.06490796 0.09401907 0.059237972 -0.05978563 -0.107849866
0.036599576 -0.07824945 -0.46485966 0.39965066 0.11342938 -0.10224602 0.22602119 0.1433669
0.5081126 0.16232039 -0.104601055 0.027651139 -0.097840264 0.07267233 -0.076818176 0.03937301
-0.0031028306 0.00327971 -0.033912085 0.050315533 -0.056320082 -0.11461168 -0.0050467863 0.07805948
-0.025731396 0.05640128 -0.061535712 0.08355213 0.06309393 0.037217733 -0.05387285 -0.086131796
0.00397257 -0.061834857 0.08666695 -0.10129571 0.047103714 0.19943112 0.14049281 -0.14342532
-0.1451705 0.42603686 -0.037448682 -0.084054664 -0.26777068 -0.2859263 -0.019038398 0.09197965
-0.10011615 -0.08216702 0.018078662 -0.037647128 -0.004879932 -0.10973038 -0.043156303 -0.12151655
-0.24431248 -0.22067283 0.64147943 0.49528348 0.1007605 0.41081956 -0.16137326 -0.19561227
-0.20991088 0.2246655 0.10800871 -0.09295206 0.046017915 0.043831192 0.21394059 -0.15114099
-0.038885742 0.07784457 -0.094560504 0.0740792 -0.0885812 0.026783638 -0.09268519 -0.068616025
-0.014472647 -0.040908974 -0.05534937 -0.0013769493 0.07222578 0.03266323 0.06040898 0.018952968
0.027046023 -0.035091564 -0.046587724 -0.09672601 -0.300572 0.35743546 -0.08163101 -0.43374
0.29808736 -0.4499809 -0.3600181 0.12237275 -0.06364792 0.05580049 0.05889217 -0.1097149
-0.11014155 -0.10971864 -0.08043804 -0.0631155 -0.02684458 -0.027832247 -0.054399807 -0.036131028
-0.042047333 0.10412926 -0.042615812 -0.079706185 0.043042414 -0.01352901 0.08070069 0.06586524
0.09684616 -0.07719825 0.0677672 0.088469505 -0.052054666 0.09689013 0.07901893 -0.11188136
-0.06581921 -0.17828153 -0.1672811 0.030665452 0.14605856 -0.30349356 -0.15456627 -0.27825686
0.07021776 0.08835075 -0.0012542477 -0.07855285 0.046249475 -0.0058279946 0.003987442 0.016219683
0.043568965 -0.22182544 -0.1971507 -0.08907218 -0.1286777 0.106457226 0.3359667 -0.21060714
0.10355876 0.3888434 -0.04351807 -0.064474985 -0.24323376 -0.102826454 -0.12241318 -0.16362745
-0.1605927 -0.2290047 -0.19391063 -0.025889259 -0.044691827 0.0758289 -0.03200085 0.06286778
0.012559171 -0.104856595 0.01373592 0.06663903 -0.11113993 -0.09435519 0.062216252 0.058443148

block_2.0.bias f4 [10]
00000000: 1551 75bd 8f5a 16be 143b cbbe 88d4 1abe
00000010: 1976 05be b0e4 8d3d ba4b 53bc 327c 143d
00000020: 884d ac3f b218 eabd
-0.05989178 -0.14682983 -0.3969351 -0.15120137 -0.13033332 0.06928384 -0.012896473 0.036251254
1.3461161 -0.114304915

block_2.2.weight f4 [10, 10, 3, 3]
00000000: 1df0 83be 8811 dcbe 6e41 95be 0474 fd3d
00000010: f1e9 98bc 1746 36bd 49ef 273d a247 323e
00000020: 8d4d 283e c841 383d 266a 7bbe 349a 863e
00000030: 94f4 e9bd adc2 81be c8e6 b4be e469 9e3e
00000040: afa4 d93e 7c94 2ebe 0931 9fbc 0373 e43c
00000050: 389f b73d f7c1 4bbe 975e 853d 5dd1 a33d
00000060: e517 053e 0f86 cabb de54 44be 6791 b2bd
00000070: cae5 d23d 8c3e 7ebd d3fe 9bbd 4442 ebbb
00000080: 8db5 0ebd e93d 20bc 1b43 8fbd 3311 3f3d
00000090: 3656 babd 94fb 173c 7412 773d 37e6 9e3c
000000a0: 58f5 5b3c af31 7c3c c7d5 01bd c354 aabc
000000b0: 442f 34bd aaa6 c0ba 236b 22bd 059f 683e
000000c0: 8721 f2bc d467 dabc e274 eb3d f991 72b9
000000d0: 9105 d4bd dc54 7c3c 974b 2abd 7964 0b3d
000000e0: 8c5f cebd 1f10 8abc a03f 233d dd76 b63d
000000f0: 387c 233d 9d81 bb3c 499a 9f3d da17 843d
00000100: f2cf 9bba 0073 00be a13d 4bbe 65b0 c6bc
00000110: 438e b4bd b840 563d ba90 92bd 0107 103d
00000120: 8292 a63e 3c58 b43d 3744 1fbf ff1e e6be
00000130: 9421 833e 2b90 293f d156 d7be 4156 fcbe
00000140: c637 f33c cdf5 7bbd 79a4 493d d65d 2abd
00000150: b4a5 0d3c 54d7 84bd 7ec1 07bb e223 303d
00000160: 3f48 8f3c 6503 a9bc 3c73 f83b a3e5 84bd
00000170: e827 633c b083 05be f089 673d 4b05 d1bc
00000180: 63ee e9bb ea85 82be 9d54 ff3d d2cc a8bb
00000190: 5cee ca3b aeb3 eabc bb6e 9bbc 0c4d 36be
000001a0: f3da b73c d792 4a3e 2d3f f4bd d931 12be
000001b0: 2ce3 96be e88f 66be 4e8c 77bc 29fb 90be
000001c0: a855 8cbe 52c0 d1bd 4b3f c5be 550c 82be
000001d0: 7181 68bd 92e8 a6bd 1089 4a3d 5bb7 a53d
000001e0: f31e 363c 5b4f 8fbd 252b 9abd 62b9 26bd
000001f0: ca79 083d 3a9a b13b 6fbb 983c e25f ca3d
00000200: b6d7 463d 51d7 b03c 5028 b6bc bce9 4a3d
00000210: f7b8 1a3d 123e c3bd e93e 7fbd 2171 22be
00000220: 6f08 06bd ae89 863c 49a2 e7bd 919b bdbd
00000230: 3856 923c 79c5 64bc 613d 2e3e 5ddc 213d
00000240: 0194 a23d 7d3c b63b 47a0 943d dcc8 a1bd
00000250: b858 183d 4065 c13b a9d5 82bd a8b0 353d
00000260: a785 e4bd 4257 b73d 181b edbb 267b 3a3c
00000270: 00ad b13c 05ec a938 a13b 023d d1df 573c
00000280: cc25 dfbd 8913 9d3d c5a2 41bd f8c0 b1be
00000290: a2ff 533e cddb b13e 7438 d9be a02a 77be
000002a0: d8c0 0d3f 592c a8be f0b4 82be 62a5 90bc
000002b0: a502 0d3d 1388 b73d 91c3 5fbd c69b 44bd
000002c0: 8fbf 6d3d 767b d43b 2df8 2ebc b1d4 b6bd
000002d0: 6ea1 c63e bda9 df3e f5d1 cebd e7df afbe
000002e0: 59c9 4fbe e465 c9bd 3098 4fbe 75ae 14bc
000002f0: 1aa4 2abe 602d 73be 2709 0b3e 2dc8 e1bd
00000300: c76c 31be 2670 aa3e 6c8c f53d cf54 1cbe
00000310: b107 e4bd adbe bcbe cfe7 f2bc 0d4a ffbd
00000320: b4d8 06be 730d 67bd db34 563d 7a65 af3c
00000330: c29e 01bd 445b 63bd bda2 f23a bd90 a6bd
00000340: db81 9e3d a96c 643d 74a0 8a3d 4dd3 04bc
00000350: fb10 a1bd 99ee 993d 0101 3dbd c333 e33c
00000360: 1061 723d da51 cabd a6ff e43b ffe0 19bd
00000370: ca15 993d f3a0 89bd 7001 833d 349a 863d
00000380: 244e 6e3d 0d2a fe3d d6c7 96bb 8ac6 95bd
00000390: 3780 4d3e 5780 023d 81ee c23c 2dce 6dbe
000003a0: 2968 b1bd 5128 f0bd 4850 653d fef9 223d
000003b0: 02cc 2b3d 93c6 f33c d209 c6bd 7e12 a3bd
000003c0: db75 babd daff a9bd 1b9b 1b3d 810b cc3d
000003d0: 8657 573d faa3 babd 1f34 d7bd 1b3f 43bd
000003e0: 28fa cd3c 034a 153d 613b 45ba ba77 d1bd
000003f0: 8bea 80be d411 4ebe 5ed4 a03a 248c 10be
-0.2576913 -0.42982125 -0.2915148 0.12375644 -0.01866624 -0.044500437 0.040999684 0.17410138
0.16435833 0.04498461 -0.24552211 0.26289523 -0.11423603 -0.25343838 -0.35332322 0.30940163
0.42508456 -0.1704883 -0.019432561 0.027886873 0.089659154 -0.1989821 0.06512182 0.07998917
0.12997396 -0.006180532 -0.19173 -0.087191395 0.10297735 -0.062071368 -0.07616963 -0.0071795303
-0.03484111 -0.0097803855 -0.06995221 0.04664726 -0.09098475 0.0092762895 0.060320333 0.019396884
0.013425194 0.015392705 -0.031698015 -0.02079237 -0.04399039 -0.0014698107 -0.039652955 0.22716911
-0.029557003 -0.026660837 0.11496903 -0.00023133298 -0.10352624 0.015401091 -0.041575994 0.034031365
-0.10076818 -0.01685339 0.0398556 0.0890939 0.039913386 0.022888953 0.077930994 0.06449862
-0.0011887534 -0.12543869 -0.19847728 -0.024254033 -0.08816197 0.052307814 -0.07156511 0.03516293
0.32533652 0.08805892 -0.6221346 -0.44945523 0.25611556 0.6623561 -0.42058423 -0.49284557
0.02968968 -0.06151371 0.04922912 -0.041593395 0.008645464 -0.06486383 -0.0020714696 0.04300297
0.017490504 -0.020631501 0.0075820964 -0.06489112 0.013864495 -0.13038516 0.05652803 -0.02551522
-0.0071390136 -0.25492793 0.124673106 -0.0051513696 0.0061929654 -0.028650131 -0.018973699 -0.17802829
0.02244327 0.19782577 -0.11926112 -0.14276828 -0.29470193 -0.22515833 -0.015109135 -0.2831662
-0.274091 -0.1024176 -0.3852485 -0.25400034 -0.05676407 -0.08149828 0.04944712 0.08091613
0.011115777 -0.06997558 -0.075277604 -0.04070414 0.033319272 0.0054199966 0.018644063 0.098815694
0.04854556 0.021587046 -0.02223602 0.049539313 0.037774052 -0.09533323 -0.062315855 -0.15863468
-0.032722887 0.016423073 -0.1131025 -0.092581876 0.017863378 -0.013963097 0.17015602 0.039516795
0.07938386 0.00556141 0.07257133 -0.07899639 0.037193984 0.0059019625 -0.06388409 0.044357926
-0.11158305 0.0895219 -0.007235896 0.0113819 0.021688938 8.10251e-05 0.031795148 0.013175921
-0.10895881 0.07669742 -0.04727437 -0.34717536 0.20702985 0.34738007 -0.42425883 -0.24137354
0.5537238 -0.32846335 -0.2552867 -0.017656986 0.03442635 0.08961501 -0.054629866 -0.04800012
0.058044013 0.0064844443 -0.010679287 -0.089272864 0.38795036 0.43684188 -0.1009864 -0.3435051
-0.20291652 -0.09833887 -0.20272899 -0.009074797 -0.16664162 -0.23747778 0.1357771 -0.110245086
-0.17326652 0.33288687 0.11989674 -0.15266727 -0.111342795 -0.36864224 -0.02965155 -0.12465296
-0.13168603 -0.05640931 0.0522965 0.021410692 -0.031645544 -0.05550696 0.0018511635 -0.081330754
0.07739612 0.05576769 0.06768885 -0.008107019 -0.07864567 0.07516212 -0.046143536 0.027734643
0.059174597 -0.09878893 0.0069884835 -0.03756809 0.07474859 -0.06720152 0.063967586 0.06572381
0.05817999 0.12410364 -0.004601459 -0.07313259 0.20068441 0.031860676 0.023795368 -0.23223181
-0.08662445 -0.1172644 0.055984765 0.039789192 0.041942604 0.029757774 -0.09669842 -0.079625115
-0.091045104 -0.08300753 0.037989717 0.09963132 0.052573703 -0.09113307 -0.10507988 -0.047667604
0.025143698 0.036447536 -0.0007523802 -0.10227914 -0.25178942 -0.20123988 0.0012270322 -0.1411596

block_2.2.bias f4 [10]
00000000: e5d4 673d 24a5 573e 0509 073e 7128 b1be
00000010: b020 b7bd 9496 743d 1ebd 2abe a609 c33c
00000020: 9112 fdbe 77fd 5fbe
0.056599516 0.2105909 0.13187034 -0.34601167 -0.089417815 0.059713915 -0.16673705 0.023808312
-0.49428228 -0.21874033

classifier.1.weight f4 [10, 490]
00000000: 2c23 8c3c e87b a03e 8c11 6a3c d39f 753e
00000010: bb44 0dbe df9c 3a3e 59a7 673e 5069 e0bd
00000020: c01d 52bd 02a8 523e 9803 553e e0b2 07bd
00000030: 67ae 133e 1247 603d 1fb8 be3d 20ea d2bd
00000040: 3425 583e d579 9a3d 381e 463d cb18 603d
00000050: 9f57 283e 5eb5 673e 2f9e 06be 4e47 71bc
00000060: 6e32 44ba 71f3 6ebd 405b 013d f303 50bd
00000070: 992c 82bd c06a 6abe 9a96 763d f951 f1bd
00000080: 7d4e ccbd 493d 63bd 220d f3bd d2f0 c2bc
00000090: 7b10 8dbd 7d38 57bd 0f4a 57bd 2786 dfbd
000000a0: 05b8 ca3b 8994 4f3d f1a0 25bd 0517 363c
000000b0: e434 9bbc 54e2 38be a835 8ebc b493 3cbb
000000c0: 2910 f03d 545e cb3d eae8 b83d 6f9b 9a3d
000000d0: 78dc 54be a8ab 70be 3f5b 623c c6e1 0c3d
000000e0: 5385 1c3e b9a4 793b b5dc a9bd 2562 bbbd
000000f0: 734e 1abe d95b 19bd 25cd 2fbd af06 013e
00000100: ef36 a73d bd9f 9d3e 7306 66bd dcfa b03d
00000110: 98ed 8b3d aee1 a63d 37e5 a93d 1db2 a33d
00000120: cd55 383e 993d 78bd 9984 61bd 1a5d 163e
00000130: e39f 813d 31b5 8d3d 9846 913d ccea 8a3d
00000140: b730 f5bd 8ed7 593d 51f2 09bd 4932 f23c
00000150: b591 49bd 2eed b33d 8ff8 b5bc 02a4 d9bd
00000160: da93 843b 9a8c d0bd ee10 113d 36e0 59bd
00000170: e1c5 2a3d 797b 1ebd 8380 3c3c a3cb c0bd
00000180: 485f 94bd d43b 9f3d 08e9 643d d339 633c
00000190: 75bb c83d a142 083e 3ea4 ae3c 22a7 a13d
000001a0: ae89 18bb 8cd9 ad3c 2c6d b03d cba7 883e
000001b0: d6d6 b33d 43d1 8a3d 2b30 fbbd 6952 9f3d
000001c0: 0453 253b 8e35 bf3d 7ab7 3d3e af54 313c
000001d0: ad47 133d eb70 643d 56f2 9f3b ef15 ce3c
000001e0: 07cd 663d 199d 95bc e731 bebc 2829 713c
000001f0: 33e0 b0bd 23d7 96bd e43c abbd f8a2 15bd
00000200: 1ff6 8cb8 b9d8 d8ba 09ee 1fbd 137b aabd
00000210: e2e0 6ebc fde5 babb d3dd 71bc 17c1 ddbc
00000220: 88e6 ff3a 3b79 b53c 8a6e e3bc fa33 dfbc
00000230: daae 58bb 2975 acbc f148 1f3e a923 77bb
00000240: 8aaf 44bd a8d0 183e 54cf fdbc 5da2 343e
00000250: e4a1 fb3b 4b29 37bd e301 72bb 96da 0e3e
00000260: f3f3 b63d a48b 873d 4b1d 953d 1ae2 1fbe
00000270: d900 45be 794d 81bd b9e5 033e 0d6d 82bd
00000280: db38 bbbd 1c8d 0bbd a340 a5bd e897 75be
00000290: eed3 e23d b537 ef3d ada6 debc 0e15 3d3e
000002a0: ceed ff3d 4ff3 ab3d d68c 16be 8ed5 6a3d
000002b0: 9e95 e83c 2598 9abd 0dae 533e 0e21 ea3c
000002c0: aef9 203e b49e f0bd dcf8 a4bd d402 06bc
000002d0: 3e15 54bd 39f8 4b3e 704b c5bd 17c2 d03d
000002e0: 7e12 70bd a5fa c1bd 7824 88bc 7a82 b9bc
000002f0: feff e23d 66e2 633c df3f 8e3d feeb 663c
00000300: f929 3b3d 82fc 83bd c51a eeba 033d b93d
00000310: 09a7 8d3c f49d ca3b a7ee fabc d87f 8ebc
00000320: f942 1f3d 63ed ad3c a3a9 dd3c 6b54 9cbc
00000330: a849 1a3d 7c80 0a3c 96a2 d73c 9f3a 713d
00000340: fa69 6cbc 1341 143c 0992 a7bb 0062 78b8
00000350: 7db6 edbc 013a d83c b114 66bd 0cfd ff3b
00000360: 97df f93d ff5f 013c 885f 15bc e593 64bd
00000370: f3be 163d c52e 203c 2d1e 833d 9daa 0d3d
00000380: 5c0b 7a3c 47e2 3a3d 779b 09bc b3bc bcbc
00000390: 47cb a1bd b20a c7bc 38d1 cc3a f63e 243d
000003a0: 3c3e 84bc d05b 4a3c c61e 33bc 8683 19bd
000003b0: caf0 babc 0479 99bd 23ee 043d fe52 023d
000003c0: 0e38 c2bb 13a1 4c3d 3132 0b3c 017e 22bb
000003d0: c7f7 57bc 1574 07bd 9bc4 15bd 7c6e dd3c
000003e0: f3e0 ff3b 3f5a ab3b 8dc4 813d 1f07 9c3b
000003f0: fce3 cb3b 4fa7 8c3d 31c4 693d 4a12 2c3d
0.017106615 0.31344533 0.01428641 0.2398675 -0.1379575 0.18223904 0.22622432 -0.10957587
-0.051297903 0.20571902 0.20802152 -0.033129573 0.14421998 0.054755278 0.09312462 -0.10298562
0.21107942 0.07542769 0.048368663 0.054711144 0.16439675 0.2262778 -0.1314628 -0.014726473
-0.0007484321 -0.058337633 0.031581163 -0.050785016 -0.063561626 -0.22892284 0.06020222 -0.11783213
-0.09975908 -0.055478368 -0.11867739 -0.023796473 -0.06887909 -0.052544106 -0.052560862 -0.109142594
0.0061864876 0.050678764 -0.04043669 0.011113887 -0.018946119 -0.18055087 -0.01735957 -0.0028774561
0.11721832 0.09930101 0.090288 0.07549178 -0.20787227 -0.23502982 0.0138157 0.034395
0.15285234 0.0038092567 -0.0829405 -0.09149579 -0.15068989 -0.03744111 -0.04292025 0.12600206
0.081647746 0.30785933 -0.056158494 0.08641598 0.06832427 0.08148514 0.082956724 0.07992957
0.1800148 -0.06060562 -0.055058096 0.14683953 0.06329324 0.06919325 0.07093543 0.06783065
-0.11972182 0.053184085 -0.033678357 0.029564993 -0.049211223 0.08785473 -0.022213249 -0.10626985
0.0040459456 -0.101830676 0.035416536 -0.05319234 0.04169262 -0.03869197 0.011505249 -0.094138406
-0.07244736 0.07775083 0.0558863 0.013868767 0.098013796 0.13306667 0.021318551 0.07893206
-0.0023275423 0.021221898 0.08614573 0.26690516 0.08781211 0.06778195 -0.12265047 0.0777939
0.0025226483 0.093363866 0.18527022 0.010823413 0.035957027 0.05577175 0.0048811836 0.025156943
0.056347873 -0.018263387 -0.023217155 0.014719285 -0.086365126 -0.07365253 -0.08361223 -0.036532372
-6.721564e-05 -0.001654408 -0.039045367 -0.08324256 -0.014579983 -0.0057036863 -0.01476236 -0.027069611
0.001952366 0.022152534 -0.02776267 -0.027246464 -0.0033063204 -0.02105196 0.15555169 -0.0037710464
-0.04801897 0.14923346 -0.03098265 0.17640062 0.007679211 -0.044717114 -0.0036927394 0.13950571
0.08933248 0.06618431 0.07280978 -0.15613595 -0.19238605 -0.06313605 0.12880601 -0.06368456
-0.09141704 -0.03407012 -0.08068969 -0.23983729 0.11075579 0.11680547 -0.027179087 0.18465063
0.124965295 0.08396017 -0.14702162 0.057332568 0.028391656 -0.075485505 0.20671864 0.028580215
0.15720245 -0.1174902 -0.08055279 -0.008179385 -0.05177807 0.19918908 -0.09633529 0.1019327
-0.058611386 -0.09471635 -0.016618952 -0.022645224 0.11083983 0.013908958 0.06945776 0.014094351
0.045694325 -0.064446464 -0.0018165937 0.0904484 0.017291563 0.0061833803 -0.030631376 -0.017394945
0.03888223 0.021231359 0.027058428 -0.019083222 0.0376679 0.008453485 0.026322644 0.058893796
-0.014429564 0.009048718 -0.0051138443 -5.9219077e-05 -0.029017681 0.026394846 -0.056172077 0.007812148
0.122008495 0.007896422 -0.009117015 -0.055805106 0.036803197 0.009776776 0.0640224 0.034586538
0.015261497 0.04562595 -0.008398882 -0.023039198 -0.079001 -0.024297092 0.0015626317 0.040099107
-0.016142957 0.012350991 -0.01093263 -0.037478946 -0.022819895 -0.07493785 0.032453667 0.03181743
-0.0059270924 0.0499583 0.008495853 -0.0024794342 -0.013181633 -0.03306969 -0.03656445 0.027030222
0.0078087985 0.005229264 0.06336317 0.004761591 0.006222246 0.06867849 0.05707187 0.04200963

classifier.1.bias f4 [10]
00000000: 85fe 983d 9609 50be 26d0 463e dc4d eebc
00000010: 793e cebe 1efa c2bc 269e 7f3e 7d71 b6bd
00000020: e3bf ad3e dc39 16be
0.07470421 -0.20316157 0.1941534 -0.02908986 -0.40282038 -0.023800906 0.24962673 -0.08908365
0.3393546 -0.14670509
